{"class_name": "Model", "config": {"name": "ResNet1D", "layers": [{"name": "input_12", "class_name": "InputLayer", "config": {"batch_input_shape": [null, 2500, 12], "dtype": "float32", "sparse": false, "ragged": false, "name": "input_12"}, "inbound_nodes": []}, {"name": "zero_padding1d_11", "class_name": "ZeroPadding1D", "config": {"name": "zero_padding1d_11", "trainable": true, "dtype": "float32", "padding": [0, 0]}, "inbound_nodes": [[["input_12", 0, 0, {}]]]}, {"name": "conv1", "class_name": "Conv1D", "config": {"name": "conv1", "trainable": true, "dtype": "float32", "filters": 16, "kernel_size": [7], "strides": [1], "padding": "same", "data_format": "channels_last", "dilation_rate": [1], "activation": "linear", "use_bias": true, "kernel_initializer": {"class_name": "VarianceScaling", "config": {"scale": 2.0, "mode": "fan_in", "distribution": "normal", "seed": 0, "dtype": "float32"}}, "bias_initializer": {"class_name": "Zeros", "config": {"dtype": "float32"}}, "kernel_regularizer": null, "bias_regularizer": null, "activity_regularizer": null, "kernel_constraint": null, "bias_constraint": null}, "inbound_nodes": [[["zero_padding1d_11", 0, 0, {}]]]}, {"name": "bn_conv1", "class_name": "BatchNormalization", "config": {"name": "bn_conv1", "trainable": true, "dtype": "float32", "axis": [2], "momentum": 0.99, "epsilon": 0.001, "center": true, "scale": true, "beta_initializer": {"class_name": "Zeros", "config": {"dtype": "float32"}}, "gamma_initializer": {"class_name": "Ones", "config": {"dtype": "float32"}}, "moving_mean_initializer": {"class_name": "Zeros", "config": {"dtype": "float32"}}, "moving_variance_initializer": {"class_name": "Ones", "config": {"dtype": "float32"}}, "beta_regularizer": null, "gamma_regularizer": null, "beta_constraint": null, "gamma_constraint": null}, "inbound_nodes": [[["conv1", 0, 0, {}]]]}, {"name": "activation_990", "class_name": "Activation", "config": {"name": "activation_990", "trainable": true, "dtype": "float32", "activation": "relu"}, "inbound_nodes": [[["bn_conv1", 0, 0, {}]]]}, {"name": "res2a_branch2a", "class_name": "Conv1D", "config": {"name": "res2a_branch2a", "trainable": true, "batch_input_shape": [null, null, 2500, 16], "dtype": "float32", "filters": 16, "kernel_size": [5], "strides": [1], "padding": "same", "data_format": "channels_last", "dilation_rate": [1], "activation": "linear", "use_bias": true, "kernel_initializer": {"class_name": "VarianceScaling", "config": {"scale": 2.0, "mode": "fan_in", "distribution": "normal", "seed": 0, "dtype": "float32"}}, "bias_initializer": {"class_name": "Zeros", "config": {"dtype": "float32"}}, "kernel_regularizer": null, "bias_regularizer": null, "activity_regularizer": null, "kernel_constraint": null, "bias_constraint": null}, "inbound_nodes": [[["activation_990", 0, 0, {}]]]}, {"name": "bn2a_branch2a", "class_name": "BatchNormalization", "config": {"name": "bn2a_branch2a", "trainable": true, "dtype": "float32", "axis": [2], "momentum": 0.99, "epsilon": 0.001, "center": true, "scale": true, "beta_initializer": {"class_name": "Zeros", "config": {"dtype": "float32"}}, "gamma_initializer": {"class_name": "Ones", "config": {"dtype": "float32"}}, "moving_mean_initializer": {"class_name": "Zeros", "config": {"dtype": "float32"}}, "moving_variance_initializer": {"class_name": "Ones", "config": {"dtype": "float32"}}, "beta_regularizer": null, "gamma_regularizer": null, "beta_constraint": null, "gamma_constraint": null}, "inbound_nodes": [[["res2a_branch2a", 0, 0, {}]]]}, {"name": "activation_991", "class_name": "Activation", "config": {"name": "activation_991", "trainable": true, "dtype": "float32", "activation": "relu"}, "inbound_nodes": [[["bn2a_branch2a", 0, 0, {}]]]}, {"name": "dropout_539", "class_name": "Dropout", "config": {"name": "dropout_539", "trainable": true, "dtype": "float32", "rate": 0.2, "noise_shape": null, "seed": null}, "inbound_nodes": [[["activation_991", 0, 0, {}]]]}, {"name": "res2a_branch1", "class_name": "Conv1D", "config": {"name": "res2a_branch1", "trainable": true, "dtype": "float32", "filters": 32, "kernel_size": [1], "strides": [1], "padding": "valid", "data_format": "channels_last", "dilation_rate": [1], "activation": "linear", "use_bias": true, "kernel_initializer": {"class_name": "VarianceScaling", "config": {"scale": 2.0, "mode": "fan_in", "distribution": "normal", "seed": 0, "dtype": "float32"}}, "bias_initializer": {"class_name": "Zeros", "config": {"dtype": "float32"}}, "kernel_regularizer": null, "bias_regularizer": null, "activity_regularizer": null, "kernel_constraint": null, "bias_constraint": null}, "inbound_nodes": [[["activation_990", 0, 0, {}]]]}, {"name": "res2a_branch2b", "class_name": "Conv1D", "config": {"name": "res2a_branch2b", "trainable": true, "dtype": "float32", "filters": 32, "kernel_size": [1], "strides": [1], "padding": "valid", "data_format": "channels_last", "dilation_rate": [1], "activation": "linear", "use_bias": true, "kernel_initializer": {"class_name": "VarianceScaling", "config": {"scale": 2.0, "mode": "fan_in", "distribution": "normal", "seed": 0, "dtype": "float32"}}, "bias_initializer": {"class_name": "Zeros", "config": {"dtype": "float32"}}, "kernel_regularizer": null, "bias_regularizer": null, "activity_regularizer": null, "kernel_constraint": null, "bias_constraint": null}, "inbound_nodes": [[["dropout_539", 0, 0, {}]]]}, {"name": "mp2a_branch1", "class_name": "MaxPooling1D", "config": {"name": "mp2a_branch1", "trainable": true, "dtype": "float32", "strides": [1], "pool_size": [1], "padding": "same", "data_format": "channels_last"}, "inbound_nodes": [[["res2a_branch1", 0, 0, {}]]]}, {"name": "add_308", "class_name": "Add", "config": {"name": "add_308", "trainable": true, "dtype": "float32"}, "inbound_nodes": [[["res2a_branch2b", 0, 0, {}], ["mp2a_branch1", 0, 0, {}]]]}, {"name": "activation_992", "class_name": "Activation", "config": {"name": "activation_992", "trainable": true, "dtype": "float32", "activation": "relu"}, "inbound_nodes": [[["add_308", 0, 0, {}]]]}, {"name": "res2b_branch2a", "class_name": "Conv1D", "config": {"name": "res2b_branch2a", "trainable": true, "batch_input_shape": [null, null, 2500, 32], "dtype": "float32", "filters": 16, "kernel_size": [1], "strides": [1], "padding": "same", "data_format": "channels_last", "dilation_rate": [1], "activation": "linear", "use_bias": true, "kernel_initializer": {"class_name": "GlorotUniform", "config": {"seed": null, "dtype": "float32"}}, "bias_initializer": {"class_name": "Zeros", "config": {"dtype": "float32"}}, "kernel_regularizer": null, "bias_regularizer": null, "activity_regularizer": null, "kernel_constraint": null, "bias_constraint": null}, "inbound_nodes": [[["activation_992", 0, 0, {}]]]}, {"name": "bn2b_branch2a", "class_name": "BatchNormalization", "config": {"name": "bn2b_branch2a", "trainable": true, "dtype": "float32", "axis": [2], "momentum": 0.99, "epsilon": 0.001, "center": true, "scale": true, "beta_initializer": {"class_name": "Zeros", "config": {"dtype": "float32"}}, "gamma_initializer": {"class_name": "Ones", "config": {"dtype": "float32"}}, "moving_mean_initializer": {"class_name": "Zeros", "config": {"dtype": "float32"}}, "moving_variance_initializer": {"class_name": "Ones", "config": {"dtype": "float32"}}, "beta_regularizer": null, "gamma_regularizer": null, "beta_constraint": null, "gamma_constraint": null}, "inbound_nodes": [[["res2b_branch2a", 0, 0, {}]]]}, {"name": "activation_993", "class_name": "Activation", "config": {"name": "activation_993", "trainable": true, "dtype": "float32", "activation": "relu"}, "inbound_nodes": [[["bn2b_branch2a", 0, 0, {}]]]}, {"name": "dropout_540", "class_name": "Dropout", "config": {"name": "dropout_540", "trainable": true, "dtype": "float32", "rate": 0.2, "noise_shape": null, "seed": null}, "inbound_nodes": [[["activation_993", 0, 0, {}]]]}, {"name": "res2b_branch2b", "class_name": "Conv1D", "config": {"name": "res2b_branch2b", "trainable": true, "dtype": "float32", "filters": 16, "kernel_size": [7], "strides": [1], "padding": "same", "data_format": "channels_last", "dilation_rate": [1], "activation": "linear", "use_bias": true, "kernel_initializer": {"class_name": "GlorotUniform", "config": {"seed": null, "dtype": "float32"}}, "bias_initializer": {"class_name": "Zeros", "config": {"dtype": "float32"}}, "kernel_regularizer": null, "bias_regularizer": null, "activity_regularizer": null, "kernel_constraint": null, "bias_constraint": null}, "inbound_nodes": [[["dropout_540", 0, 0, {}]]]}, {"name": "bn2b_branch2b", "class_name": "BatchNormalization", "config": {"name": "bn2b_branch2b", "trainable": true, "dtype": "float32", "axis": [2], "momentum": 0.99, "epsilon": 0.001, "center": true, "scale": true, "beta_initializer": {"class_name": "Zeros", "config": {"dtype": "float32"}}, "gamma_initializer": {"class_name": "Ones", "config": {"dtype": "float32"}}, "moving_mean_initializer": {"class_name": "Zeros", "config": {"dtype": "float32"}}, "moving_variance_initializer": {"class_name": "Ones", "config": {"dtype": "float32"}}, "beta_regularizer": null, "gamma_regularizer": null, "beta_constraint": null, "gamma_constraint": null}, "inbound_nodes": [[["res2b_branch2b", 0, 0, {}]]]}, {"name": "activation_994", "class_name": "Activation", "config": {"name": "activation_994", "trainable": true, "dtype": "float32", "activation": "relu"}, "inbound_nodes": [[["bn2b_branch2b", 0, 0, {}]]]}, {"name": "dropout_541", "class_name": "Dropout", "config": {"name": "dropout_541", "trainable": true, "dtype": "float32", "rate": 0.2, "noise_shape": null, "seed": null}, "inbound_nodes": [[["activation_994", 0, 0, {}]]]}, {"name": "res2b_branch2c", "class_name": "Conv1D", "config": {"name": "res2b_branch2c", "trainable": true, "dtype": "float32", "filters": 32, "kernel_size": [1], "strides": [1], "padding": "same", "data_format": "channels_last", "dilation_rate": [1], "activation": "linear", "use_bias": true, "kernel_initializer": {"class_name": "GlorotUniform", "config": {"seed": null, "dtype": "float32"}}, "bias_initializer": {"class_name": "Zeros", "config": {"dtype": "float32"}}, "kernel_regularizer": null, "bias_regularizer": null, "activity_regularizer": null, "kernel_constraint": null, "bias_constraint": null}, "inbound_nodes": [[["dropout_541", 0, 0, {}]]]}, {"name": "bn2b_branch2c", "class_name": "BatchNormalization", "config": {"name": "bn2b_branch2c", "trainable": true, "dtype": "float32", "axis": [2], "momentum": 0.99, "epsilon": 0.001, "center": true, "scale": true, "beta_initializer": {"class_name": "Zeros", "config": {"dtype": "float32"}}, "gamma_initializer": {"class_name": "Ones", "config": {"dtype": "float32"}}, "moving_mean_initializer": {"class_name": "Zeros", "config": {"dtype": "float32"}}, "moving_variance_initializer": {"class_name": "Ones", "config": {"dtype": "float32"}}, "beta_regularizer": null, "gamma_regularizer": null, "beta_constraint": null, "gamma_constraint": null}, "inbound_nodes": [[["res2b_branch2c", 0, 0, {}]]]}, {"name": "add_309", "class_name": "Add", "config": {"name": "add_309", "trainable": true, "dtype": "float32"}, "inbound_nodes": [[["bn2b_branch2c", 0, 0, {}], ["activation_992", 0, 0, {}]]]}, {"name": "activation_995", "class_name": "Activation", "config": {"name": "activation_995", "trainable": true, "dtype": "float32", "activation": "relu"}, "inbound_nodes": [[["add_309", 0, 0, {}]]]}, {"name": "res2c_branch2a", "class_name": "Conv1D", "config": {"name": "res2c_branch2a", "trainable": true, "batch_input_shape": [null, null, 2500, 32], "dtype": "float32", "filters": 16, "kernel_size": [1], "strides": [1], "padding": "same", "data_format": "channels_last", "dilation_rate": [1], "activation": "linear", "use_bias": true, "kernel_initializer": {"class_name": "GlorotUniform", "config": {"seed": null, "dtype": "float32"}}, "bias_initializer": {"class_name": "Zeros", "config": {"dtype": "float32"}}, "kernel_regularizer": null, "bias_regularizer": null, "activity_regularizer": null, "kernel_constraint": null, "bias_constraint": null}, "inbound_nodes": [[["activation_995", 0, 0, {}]]]}, {"name": "bn2c_branch2a", "class_name": "BatchNormalization", "config": {"name": "bn2c_branch2a", "trainable": true, "dtype": "float32", "axis": [2], "momentum": 0.99, "epsilon": 0.001, "center": true, "scale": true, "beta_initializer": {"class_name": "Zeros", "config": {"dtype": "float32"}}, "gamma_initializer": {"class_name": "Ones", "config": {"dtype": "float32"}}, "moving_mean_initializer": {"class_name": "Zeros", "config": {"dtype": "float32"}}, "moving_variance_initializer": {"class_name": "Ones", "config": {"dtype": "float32"}}, "beta_regularizer": null, "gamma_regularizer": null, "beta_constraint": null, "gamma_constraint": null}, "inbound_nodes": [[["res2c_branch2a", 0, 0, {}]]]}, {"name": "activation_996", "class_name": "Activation", "config": {"name": "activation_996", "trainable": true, "dtype": "float32", "activation": "relu"}, "inbound_nodes": [[["bn2c_branch2a", 0, 0, {}]]]}, {"name": "dropout_542", "class_name": "Dropout", "config": {"name": "dropout_542", "trainable": true, "dtype": "float32", "rate": 0.2, "noise_shape": null, "seed": null}, "inbound_nodes": [[["activation_996", 0, 0, {}]]]}, {"name": "res2c_branch2b", "class_name": "Conv1D", "config": {"name": "res2c_branch2b", "trainable": true, "dtype": "float32", "filters": 16, "kernel_size": [7], "strides": [1], "padding": "same", "data_format": "channels_last", "dilation_rate": [1], "activation": "linear", "use_bias": true, "kernel_initializer": {"class_name": "GlorotUniform", "config": {"seed": null, "dtype": "float32"}}, "bias_initializer": {"class_name": "Zeros", "config": {"dtype": "float32"}}, "kernel_regularizer": null, "bias_regularizer": null, "activity_regularizer": null, "kernel_constraint": null, "bias_constraint": null}, "inbound_nodes": [[["dropout_542", 0, 0, {}]]]}, {"name": "bn2c_branch2b", "class_name": "BatchNormalization", "config": {"name": "bn2c_branch2b", "trainable": true, "dtype": "float32", "axis": [2], "momentum": 0.99, "epsilon": 0.001, "center": true, "scale": true, "beta_initializer": {"class_name": "Zeros", "config": {"dtype": "float32"}}, "gamma_initializer": {"class_name": "Ones", "config": {"dtype": "float32"}}, "moving_mean_initializer": {"class_name": "Zeros", "config": {"dtype": "float32"}}, "moving_variance_initializer": {"class_name": "Ones", "config": {"dtype": "float32"}}, "beta_regularizer": null, "gamma_regularizer": null, "beta_constraint": null, "gamma_constraint": null}, "inbound_nodes": [[["res2c_branch2b", 0, 0, {}]]]}, {"name": "activation_997", "class_name": "Activation", "config": {"name": "activation_997", "trainable": true, "dtype": "float32", "activation": "relu"}, "inbound_nodes": [[["bn2c_branch2b", 0, 0, {}]]]}, {"name": "dropout_543", "class_name": "Dropout", "config": {"name": "dropout_543", "trainable": true, "dtype": "float32", "rate": 0.2, "noise_shape": null, "seed": null}, "inbound_nodes": [[["activation_997", 0, 0, {}]]]}, {"name": "res2c_branch2c", "class_name": "Conv1D", "config": {"name": "res2c_branch2c", "trainable": true, "dtype": "float32", "filters": 32, "kernel_size": [1], "strides": [1], "padding": "same", "data_format": "channels_last", "dilation_rate": [1], "activation": "linear", "use_bias": true, "kernel_initializer": {"class_name": "GlorotUniform", "config": {"seed": null, "dtype": "float32"}}, "bias_initializer": {"class_name": "Zeros", "config": {"dtype": "float32"}}, "kernel_regularizer": null, "bias_regularizer": null, "activity_regularizer": null, "kernel_constraint": null, "bias_constraint": null}, "inbound_nodes": [[["dropout_543", 0, 0, {}]]]}, {"name": "bn2c_branch2c", "class_name": "BatchNormalization", "config": {"name": "bn2c_branch2c", "trainable": true, "dtype": "float32", "axis": [2], "momentum": 0.99, "epsilon": 0.001, "center": true, "scale": true, "beta_initializer": {"class_name": "Zeros", "config": {"dtype": "float32"}}, "gamma_initializer": {"class_name": "Ones", "config": {"dtype": "float32"}}, "moving_mean_initializer": {"class_name": "Zeros", "config": {"dtype": "float32"}}, "moving_variance_initializer": {"class_name": "Ones", "config": {"dtype": "float32"}}, "beta_regularizer": null, "gamma_regularizer": null, "beta_constraint": null, "gamma_constraint": null}, "inbound_nodes": [[["res2c_branch2c", 0, 0, {}]]]}, {"name": "add_310", "class_name": "Add", "config": {"name": "add_310", "trainable": true, "dtype": "float32"}, "inbound_nodes": [[["bn2c_branch2c", 0, 0, {}], ["activation_995", 0, 0, {}]]]}, {"name": "activation_998", "class_name": "Activation", "config": {"name": "activation_998", "trainable": true, "dtype": "float32", "activation": "relu"}, "inbound_nodes": [[["add_310", 0, 0, {}]]]}, {"name": "res2d_branch2a", "class_name": "Conv1D", "config": {"name": "res2d_branch2a", "trainable": true, "batch_input_shape": [null, null, 2500, 32], "dtype": "float32", "filters": 16, "kernel_size": [3], "strides": [1], "padding": "same", "data_format": "channels_last", "dilation_rate": [1], "activation": "linear", "use_bias": true, "kernel_initializer": {"class_name": "VarianceScaling", "config": {"scale": 2.0, "mode": "fan_in", "distribution": "normal", "seed": 0, "dtype": "float32"}}, "bias_initializer": {"class_name": "Zeros", "config": {"dtype": "float32"}}, "kernel_regularizer": null, "bias_regularizer": null, "activity_regularizer": null, "kernel_constraint": null, "bias_constraint": null}, "inbound_nodes": [[["activation_998", 0, 0, {}]]]}, {"name": "bn2d_branch2a", "class_name": "BatchNormalization", "config": {"name": "bn2d_branch2a", "trainable": true, "dtype": "float32", "axis": [2], "momentum": 0.99, "epsilon": 0.001, "center": true, "scale": true, "beta_initializer": {"class_name": "Zeros", "config": {"dtype": "float32"}}, "gamma_initializer": {"class_name": "Ones", "config": {"dtype": "float32"}}, "moving_mean_initializer": {"class_name": "Zeros", "config": {"dtype": "float32"}}, "moving_variance_initializer": {"class_name": "Ones", "config": {"dtype": "float32"}}, "beta_regularizer": null, "gamma_regularizer": null, "beta_constraint": null, "gamma_constraint": null}, "inbound_nodes": [[["res2d_branch2a", 0, 0, {}]]]}, {"name": "activation_999", "class_name": "Activation", "config": {"name": "activation_999", "trainable": true, "dtype": "float32", "activation": "relu"}, "inbound_nodes": [[["bn2d_branch2a", 0, 0, {}]]]}, {"name": "dropout_544", "class_name": "Dropout", "config": {"name": "dropout_544", "trainable": true, "dtype": "float32", "rate": 0.2, "noise_shape": null, "seed": null}, "inbound_nodes": [[["activation_999", 0, 0, {}]]]}, {"name": "res2d_branch2b", "class_name": "Conv1D", "config": {"name": "res2d_branch2b", "trainable": true, "dtype": "float32", "filters": 16, "kernel_size": [24], "strides": [1], "padding": "same", "data_format": "channels_last", "dilation_rate": [1], "activation": "linear", "use_bias": true, "kernel_initializer": {"class_name": "VarianceScaling", "config": {"scale": 2.0, "mode": "fan_in", "distribution": "normal", "seed": 0, "dtype": "float32"}}, "bias_initializer": {"class_name": "Zeros", "config": {"dtype": "float32"}}, "kernel_regularizer": null, "bias_regularizer": null, "activity_regularizer": null, "kernel_constraint": null, "bias_constraint": null}, "inbound_nodes": [[["dropout_544", 0, 0, {}]]]}, {"name": "bn2d_branch2b", "class_name": "BatchNormalization", "config": {"name": "bn2d_branch2b", "trainable": true, "dtype": "float32", "axis": [2], "momentum": 0.99, "epsilon": 0.001, "center": true, "scale": true, "beta_initializer": {"class_name": "Zeros", "config": {"dtype": "float32"}}, "gamma_initializer": {"class_name": "Ones", "config": {"dtype": "float32"}}, "moving_mean_initializer": {"class_name": "Zeros", "config": {"dtype": "float32"}}, "moving_variance_initializer": {"class_name": "Ones", "config": {"dtype": "float32"}}, "beta_regularizer": null, "gamma_regularizer": null, "beta_constraint": null, "gamma_constraint": null}, "inbound_nodes": [[["res2d_branch2b", 0, 0, {}]]]}, {"name": "activation_1000", "class_name": "Activation", "config": {"name": "activation_1000", "trainable": true, "dtype": "float32", "activation": "relu"}, "inbound_nodes": [[["bn2d_branch2b", 0, 0, {}]]]}, {"name": "dropout_545", "class_name": "Dropout", "config": {"name": "dropout_545", "trainable": true, "dtype": "float32", "rate": 0.2, "noise_shape": null, "seed": null}, "inbound_nodes": [[["activation_1000", 0, 0, {}]]]}, {"name": "res2d_branch2c", "class_name": "Conv1D", "config": {"name": "res2d_branch2c", "trainable": true, "dtype": "float32", "filters": 32, "kernel_size": [1], "strides": [1], "padding": "same", "data_format": "channels_last", "dilation_rate": [1], "activation": "linear", "use_bias": true, "kernel_initializer": {"class_name": "VarianceScaling", "config": {"scale": 2.0, "mode": "fan_in", "distribution": "normal", "seed": 0, "dtype": "float32"}}, "bias_initializer": {"class_name": "Zeros", "config": {"dtype": "float32"}}, "kernel_regularizer": null, "bias_regularizer": null, "activity_regularizer": null, "kernel_constraint": null, "bias_constraint": null}, "inbound_nodes": [[["dropout_545", 0, 0, {}]]]}, {"name": "bn2d_branch2c", "class_name": "BatchNormalization", "config": {"name": "bn2d_branch2c", "trainable": true, "dtype": "float32", "axis": [2], "momentum": 0.99, "epsilon": 0.001, "center": true, "scale": true, "beta_initializer": {"class_name": "Zeros", "config": {"dtype": "float32"}}, "gamma_initializer": {"class_name": "Ones", "config": {"dtype": "float32"}}, "moving_mean_initializer": {"class_name": "Zeros", "config": {"dtype": "float32"}}, "moving_variance_initializer": {"class_name": "Ones", "config": {"dtype": "float32"}}, "beta_regularizer": null, "gamma_regularizer": null, "beta_constraint": null, "gamma_constraint": null}, "inbound_nodes": [[["res2d_branch2c", 0, 0, {}]]]}, {"name": "activation_1001", "class_name": "Activation", "config": {"name": "activation_1001", "trainable": true, "dtype": "float32", "activation": "relu"}, "inbound_nodes": [[["bn2d_branch2c", 0, 0, {}]]]}, {"name": "res2d_branch1", "class_name": "Conv1D", "config": {"name": "res2d_branch1", "trainable": true, "dtype": "float32", "filters": 32, "kernel_size": [1], "strides": [1], "padding": "same", "data_format": "channels_last", "dilation_rate": [1], "activation": "linear", "use_bias": true, "kernel_initializer": {"class_name": "VarianceScaling", "config": {"scale": 2.0, "mode": "fan_in", "distribution": "normal", "seed": 0, "dtype": "float32"}}, "bias_initializer": {"class_name": "Zeros", "config": {"dtype": "float32"}}, "kernel_regularizer": null, "bias_regularizer": null, "activity_regularizer": null, "kernel_constraint": null, "bias_constraint": null}, "inbound_nodes": [[["activation_998", 0, 0, {}]]]}, {"name": "dropout_546", "class_name": "Dropout", "config": {"name": "dropout_546", "trainable": true, "dtype": "float32", "rate": 0.2, "noise_shape": null, "seed": null}, "inbound_nodes": [[["activation_1001", 0, 0, {}]]]}, {"name": "bn2d_branch1", "class_name": "BatchNormalization", "config": {"name": "bn2d_branch1", "trainable": true, "dtype": "float32", "axis": [2], "momentum": 0.99, "epsilon": 0.001, "center": true, "scale": true, "beta_initializer": {"class_name": "Zeros", "config": {"dtype": "float32"}}, "gamma_initializer": {"class_name": "Ones", "config": {"dtype": "float32"}}, "moving_mean_initializer": {"class_name": "Zeros", "config": {"dtype": "float32"}}, "moving_variance_initializer": {"class_name": "Ones", "config": {"dtype": "float32"}}, "beta_regularizer": null, "gamma_regularizer": null, "beta_constraint": null, "gamma_constraint": null}, "inbound_nodes": [[["res2d_branch1", 0, 0, {}]]]}, {"name": "add_311", "class_name": "Add", "config": {"name": "add_311", "trainable": true, "dtype": "float32"}, "inbound_nodes": [[["dropout_546", 0, 0, {}], ["bn2d_branch1", 0, 0, {}]]]}, {"name": "activation_1002", "class_name": "Activation", "config": {"name": "activation_1002", "trainable": true, "dtype": "float32", "activation": "relu"}, "inbound_nodes": [[["add_311", 0, 0, {}]]]}, {"name": "bn3a_branch2a", "class_name": "BatchNormalization", "config": {"name": "bn3a_branch2a", "trainable": true, "dtype": "float32", "axis": [2], "momentum": 0.99, "epsilon": 0.001, "center": true, "scale": true, "beta_initializer": {"class_name": "Zeros", "config": {"dtype": "float32"}}, "gamma_initializer": {"class_name": "Ones", "config": {"dtype": "float32"}}, "moving_mean_initializer": {"class_name": "Zeros", "config": {"dtype": "float32"}}, "moving_variance_initializer": {"class_name": "Ones", "config": {"dtype": "float32"}}, "beta_regularizer": null, "gamma_regularizer": null, "beta_constraint": null, "gamma_constraint": null}, "inbound_nodes": [[["activation_1002", 0, 0, {}]]]}, {"name": "activation_1003", "class_name": "Activation", "config": {"name": "activation_1003", "trainable": true, "dtype": "float32", "activation": "relu"}, "inbound_nodes": [[["bn3a_branch2a", 0, 0, {}]]]}, {"name": "res3a_branch2b", "class_name": "Conv1D", "config": {"name": "res3a_branch2b", "trainable": true, "batch_input_shape": [null, null, 2500, 32], "dtype": "float32", "filters": 16, "kernel_size": [5], "strides": [2], "padding": "same", "data_format": "channels_last", "dilation_rate": [1], "activation": "linear", "use_bias": true, "kernel_initializer": {"class_name": "VarianceScaling", "config": {"scale": 2.0, "mode": "fan_in", "distribution": "normal", "seed": 0, "dtype": "float32"}}, "bias_initializer": {"class_name": "Zeros", "config": {"dtype": "float32"}}, "kernel_regularizer": null, "bias_regularizer": null, "activity_regularizer": null, "kernel_constraint": null, "bias_constraint": null}, "inbound_nodes": [[["activation_1003", 0, 0, {}]]]}, {"name": "bn3a_branch2b", "class_name": "BatchNormalization", "config": {"name": "bn3a_branch2b", "trainable": true, "dtype": "float32", "axis": [2], "momentum": 0.99, "epsilon": 0.001, "center": true, "scale": true, "beta_initializer": {"class_name": "Zeros", "config": {"dtype": "float32"}}, "gamma_initializer": {"class_name": "Ones", "config": {"dtype": "float32"}}, "moving_mean_initializer": {"class_name": "Zeros", "config": {"dtype": "float32"}}, "moving_variance_initializer": {"class_name": "Ones", "config": {"dtype": "float32"}}, "beta_regularizer": null, "gamma_regularizer": null, "beta_constraint": null, "gamma_constraint": null}, "inbound_nodes": [[["res3a_branch2b", 0, 0, {}]]]}, {"name": "activation_1004", "class_name": "Activation", "config": {"name": "activation_1004", "trainable": true, "dtype": "float32", "activation": "relu"}, "inbound_nodes": [[["bn3a_branch2b", 0, 0, {}]]]}, {"name": "dropout_547", "class_name": "Dropout", "config": {"name": "dropout_547", "trainable": true, "dtype": "float32", "rate": 0.2, "noise_shape": null, "seed": null}, "inbound_nodes": [[["activation_1004", 0, 0, {}]]]}, {"name": "res3a_branch1", "class_name": "Conv1D", "config": {"name": "res3a_branch1", "trainable": true, "dtype": "float32", "filters": 32, "kernel_size": [1], "strides": [1], "padding": "valid", "data_format": "channels_last", "dilation_rate": [1], "activation": "linear", "use_bias": true, "kernel_initializer": {"class_name": "VarianceScaling", "config": {"scale": 2.0, "mode": "fan_in", "distribution": "normal", "seed": 0, "dtype": "float32"}}, "bias_initializer": {"class_name": "Zeros", "config": {"dtype": "float32"}}, "kernel_regularizer": null, "bias_regularizer": null, "activity_regularizer": null, "kernel_constraint": null, "bias_constraint": null}, "inbound_nodes": [[["activation_1002", 0, 0, {}]]]}, {"name": "res3a_branch2c", "class_name": "Conv1D", "config": {"name": "res3a_branch2c", "trainable": true, "dtype": "float32", "filters": 32, "kernel_size": [1], "strides": [1], "padding": "same", "data_format": "channels_last", "dilation_rate": [1], "activation": "linear", "use_bias": true, "kernel_initializer": {"class_name": "VarianceScaling", "config": {"scale": 2.0, "mode": "fan_in", "distribution": "normal", "seed": 0, "dtype": "float32"}}, "bias_initializer": {"class_name": "Zeros", "config": {"dtype": "float32"}}, "kernel_regularizer": null, "bias_regularizer": null, "activity_regularizer": null, "kernel_constraint": null, "bias_constraint": null}, "inbound_nodes": [[["dropout_547", 0, 0, {}]]]}, {"name": "mp3a_branch1", "class_name": "MaxPooling1D", "config": {"name": "mp3a_branch1", "trainable": true, "dtype": "float32", "strides": [2], "pool_size": [2], "padding": "same", "data_format": "channels_last"}, "inbound_nodes": [[["res3a_branch1", 0, 0, {}]]]}, {"name": "add_312", "class_name": "Add", "config": {"name": "add_312", "trainable": true, "dtype": "float32"}, "inbound_nodes": [[["res3a_branch2c", 0, 0, {}], ["mp3a_branch1", 0, 0, {}]]]}, {"name": "activation_1005", "class_name": "Activation", "config": {"name": "activation_1005", "trainable": true, "dtype": "float32", "activation": "relu"}, "inbound_nodes": [[["add_312", 0, 0, {}]]]}, {"name": "bn3b_branch2a", "class_name": "BatchNormalization", "config": {"name": "bn3b_branch2a", "trainable": true, "dtype": "float32", "axis": [2], "momentum": 0.99, "epsilon": 0.001, "center": true, "scale": true, "beta_initializer": {"class_name": "Zeros", "config": {"dtype": "float32"}}, "gamma_initializer": {"class_name": "Ones", "config": {"dtype": "float32"}}, "moving_mean_initializer": {"class_name": "Zeros", "config": {"dtype": "float32"}}, "moving_variance_initializer": {"class_name": "Ones", "config": {"dtype": "float32"}}, "beta_regularizer": null, "gamma_regularizer": null, "beta_constraint": null, "gamma_constraint": null}, "inbound_nodes": [[["activation_1005", 0, 0, {}]]]}, {"name": "activation_1006", "class_name": "Activation", "config": {"name": "activation_1006", "trainable": true, "dtype": "float32", "activation": "relu"}, "inbound_nodes": [[["bn3b_branch2a", 0, 0, {}]]]}, {"name": "res3b_branch2b", "class_name": "Conv1D", "config": {"name": "res3b_branch2b", "trainable": true, "batch_input_shape": [null, null, 1250, 32], "dtype": "float32", "filters": 16, "kernel_size": [13], "strides": [1], "padding": "same", "data_format": "channels_last", "dilation_rate": [1], "activation": "linear", "use_bias": true, "kernel_initializer": {"class_name": "VarianceScaling", "config": {"scale": 2.0, "mode": "fan_in", "distribution": "normal", "seed": 0, "dtype": "float32"}}, "bias_initializer": {"class_name": "Zeros", "config": {"dtype": "float32"}}, "kernel_regularizer": null, "bias_regularizer": null, "activity_regularizer": null, "kernel_constraint": null, "bias_constraint": null}, "inbound_nodes": [[["activation_1006", 0, 0, {}]]]}, {"name": "bn3b_branch2b", "class_name": "BatchNormalization", "config": {"name": "bn3b_branch2b", "trainable": true, "dtype": "float32", "axis": [2], "momentum": 0.99, "epsilon": 0.001, "center": true, "scale": true, "beta_initializer": {"class_name": "Zeros", "config": {"dtype": "float32"}}, "gamma_initializer": {"class_name": "Ones", "config": {"dtype": "float32"}}, "moving_mean_initializer": {"class_name": "Zeros", "config": {"dtype": "float32"}}, "moving_variance_initializer": {"class_name": "Ones", "config": {"dtype": "float32"}}, "beta_regularizer": null, "gamma_regularizer": null, "beta_constraint": null, "gamma_constraint": null}, "inbound_nodes": [[["res3b_branch2b", 0, 0, {}]]]}, {"name": "activation_1007", "class_name": "Activation", "config": {"name": "activation_1007", "trainable": true, "dtype": "float32", "activation": "relu"}, "inbound_nodes": [[["bn3b_branch2b", 0, 0, {}]]]}, {"name": "dropout_548", "class_name": "Dropout", "config": {"name": "dropout_548", "trainable": true, "dtype": "float32", "rate": 0.2, "noise_shape": null, "seed": null}, "inbound_nodes": [[["activation_1007", 0, 0, {}]]]}, {"name": "res3b_branch1", "class_name": "Conv1D", "config": {"name": "res3b_branch1", "trainable": true, "dtype": "float32", "filters": 32, "kernel_size": [1], "strides": [1], "padding": "valid", "data_format": "channels_last", "dilation_rate": [1], "activation": "linear", "use_bias": true, "kernel_initializer": {"class_name": "VarianceScaling", "config": {"scale": 2.0, "mode": "fan_in", "distribution": "normal", "seed": 0, "dtype": "float32"}}, "bias_initializer": {"class_name": "Zeros", "config": {"dtype": "float32"}}, "kernel_regularizer": null, "bias_regularizer": null, "activity_regularizer": null, "kernel_constraint": null, "bias_constraint": null}, "inbound_nodes": [[["activation_1005", 0, 0, {}]]]}, {"name": "res3b_branch2c", "class_name": "Conv1D", "config": {"name": "res3b_branch2c", "trainable": true, "dtype": "float32", "filters": 32, "kernel_size": [1], "strides": [1], "padding": "same", "data_format": "channels_last", "dilation_rate": [1], "activation": "linear", "use_bias": true, "kernel_initializer": {"class_name": "VarianceScaling", "config": {"scale": 2.0, "mode": "fan_in", "distribution": "normal", "seed": 0, "dtype": "float32"}}, "bias_initializer": {"class_name": "Zeros", "config": {"dtype": "float32"}}, "kernel_regularizer": null, "bias_regularizer": null, "activity_regularizer": null, "kernel_constraint": null, "bias_constraint": null}, "inbound_nodes": [[["dropout_548", 0, 0, {}]]]}, {"name": "mp3b_branch1", "class_name": "MaxPooling1D", "config": {"name": "mp3b_branch1", "trainable": true, "dtype": "float32", "strides": [1], "pool_size": [1], "padding": "same", "data_format": "channels_last"}, "inbound_nodes": [[["res3b_branch1", 0, 0, {}]]]}, {"name": "add_313", "class_name": "Add", "config": {"name": "add_313", "trainable": true, "dtype": "float32"}, "inbound_nodes": [[["res3b_branch2c", 0, 0, {}], ["mp3b_branch1", 0, 0, {}]]]}, {"name": "activation_1008", "class_name": "Activation", "config": {"name": "activation_1008", "trainable": true, "dtype": "float32", "activation": "relu"}, "inbound_nodes": [[["add_313", 0, 0, {}]]]}, {"name": "bn3d_branch2a", "class_name": "BatchNormalization", "config": {"name": "bn3d_branch2a", "trainable": true, "dtype": "float32", "axis": [2], "momentum": 0.99, "epsilon": 0.001, "center": true, "scale": true, "beta_initializer": {"class_name": "Zeros", "config": {"dtype": "float32"}}, "gamma_initializer": {"class_name": "Ones", "config": {"dtype": "float32"}}, "moving_mean_initializer": {"class_name": "Zeros", "config": {"dtype": "float32"}}, "moving_variance_initializer": {"class_name": "Ones", "config": {"dtype": "float32"}}, "beta_regularizer": null, "gamma_regularizer": null, "beta_constraint": null, "gamma_constraint": null}, "inbound_nodes": [[["activation_1008", 0, 0, {}]]]}, {"name": "activation_1009", "class_name": "Activation", "config": {"name": "activation_1009", "trainable": true, "dtype": "float32", "activation": "relu"}, "inbound_nodes": [[["bn3d_branch2a", 0, 0, {}]]]}, {"name": "res3d_branch2b", "class_name": "Conv1D", "config": {"name": "res3d_branch2b", "trainable": true, "batch_input_shape": [null, null, 1250, 32], "dtype": "float32", "filters": 16, "kernel_size": [13], "strides": [2], "padding": "same", "data_format": "channels_last", "dilation_rate": [1], "activation": "linear", "use_bias": true, "kernel_initializer": {"class_name": "VarianceScaling", "config": {"scale": 2.0, "mode": "fan_in", "distribution": "normal", "seed": 0, "dtype": "float32"}}, "bias_initializer": {"class_name": "Zeros", "config": {"dtype": "float32"}}, "kernel_regularizer": null, "bias_regularizer": null, "activity_regularizer": null, "kernel_constraint": null, "bias_constraint": null}, "inbound_nodes": [[["activation_1009", 0, 0, {}]]]}, {"name": "bn3d_branch2b", "class_name": "BatchNormalization", "config": {"name": "bn3d_branch2b", "trainable": true, "dtype": "float32", "axis": [2], "momentum": 0.99, "epsilon": 0.001, "center": true, "scale": true, "beta_initializer": {"class_name": "Zeros", "config": {"dtype": "float32"}}, "gamma_initializer": {"class_name": "Ones", "config": {"dtype": "float32"}}, "moving_mean_initializer": {"class_name": "Zeros", "config": {"dtype": "float32"}}, "moving_variance_initializer": {"class_name": "Ones", "config": {"dtype": "float32"}}, "beta_regularizer": null, "gamma_regularizer": null, "beta_constraint": null, "gamma_constraint": null}, "inbound_nodes": [[["res3d_branch2b", 0, 0, {}]]]}, {"name": "activation_1010", "class_name": "Activation", "config": {"name": "activation_1010", "trainable": true, "dtype": "float32", "activation": "relu"}, "inbound_nodes": [[["bn3d_branch2b", 0, 0, {}]]]}, {"name": "dropout_549", "class_name": "Dropout", "config": {"name": "dropout_549", "trainable": true, "dtype": "float32", "rate": 0.2, "noise_shape": null, "seed": null}, "inbound_nodes": [[["activation_1010", 0, 0, {}]]]}, {"name": "res3d_branch1", "class_name": "Conv1D", "config": {"name": "res3d_branch1", "trainable": true, "dtype": "float32", "filters": 32, "kernel_size": [1], "strides": [1], "padding": "valid", "data_format": "channels_last", "dilation_rate": [1], "activation": "linear", "use_bias": true, "kernel_initializer": {"class_name": "VarianceScaling", "config": {"scale": 2.0, "mode": "fan_in", "distribution": "normal", "seed": 0, "dtype": "float32"}}, "bias_initializer": {"class_name": "Zeros", "config": {"dtype": "float32"}}, "kernel_regularizer": null, "bias_regularizer": null, "activity_regularizer": null, "kernel_constraint": null, "bias_constraint": null}, "inbound_nodes": [[["activation_1008", 0, 0, {}]]]}, {"name": "res3d_branch2c", "class_name": "Conv1D", "config": {"name": "res3d_branch2c", "trainable": true, "dtype": "float32", "filters": 32, "kernel_size": [1], "strides": [1], "padding": "same", "data_format": "channels_last", "dilation_rate": [1], "activation": "linear", "use_bias": true, "kernel_initializer": {"class_name": "VarianceScaling", "config": {"scale": 2.0, "mode": "fan_in", "distribution": "normal", "seed": 0, "dtype": "float32"}}, "bias_initializer": {"class_name": "Zeros", "config": {"dtype": "float32"}}, "kernel_regularizer": null, "bias_regularizer": null, "activity_regularizer": null, "kernel_constraint": null, "bias_constraint": null}, "inbound_nodes": [[["dropout_549", 0, 0, {}]]]}, {"name": "mp3d_branch1", "class_name": "MaxPooling1D", "config": {"name": "mp3d_branch1", "trainable": true, "dtype": "float32", "strides": [2], "pool_size": [2], "padding": "same", "data_format": "channels_last"}, "inbound_nodes": [[["res3d_branch1", 0, 0, {}]]]}, {"name": "add_314", "class_name": "Add", "config": {"name": "add_314", "trainable": true, "dtype": "float32"}, "inbound_nodes": [[["res3d_branch2c", 0, 0, {}], ["mp3d_branch1", 0, 0, {}]]]}, {"name": "activation_1011", "class_name": "Activation", "config": {"name": "activation_1011", "trainable": true, "dtype": "float32", "activation": "relu"}, "inbound_nodes": [[["add_314", 0, 0, {}]]]}, {"name": "res3e_branch2a", "class_name": "Conv1D", "config": {"name": "res3e_branch2a", "trainable": true, "batch_input_shape": [null, null, 625, 32], "dtype": "float32", "filters": 16, "kernel_size": [1], "strides": [1], "padding": "same", "data_format": "channels_last", "dilation_rate": [1], "activation": "linear", "use_bias": true, "kernel_initializer": {"class_name": "GlorotUniform", "config": {"seed": null, "dtype": "float32"}}, "bias_initializer": {"class_name": "Zeros", "config": {"dtype": "float32"}}, "kernel_regularizer": null, "bias_regularizer": null, "activity_regularizer": null, "kernel_constraint": null, "bias_constraint": null}, "inbound_nodes": [[["activation_1011", 0, 0, {}]]]}, {"name": "bn3e_branch2a", "class_name": "BatchNormalization", "config": {"name": "bn3e_branch2a", "trainable": true, "dtype": "float32", "axis": [2], "momentum": 0.99, "epsilon": 0.001, "center": true, "scale": true, "beta_initializer": {"class_name": "Zeros", "config": {"dtype": "float32"}}, "gamma_initializer": {"class_name": "Ones", "config": {"dtype": "float32"}}, "moving_mean_initializer": {"class_name": "Zeros", "config": {"dtype": "float32"}}, "moving_variance_initializer": {"class_name": "Ones", "config": {"dtype": "float32"}}, "beta_regularizer": null, "gamma_regularizer": null, "beta_constraint": null, "gamma_constraint": null}, "inbound_nodes": [[["res3e_branch2a", 0, 0, {}]]]}, {"name": "activation_1012", "class_name": "Activation", "config": {"name": "activation_1012", "trainable": true, "dtype": "float32", "activation": "relu"}, "inbound_nodes": [[["bn3e_branch2a", 0, 0, {}]]]}, {"name": "dropout_550", "class_name": "Dropout", "config": {"name": "dropout_550", "trainable": true, "dtype": "float32", "rate": 0.2, "noise_shape": null, "seed": null}, "inbound_nodes": [[["activation_1012", 0, 0, {}]]]}, {"name": "res3e_branch2b", "class_name": "Conv1D", "config": {"name": "res3e_branch2b", "trainable": true, "dtype": "float32", "filters": 16, "kernel_size": [7], "strides": [1], "padding": "same", "data_format": "channels_last", "dilation_rate": [1], "activation": "linear", "use_bias": true, "kernel_initializer": {"class_name": "GlorotUniform", "config": {"seed": null, "dtype": "float32"}}, "bias_initializer": {"class_name": "Zeros", "config": {"dtype": "float32"}}, "kernel_regularizer": null, "bias_regularizer": null, "activity_regularizer": null, "kernel_constraint": null, "bias_constraint": null}, "inbound_nodes": [[["dropout_550", 0, 0, {}]]]}, {"name": "bn3e_branch2b", "class_name": "BatchNormalization", "config": {"name": "bn3e_branch2b", "trainable": true, "dtype": "float32", "axis": [2], "momentum": 0.99, "epsilon": 0.001, "center": true, "scale": true, "beta_initializer": {"class_name": "Zeros", "config": {"dtype": "float32"}}, "gamma_initializer": {"class_name": "Ones", "config": {"dtype": "float32"}}, "moving_mean_initializer": {"class_name": "Zeros", "config": {"dtype": "float32"}}, "moving_variance_initializer": {"class_name": "Ones", "config": {"dtype": "float32"}}, "beta_regularizer": null, "gamma_regularizer": null, "beta_constraint": null, "gamma_constraint": null}, "inbound_nodes": [[["res3e_branch2b", 0, 0, {}]]]}, {"name": "activation_1013", "class_name": "Activation", "config": {"name": "activation_1013", "trainable": true, "dtype": "float32", "activation": "relu"}, "inbound_nodes": [[["bn3e_branch2b", 0, 0, {}]]]}, {"name": "dropout_551", "class_name": "Dropout", "config": {"name": "dropout_551", "trainable": true, "dtype": "float32", "rate": 0.2, "noise_shape": null, "seed": null}, "inbound_nodes": [[["activation_1013", 0, 0, {}]]]}, {"name": "res3e_branch2c", "class_name": "Conv1D", "config": {"name": "res3e_branch2c", "trainable": true, "dtype": "float32", "filters": 32, "kernel_size": [1], "strides": [1], "padding": "same", "data_format": "channels_last", "dilation_rate": [1], "activation": "linear", "use_bias": true, "kernel_initializer": {"class_name": "GlorotUniform", "config": {"seed": null, "dtype": "float32"}}, "bias_initializer": {"class_name": "Zeros", "config": {"dtype": "float32"}}, "kernel_regularizer": null, "bias_regularizer": null, "activity_regularizer": null, "kernel_constraint": null, "bias_constraint": null}, "inbound_nodes": [[["dropout_551", 0, 0, {}]]]}, {"name": "bn3e_branch2c", "class_name": "BatchNormalization", "config": {"name": "bn3e_branch2c", "trainable": true, "dtype": "float32", "axis": [2], "momentum": 0.99, "epsilon": 0.001, "center": true, "scale": true, "beta_initializer": {"class_name": "Zeros", "config": {"dtype": "float32"}}, "gamma_initializer": {"class_name": "Ones", "config": {"dtype": "float32"}}, "moving_mean_initializer": {"class_name": "Zeros", "config": {"dtype": "float32"}}, "moving_variance_initializer": {"class_name": "Ones", "config": {"dtype": "float32"}}, "beta_regularizer": null, "gamma_regularizer": null, "beta_constraint": null, "gamma_constraint": null}, "inbound_nodes": [[["res3e_branch2c", 0, 0, {}]]]}, {"name": "add_315", "class_name": "Add", "config": {"name": "add_315", "trainable": true, "dtype": "float32"}, "inbound_nodes": [[["bn3e_branch2c", 0, 0, {}], ["activation_1011", 0, 0, {}]]]}, {"name": "activation_1014", "class_name": "Activation", "config": {"name": "activation_1014", "trainable": true, "dtype": "float32", "activation": "relu"}, "inbound_nodes": [[["add_315", 0, 0, {}]]]}, {"name": "res3f_branch2a", "class_name": "Conv1D", "config": {"name": "res3f_branch2a", "trainable": true, "batch_input_shape": [null, null, 625, 32], "dtype": "float32", "filters": 16, "kernel_size": [1], "strides": [1], "padding": "same", "data_format": "channels_last", "dilation_rate": [1], "activation": "linear", "use_bias": true, "kernel_initializer": {"class_name": "GlorotUniform", "config": {"seed": null, "dtype": "float32"}}, "bias_initializer": {"class_name": "Zeros", "config": {"dtype": "float32"}}, "kernel_regularizer": null, "bias_regularizer": null, "activity_regularizer": null, "kernel_constraint": null, "bias_constraint": null}, "inbound_nodes": [[["activation_1014", 0, 0, {}]]]}, {"name": "bn3f_branch2a", "class_name": "BatchNormalization", "config": {"name": "bn3f_branch2a", "trainable": true, "dtype": "float32", "axis": [2], "momentum": 0.99, "epsilon": 0.001, "center": true, "scale": true, "beta_initializer": {"class_name": "Zeros", "config": {"dtype": "float32"}}, "gamma_initializer": {"class_name": "Ones", "config": {"dtype": "float32"}}, "moving_mean_initializer": {"class_name": "Zeros", "config": {"dtype": "float32"}}, "moving_variance_initializer": {"class_name": "Ones", "config": {"dtype": "float32"}}, "beta_regularizer": null, "gamma_regularizer": null, "beta_constraint": null, "gamma_constraint": null}, "inbound_nodes": [[["res3f_branch2a", 0, 0, {}]]]}, {"name": "activation_1015", "class_name": "Activation", "config": {"name": "activation_1015", "trainable": true, "dtype": "float32", "activation": "relu"}, "inbound_nodes": [[["bn3f_branch2a", 0, 0, {}]]]}, {"name": "dropout_552", "class_name": "Dropout", "config": {"name": "dropout_552", "trainable": true, "dtype": "float32", "rate": 0.2, "noise_shape": null, "seed": null}, "inbound_nodes": [[["activation_1015", 0, 0, {}]]]}, {"name": "res3f_branch2b", "class_name": "Conv1D", "config": {"name": "res3f_branch2b", "trainable": true, "dtype": "float32", "filters": 16, "kernel_size": [7], "strides": [1], "padding": "same", "data_format": "channels_last", "dilation_rate": [1], "activation": "linear", "use_bias": true, "kernel_initializer": {"class_name": "GlorotUniform", "config": {"seed": null, "dtype": "float32"}}, "bias_initializer": {"class_name": "Zeros", "config": {"dtype": "float32"}}, "kernel_regularizer": null, "bias_regularizer": null, "activity_regularizer": null, "kernel_constraint": null, "bias_constraint": null}, "inbound_nodes": [[["dropout_552", 0, 0, {}]]]}, {"name": "bn3f_branch2b", "class_name": "BatchNormalization", "config": {"name": "bn3f_branch2b", "trainable": true, "dtype": "float32", "axis": [2], "momentum": 0.99, "epsilon": 0.001, "center": true, "scale": true, "beta_initializer": {"class_name": "Zeros", "config": {"dtype": "float32"}}, "gamma_initializer": {"class_name": "Ones", "config": {"dtype": "float32"}}, "moving_mean_initializer": {"class_name": "Zeros", "config": {"dtype": "float32"}}, "moving_variance_initializer": {"class_name": "Ones", "config": {"dtype": "float32"}}, "beta_regularizer": null, "gamma_regularizer": null, "beta_constraint": null, "gamma_constraint": null}, "inbound_nodes": [[["res3f_branch2b", 0, 0, {}]]]}, {"name": "activation_1016", "class_name": "Activation", "config": {"name": "activation_1016", "trainable": true, "dtype": "float32", "activation": "relu"}, "inbound_nodes": [[["bn3f_branch2b", 0, 0, {}]]]}, {"name": "dropout_553", "class_name": "Dropout", "config": {"name": "dropout_553", "trainable": true, "dtype": "float32", "rate": 0.2, "noise_shape": null, "seed": null}, "inbound_nodes": [[["activation_1016", 0, 0, {}]]]}, {"name": "res3f_branch2c", "class_name": "Conv1D", "config": {"name": "res3f_branch2c", "trainable": true, "dtype": "float32", "filters": 32, "kernel_size": [1], "strides": [1], "padding": "same", "data_format": "channels_last", "dilation_rate": [1], "activation": "linear", "use_bias": true, "kernel_initializer": {"class_name": "GlorotUniform", "config": {"seed": null, "dtype": "float32"}}, "bias_initializer": {"class_name": "Zeros", "config": {"dtype": "float32"}}, "kernel_regularizer": null, "bias_regularizer": null, "activity_regularizer": null, "kernel_constraint": null, "bias_constraint": null}, "inbound_nodes": [[["dropout_553", 0, 0, {}]]]}, {"name": "bn3f_branch2c", "class_name": "BatchNormalization", "config": {"name": "bn3f_branch2c", "trainable": true, "dtype": "float32", "axis": [2], "momentum": 0.99, "epsilon": 0.001, "center": true, "scale": true, "beta_initializer": {"class_name": "Zeros", "config": {"dtype": "float32"}}, "gamma_initializer": {"class_name": "Ones", "config": {"dtype": "float32"}}, "moving_mean_initializer": {"class_name": "Zeros", "config": {"dtype": "float32"}}, "moving_variance_initializer": {"class_name": "Ones", "config": {"dtype": "float32"}}, "beta_regularizer": null, "gamma_regularizer": null, "beta_constraint": null, "gamma_constraint": null}, "inbound_nodes": [[["res3f_branch2c", 0, 0, {}]]]}, {"name": "add_316", "class_name": "Add", "config": {"name": "add_316", "trainable": true, "dtype": "float32"}, "inbound_nodes": [[["bn3f_branch2c", 0, 0, {}], ["activation_1014", 0, 0, {}]]]}, {"name": "activation_1017", "class_name": "Activation", "config": {"name": "activation_1017", "trainable": true, "dtype": "float32", "activation": "relu"}, "inbound_nodes": [[["add_316", 0, 0, {}]]]}, {"name": "res3g_branch2a", "class_name": "Conv1D", "config": {"name": "res3g_branch2a", "trainable": true, "batch_input_shape": [null, null, 625, 32], "dtype": "float32", "filters": 16, "kernel_size": [3], "strides": [1], "padding": "same", "data_format": "channels_last", "dilation_rate": [1], "activation": "linear", "use_bias": true, "kernel_initializer": {"class_name": "VarianceScaling", "config": {"scale": 2.0, "mode": "fan_in", "distribution": "normal", "seed": 0, "dtype": "float32"}}, "bias_initializer": {"class_name": "Zeros", "config": {"dtype": "float32"}}, "kernel_regularizer": null, "bias_regularizer": null, "activity_regularizer": null, "kernel_constraint": null, "bias_constraint": null}, "inbound_nodes": [[["activation_1017", 0, 0, {}]]]}, {"name": "bn3g_branch2a", "class_name": "BatchNormalization", "config": {"name": "bn3g_branch2a", "trainable": true, "dtype": "float32", "axis": [2], "momentum": 0.99, "epsilon": 0.001, "center": true, "scale": true, "beta_initializer": {"class_name": "Zeros", "config": {"dtype": "float32"}}, "gamma_initializer": {"class_name": "Ones", "config": {"dtype": "float32"}}, "moving_mean_initializer": {"class_name": "Zeros", "config": {"dtype": "float32"}}, "moving_variance_initializer": {"class_name": "Ones", "config": {"dtype": "float32"}}, "beta_regularizer": null, "gamma_regularizer": null, "beta_constraint": null, "gamma_constraint": null}, "inbound_nodes": [[["res3g_branch2a", 0, 0, {}]]]}, {"name": "activation_1018", "class_name": "Activation", "config": {"name": "activation_1018", "trainable": true, "dtype": "float32", "activation": "relu"}, "inbound_nodes": [[["bn3g_branch2a", 0, 0, {}]]]}, {"name": "dropout_554", "class_name": "Dropout", "config": {"name": "dropout_554", "trainable": true, "dtype": "float32", "rate": 0.2, "noise_shape": null, "seed": null}, "inbound_nodes": [[["activation_1018", 0, 0, {}]]]}, {"name": "res3g_branch2b", "class_name": "Conv1D", "config": {"name": "res3g_branch2b", "trainable": true, "dtype": "float32", "filters": 16, "kernel_size": [24], "strides": [1], "padding": "same", "data_format": "channels_last", "dilation_rate": [1], "activation": "linear", "use_bias": true, "kernel_initializer": {"class_name": "VarianceScaling", "config": {"scale": 2.0, "mode": "fan_in", "distribution": "normal", "seed": 0, "dtype": "float32"}}, "bias_initializer": {"class_name": "Zeros", "config": {"dtype": "float32"}}, "kernel_regularizer": null, "bias_regularizer": null, "activity_regularizer": null, "kernel_constraint": null, "bias_constraint": null}, "inbound_nodes": [[["dropout_554", 0, 0, {}]]]}, {"name": "bn3g_branch2b", "class_name": "BatchNormalization", "config": {"name": "bn3g_branch2b", "trainable": true, "dtype": "float32", "axis": [2], "momentum": 0.99, "epsilon": 0.001, "center": true, "scale": true, "beta_initializer": {"class_name": "Zeros", "config": {"dtype": "float32"}}, "gamma_initializer": {"class_name": "Ones", "config": {"dtype": "float32"}}, "moving_mean_initializer": {"class_name": "Zeros", "config": {"dtype": "float32"}}, "moving_variance_initializer": {"class_name": "Ones", "config": {"dtype": "float32"}}, "beta_regularizer": null, "gamma_regularizer": null, "beta_constraint": null, "gamma_constraint": null}, "inbound_nodes": [[["res3g_branch2b", 0, 0, {}]]]}, {"name": "activation_1019", "class_name": "Activation", "config": {"name": "activation_1019", "trainable": true, "dtype": "float32", "activation": "relu"}, "inbound_nodes": [[["bn3g_branch2b", 0, 0, {}]]]}, {"name": "dropout_555", "class_name": "Dropout", "config": {"name": "dropout_555", "trainable": true, "dtype": "float32", "rate": 0.2, "noise_shape": null, "seed": null}, "inbound_nodes": [[["activation_1019", 0, 0, {}]]]}, {"name": "res3g_branch2c", "class_name": "Conv1D", "config": {"name": "res3g_branch2c", "trainable": true, "dtype": "float32", "filters": 32, "kernel_size": [1], "strides": [1], "padding": "same", "data_format": "channels_last", "dilation_rate": [1], "activation": "linear", "use_bias": true, "kernel_initializer": {"class_name": "VarianceScaling", "config": {"scale": 2.0, "mode": "fan_in", "distribution": "normal", "seed": 0, "dtype": "float32"}}, "bias_initializer": {"class_name": "Zeros", "config": {"dtype": "float32"}}, "kernel_regularizer": null, "bias_regularizer": null, "activity_regularizer": null, "kernel_constraint": null, "bias_constraint": null}, "inbound_nodes": [[["dropout_555", 0, 0, {}]]]}, {"name": "bn3g_branch2c", "class_name": "BatchNormalization", "config": {"name": "bn3g_branch2c", "trainable": true, "dtype": "float32", "axis": [2], "momentum": 0.99, "epsilon": 0.001, "center": true, "scale": true, "beta_initializer": {"class_name": "Zeros", "config": {"dtype": "float32"}}, "gamma_initializer": {"class_name": "Ones", "config": {"dtype": "float32"}}, "moving_mean_initializer": {"class_name": "Zeros", "config": {"dtype": "float32"}}, "moving_variance_initializer": {"class_name": "Ones", "config": {"dtype": "float32"}}, "beta_regularizer": null, "gamma_regularizer": null, "beta_constraint": null, "gamma_constraint": null}, "inbound_nodes": [[["res3g_branch2c", 0, 0, {}]]]}, {"name": "activation_1020", "class_name": "Activation", "config": {"name": "activation_1020", "trainable": true, "dtype": "float32", "activation": "relu"}, "inbound_nodes": [[["bn3g_branch2c", 0, 0, {}]]]}, {"name": "res3g_branch1", "class_name": "Conv1D", "config": {"name": "res3g_branch1", "trainable": true, "dtype": "float32", "filters": 32, "kernel_size": [1], "strides": [1], "padding": "same", "data_format": "channels_last", "dilation_rate": [1], "activation": "linear", "use_bias": true, "kernel_initializer": {"class_name": "VarianceScaling", "config": {"scale": 2.0, "mode": "fan_in", "distribution": "normal", "seed": 0, "dtype": "float32"}}, "bias_initializer": {"class_name": "Zeros", "config": {"dtype": "float32"}}, "kernel_regularizer": null, "bias_regularizer": null, "activity_regularizer": null, "kernel_constraint": null, "bias_constraint": null}, "inbound_nodes": [[["activation_1017", 0, 0, {}]]]}, {"name": "dropout_556", "class_name": "Dropout", "config": {"name": "dropout_556", "trainable": true, "dtype": "float32", "rate": 0.2, "noise_shape": null, "seed": null}, "inbound_nodes": [[["activation_1020", 0, 0, {}]]]}, {"name": "bn3g_branch1", "class_name": "BatchNormalization", "config": {"name": "bn3g_branch1", "trainable": true, "dtype": "float32", "axis": [2], "momentum": 0.99, "epsilon": 0.001, "center": true, "scale": true, "beta_initializer": {"class_name": "Zeros", "config": {"dtype": "float32"}}, "gamma_initializer": {"class_name": "Ones", "config": {"dtype": "float32"}}, "moving_mean_initializer": {"class_name": "Zeros", "config": {"dtype": "float32"}}, "moving_variance_initializer": {"class_name": "Ones", "config": {"dtype": "float32"}}, "beta_regularizer": null, "gamma_regularizer": null, "beta_constraint": null, "gamma_constraint": null}, "inbound_nodes": [[["res3g_branch1", 0, 0, {}]]]}, {"name": "add_317", "class_name": "Add", "config": {"name": "add_317", "trainable": true, "dtype": "float32"}, "inbound_nodes": [[["dropout_556", 0, 0, {}], ["bn3g_branch1", 0, 0, {}]]]}, {"name": "activation_1021", "class_name": "Activation", "config": {"name": "activation_1021", "trainable": true, "dtype": "float32", "activation": "relu"}, "inbound_nodes": [[["add_317", 0, 0, {}]]]}, {"name": "bn4a_branch2a", "class_name": "BatchNormalization", "config": {"name": "bn4a_branch2a", "trainable": true, "dtype": "float32", "axis": [2], "momentum": 0.99, "epsilon": 0.001, "center": true, "scale": true, "beta_initializer": {"class_name": "Zeros", "config": {"dtype": "float32"}}, "gamma_initializer": {"class_name": "Ones", "config": {"dtype": "float32"}}, "moving_mean_initializer": {"class_name": "Zeros", "config": {"dtype": "float32"}}, "moving_variance_initializer": {"class_name": "Ones", "config": {"dtype": "float32"}}, "beta_regularizer": null, "gamma_regularizer": null, "beta_constraint": null, "gamma_constraint": null}, "inbound_nodes": [[["activation_1021", 0, 0, {}]]]}, {"name": "activation_1022", "class_name": "Activation", "config": {"name": "activation_1022", "trainable": true, "dtype": "float32", "activation": "relu"}, "inbound_nodes": [[["bn4a_branch2a", 0, 0, {}]]]}, {"name": "res4a_branch2b", "class_name": "Conv1D", "config": {"name": "res4a_branch2b", "trainable": true, "batch_input_shape": [null, null, 625, 32], "dtype": "float32", "filters": 32, "kernel_size": [5], "strides": [1], "padding": "same", "data_format": "channels_last", "dilation_rate": [1], "activation": "linear", "use_bias": true, "kernel_initializer": {"class_name": "VarianceScaling", "config": {"scale": 2.0, "mode": "fan_in", "distribution": "normal", "seed": 0, "dtype": "float32"}}, "bias_initializer": {"class_name": "Zeros", "config": {"dtype": "float32"}}, "kernel_regularizer": null, "bias_regularizer": null, "activity_regularizer": null, "kernel_constraint": null, "bias_constraint": null}, "inbound_nodes": [[["activation_1022", 0, 0, {}]]]}, {"name": "bn4a_branch2b", "class_name": "BatchNormalization", "config": {"name": "bn4a_branch2b", "trainable": true, "dtype": "float32", "axis": [2], "momentum": 0.99, "epsilon": 0.001, "center": true, "scale": true, "beta_initializer": {"class_name": "Zeros", "config": {"dtype": "float32"}}, "gamma_initializer": {"class_name": "Ones", "config": {"dtype": "float32"}}, "moving_mean_initializer": {"class_name": "Zeros", "config": {"dtype": "float32"}}, "moving_variance_initializer": {"class_name": "Ones", "config": {"dtype": "float32"}}, "beta_regularizer": null, "gamma_regularizer": null, "beta_constraint": null, "gamma_constraint": null}, "inbound_nodes": [[["res4a_branch2b", 0, 0, {}]]]}, {"name": "activation_1023", "class_name": "Activation", "config": {"name": "activation_1023", "trainable": true, "dtype": "float32", "activation": "relu"}, "inbound_nodes": [[["bn4a_branch2b", 0, 0, {}]]]}, {"name": "dropout_557", "class_name": "Dropout", "config": {"name": "dropout_557", "trainable": true, "dtype": "float32", "rate": 0.2, "noise_shape": null, "seed": null}, "inbound_nodes": [[["activation_1023", 0, 0, {}]]]}, {"name": "res4a_branch1", "class_name": "Conv1D", "config": {"name": "res4a_branch1", "trainable": true, "dtype": "float32", "filters": 64, "kernel_size": [1], "strides": [1], "padding": "valid", "data_format": "channels_last", "dilation_rate": [1], "activation": "linear", "use_bias": true, "kernel_initializer": {"class_name": "VarianceScaling", "config": {"scale": 2.0, "mode": "fan_in", "distribution": "normal", "seed": 0, "dtype": "float32"}}, "bias_initializer": {"class_name": "Zeros", "config": {"dtype": "float32"}}, "kernel_regularizer": null, "bias_regularizer": null, "activity_regularizer": null, "kernel_constraint": null, "bias_constraint": null}, "inbound_nodes": [[["activation_1021", 0, 0, {}]]]}, {"name": "res4a_branch2c", "class_name": "Conv1D", "config": {"name": "res4a_branch2c", "trainable": true, "dtype": "float32", "filters": 64, "kernel_size": [1], "strides": [1], "padding": "same", "data_format": "channels_last", "dilation_rate": [1], "activation": "linear", "use_bias": true, "kernel_initializer": {"class_name": "VarianceScaling", "config": {"scale": 2.0, "mode": "fan_in", "distribution": "normal", "seed": 0, "dtype": "float32"}}, "bias_initializer": {"class_name": "Zeros", "config": {"dtype": "float32"}}, "kernel_regularizer": null, "bias_regularizer": null, "activity_regularizer": null, "kernel_constraint": null, "bias_constraint": null}, "inbound_nodes": [[["dropout_557", 0, 0, {}]]]}, {"name": "mp4a_branch1", "class_name": "MaxPooling1D", "config": {"name": "mp4a_branch1", "trainable": true, "dtype": "float32", "strides": [1], "pool_size": [1], "padding": "same", "data_format": "channels_last"}, "inbound_nodes": [[["res4a_branch1", 0, 0, {}]]]}, {"name": "add_318", "class_name": "Add", "config": {"name": "add_318", "trainable": true, "dtype": "float32"}, "inbound_nodes": [[["res4a_branch2c", 0, 0, {}], ["mp4a_branch1", 0, 0, {}]]]}, {"name": "activation_1024", "class_name": "Activation", "config": {"name": "activation_1024", "trainable": true, "dtype": "float32", "activation": "relu"}, "inbound_nodes": [[["add_318", 0, 0, {}]]]}, {"name": "bn4b_branch2a", "class_name": "BatchNormalization", "config": {"name": "bn4b_branch2a", "trainable": true, "dtype": "float32", "axis": [2], "momentum": 0.99, "epsilon": 0.001, "center": true, "scale": true, "beta_initializer": {"class_name": "Zeros", "config": {"dtype": "float32"}}, "gamma_initializer": {"class_name": "Ones", "config": {"dtype": "float32"}}, "moving_mean_initializer": {"class_name": "Zeros", "config": {"dtype": "float32"}}, "moving_variance_initializer": {"class_name": "Ones", "config": {"dtype": "float32"}}, "beta_regularizer": null, "gamma_regularizer": null, "beta_constraint": null, "gamma_constraint": null}, "inbound_nodes": [[["activation_1024", 0, 0, {}]]]}, {"name": "activation_1025", "class_name": "Activation", "config": {"name": "activation_1025", "trainable": true, "dtype": "float32", "activation": "relu"}, "inbound_nodes": [[["bn4b_branch2a", 0, 0, {}]]]}, {"name": "res4b_branch2b", "class_name": "Conv1D", "config": {"name": "res4b_branch2b", "trainable": true, "batch_input_shape": [null, null, 625, 64], "dtype": "float32", "filters": 32, "kernel_size": [13], "strides": [2], "padding": "same", "data_format": "channels_last", "dilation_rate": [1], "activation": "linear", "use_bias": true, "kernel_initializer": {"class_name": "VarianceScaling", "config": {"scale": 2.0, "mode": "fan_in", "distribution": "normal", "seed": 0, "dtype": "float32"}}, "bias_initializer": {"class_name": "Zeros", "config": {"dtype": "float32"}}, "kernel_regularizer": null, "bias_regularizer": null, "activity_regularizer": null, "kernel_constraint": null, "bias_constraint": null}, "inbound_nodes": [[["activation_1025", 0, 0, {}]]]}, {"name": "bn4b_branch2b", "class_name": "BatchNormalization", "config": {"name": "bn4b_branch2b", "trainable": true, "dtype": "float32", "axis": [2], "momentum": 0.99, "epsilon": 0.001, "center": true, "scale": true, "beta_initializer": {"class_name": "Zeros", "config": {"dtype": "float32"}}, "gamma_initializer": {"class_name": "Ones", "config": {"dtype": "float32"}}, "moving_mean_initializer": {"class_name": "Zeros", "config": {"dtype": "float32"}}, "moving_variance_initializer": {"class_name": "Ones", "config": {"dtype": "float32"}}, "beta_regularizer": null, "gamma_regularizer": null, "beta_constraint": null, "gamma_constraint": null}, "inbound_nodes": [[["res4b_branch2b", 0, 0, {}]]]}, {"name": "activation_1026", "class_name": "Activation", "config": {"name": "activation_1026", "trainable": true, "dtype": "float32", "activation": "relu"}, "inbound_nodes": [[["bn4b_branch2b", 0, 0, {}]]]}, {"name": "dropout_558", "class_name": "Dropout", "config": {"name": "dropout_558", "trainable": true, "dtype": "float32", "rate": 0.2, "noise_shape": null, "seed": null}, "inbound_nodes": [[["activation_1026", 0, 0, {}]]]}, {"name": "res4b_branch1", "class_name": "Conv1D", "config": {"name": "res4b_branch1", "trainable": true, "dtype": "float32", "filters": 64, "kernel_size": [1], "strides": [1], "padding": "valid", "data_format": "channels_last", "dilation_rate": [1], "activation": "linear", "use_bias": true, "kernel_initializer": {"class_name": "VarianceScaling", "config": {"scale": 2.0, "mode": "fan_in", "distribution": "normal", "seed": 0, "dtype": "float32"}}, "bias_initializer": {"class_name": "Zeros", "config": {"dtype": "float32"}}, "kernel_regularizer": null, "bias_regularizer": null, "activity_regularizer": null, "kernel_constraint": null, "bias_constraint": null}, "inbound_nodes": [[["activation_1024", 0, 0, {}]]]}, {"name": "res4b_branch2c", "class_name": "Conv1D", "config": {"name": "res4b_branch2c", "trainable": true, "dtype": "float32", "filters": 64, "kernel_size": [1], "strides": [1], "padding": "same", "data_format": "channels_last", "dilation_rate": [1], "activation": "linear", "use_bias": true, "kernel_initializer": {"class_name": "VarianceScaling", "config": {"scale": 2.0, "mode": "fan_in", "distribution": "normal", "seed": 0, "dtype": "float32"}}, "bias_initializer": {"class_name": "Zeros", "config": {"dtype": "float32"}}, "kernel_regularizer": null, "bias_regularizer": null, "activity_regularizer": null, "kernel_constraint": null, "bias_constraint": null}, "inbound_nodes": [[["dropout_558", 0, 0, {}]]]}, {"name": "mp4b_branch1", "class_name": "MaxPooling1D", "config": {"name": "mp4b_branch1", "trainable": true, "dtype": "float32", "strides": [2], "pool_size": [2], "padding": "same", "data_format": "channels_last"}, "inbound_nodes": [[["res4b_branch1", 0, 0, {}]]]}, {"name": "add_319", "class_name": "Add", "config": {"name": "add_319", "trainable": true, "dtype": "float32"}, "inbound_nodes": [[["res4b_branch2c", 0, 0, {}], ["mp4b_branch1", 0, 0, {}]]]}, {"name": "activation_1027", "class_name": "Activation", "config": {"name": "activation_1027", "trainable": true, "dtype": "float32", "activation": "relu"}, "inbound_nodes": [[["add_319", 0, 0, {}]]]}, {"name": "bn4d_branch2a", "class_name": "BatchNormalization", "config": {"name": "bn4d_branch2a", "trainable": true, "dtype": "float32", "axis": [2], "momentum": 0.99, "epsilon": 0.001, "center": true, "scale": true, "beta_initializer": {"class_name": "Zeros", "config": {"dtype": "float32"}}, "gamma_initializer": {"class_name": "Ones", "config": {"dtype": "float32"}}, "moving_mean_initializer": {"class_name": "Zeros", "config": {"dtype": "float32"}}, "moving_variance_initializer": {"class_name": "Ones", "config": {"dtype": "float32"}}, "beta_regularizer": null, "gamma_regularizer": null, "beta_constraint": null, "gamma_constraint": null}, "inbound_nodes": [[["activation_1027", 0, 0, {}]]]}, {"name": "activation_1028", "class_name": "Activation", "config": {"name": "activation_1028", "trainable": true, "dtype": "float32", "activation": "relu"}, "inbound_nodes": [[["bn4d_branch2a", 0, 0, {}]]]}, {"name": "res4d_branch2b", "class_name": "Conv1D", "config": {"name": "res4d_branch2b", "trainable": true, "batch_input_shape": [null, null, 313, 64], "dtype": "float32", "filters": 32, "kernel_size": [13], "strides": [2], "padding": "same", "data_format": "channels_last", "dilation_rate": [1], "activation": "linear", "use_bias": true, "kernel_initializer": {"class_name": "VarianceScaling", "config": {"scale": 2.0, "mode": "fan_in", "distribution": "normal", "seed": 0, "dtype": "float32"}}, "bias_initializer": {"class_name": "Zeros", "config": {"dtype": "float32"}}, "kernel_regularizer": null, "bias_regularizer": null, "activity_regularizer": null, "kernel_constraint": null, "bias_constraint": null}, "inbound_nodes": [[["activation_1028", 0, 0, {}]]]}, {"name": "bn4d_branch2b", "class_name": "BatchNormalization", "config": {"name": "bn4d_branch2b", "trainable": true, "dtype": "float32", "axis": [2], "momentum": 0.99, "epsilon": 0.001, "center": true, "scale": true, "beta_initializer": {"class_name": "Zeros", "config": {"dtype": "float32"}}, "gamma_initializer": {"class_name": "Ones", "config": {"dtype": "float32"}}, "moving_mean_initializer": {"class_name": "Zeros", "config": {"dtype": "float32"}}, "moving_variance_initializer": {"class_name": "Ones", "config": {"dtype": "float32"}}, "beta_regularizer": null, "gamma_regularizer": null, "beta_constraint": null, "gamma_constraint": null}, "inbound_nodes": [[["res4d_branch2b", 0, 0, {}]]]}, {"name": "activation_1029", "class_name": "Activation", "config": {"name": "activation_1029", "trainable": true, "dtype": "float32", "activation": "relu"}, "inbound_nodes": [[["bn4d_branch2b", 0, 0, {}]]]}, {"name": "dropout_559", "class_name": "Dropout", "config": {"name": "dropout_559", "trainable": true, "dtype": "float32", "rate": 0.2, "noise_shape": null, "seed": null}, "inbound_nodes": [[["activation_1029", 0, 0, {}]]]}, {"name": "res4d_branch1", "class_name": "Conv1D", "config": {"name": "res4d_branch1", "trainable": true, "dtype": "float32", "filters": 64, "kernel_size": [1], "strides": [1], "padding": "valid", "data_format": "channels_last", "dilation_rate": [1], "activation": "linear", "use_bias": true, "kernel_initializer": {"class_name": "VarianceScaling", "config": {"scale": 2.0, "mode": "fan_in", "distribution": "normal", "seed": 0, "dtype": "float32"}}, "bias_initializer": {"class_name": "Zeros", "config": {"dtype": "float32"}}, "kernel_regularizer": null, "bias_regularizer": null, "activity_regularizer": null, "kernel_constraint": null, "bias_constraint": null}, "inbound_nodes": [[["activation_1027", 0, 0, {}]]]}, {"name": "res4d_branch2c", "class_name": "Conv1D", "config": {"name": "res4d_branch2c", "trainable": true, "dtype": "float32", "filters": 64, "kernel_size": [1], "strides": [1], "padding": "same", "data_format": "channels_last", "dilation_rate": [1], "activation": "linear", "use_bias": true, "kernel_initializer": {"class_name": "VarianceScaling", "config": {"scale": 2.0, "mode": "fan_in", "distribution": "normal", "seed": 0, "dtype": "float32"}}, "bias_initializer": {"class_name": "Zeros", "config": {"dtype": "float32"}}, "kernel_regularizer": null, "bias_regularizer": null, "activity_regularizer": null, "kernel_constraint": null, "bias_constraint": null}, "inbound_nodes": [[["dropout_559", 0, 0, {}]]]}, {"name": "mp4d_branch1", "class_name": "MaxPooling1D", "config": {"name": "mp4d_branch1", "trainable": true, "dtype": "float32", "strides": [2], "pool_size": [2], "padding": "same", "data_format": "channels_last"}, "inbound_nodes": [[["res4d_branch1", 0, 0, {}]]]}, {"name": "add_320", "class_name": "Add", "config": {"name": "add_320", "trainable": true, "dtype": "float32"}, "inbound_nodes": [[["res4d_branch2c", 0, 0, {}], ["mp4d_branch1", 0, 0, {}]]]}, {"name": "activation_1030", "class_name": "Activation", "config": {"name": "activation_1030", "trainable": true, "dtype": "float32", "activation": "relu"}, "inbound_nodes": [[["add_320", 0, 0, {}]]]}, {"name": "res4e_branch2a", "class_name": "Conv1D", "config": {"name": "res4e_branch2a", "trainable": true, "batch_input_shape": [null, null, 157, 64], "dtype": "float32", "filters": 32, "kernel_size": [1], "strides": [1], "padding": "same", "data_format": "channels_last", "dilation_rate": [1], "activation": "linear", "use_bias": true, "kernel_initializer": {"class_name": "GlorotUniform", "config": {"seed": null, "dtype": "float32"}}, "bias_initializer": {"class_name": "Zeros", "config": {"dtype": "float32"}}, "kernel_regularizer": null, "bias_regularizer": null, "activity_regularizer": null, "kernel_constraint": null, "bias_constraint": null}, "inbound_nodes": [[["activation_1030", 0, 0, {}]]]}, {"name": "bn4e_branch2a", "class_name": "BatchNormalization", "config": {"name": "bn4e_branch2a", "trainable": true, "dtype": "float32", "axis": [2], "momentum": 0.99, "epsilon": 0.001, "center": true, "scale": true, "beta_initializer": {"class_name": "Zeros", "config": {"dtype": "float32"}}, "gamma_initializer": {"class_name": "Ones", "config": {"dtype": "float32"}}, "moving_mean_initializer": {"class_name": "Zeros", "config": {"dtype": "float32"}}, "moving_variance_initializer": {"class_name": "Ones", "config": {"dtype": "float32"}}, "beta_regularizer": null, "gamma_regularizer": null, "beta_constraint": null, "gamma_constraint": null}, "inbound_nodes": [[["res4e_branch2a", 0, 0, {}]]]}, {"name": "activation_1031", "class_name": "Activation", "config": {"name": "activation_1031", "trainable": true, "dtype": "float32", "activation": "relu"}, "inbound_nodes": [[["bn4e_branch2a", 0, 0, {}]]]}, {"name": "dropout_560", "class_name": "Dropout", "config": {"name": "dropout_560", "trainable": true, "dtype": "float32", "rate": 0.2, "noise_shape": null, "seed": null}, "inbound_nodes": [[["activation_1031", 0, 0, {}]]]}, {"name": "res4e_branch2b", "class_name": "Conv1D", "config": {"name": "res4e_branch2b", "trainable": true, "dtype": "float32", "filters": 32, "kernel_size": [7], "strides": [1], "padding": "same", "data_format": "channels_last", "dilation_rate": [1], "activation": "linear", "use_bias": true, "kernel_initializer": {"class_name": "GlorotUniform", "config": {"seed": null, "dtype": "float32"}}, "bias_initializer": {"class_name": "Zeros", "config": {"dtype": "float32"}}, "kernel_regularizer": null, "bias_regularizer": null, "activity_regularizer": null, "kernel_constraint": null, "bias_constraint": null}, "inbound_nodes": [[["dropout_560", 0, 0, {}]]]}, {"name": "bn4e_branch2b", "class_name": "BatchNormalization", "config": {"name": "bn4e_branch2b", "trainable": true, "dtype": "float32", "axis": [2], "momentum": 0.99, "epsilon": 0.001, "center": true, "scale": true, "beta_initializer": {"class_name": "Zeros", "config": {"dtype": "float32"}}, "gamma_initializer": {"class_name": "Ones", "config": {"dtype": "float32"}}, "moving_mean_initializer": {"class_name": "Zeros", "config": {"dtype": "float32"}}, "moving_variance_initializer": {"class_name": "Ones", "config": {"dtype": "float32"}}, "beta_regularizer": null, "gamma_regularizer": null, "beta_constraint": null, "gamma_constraint": null}, "inbound_nodes": [[["res4e_branch2b", 0, 0, {}]]]}, {"name": "activation_1032", "class_name": "Activation", "config": {"name": "activation_1032", "trainable": true, "dtype": "float32", "activation": "relu"}, "inbound_nodes": [[["bn4e_branch2b", 0, 0, {}]]]}, {"name": "dropout_561", "class_name": "Dropout", "config": {"name": "dropout_561", "trainable": true, "dtype": "float32", "rate": 0.2, "noise_shape": null, "seed": null}, "inbound_nodes": [[["activation_1032", 0, 0, {}]]]}, {"name": "res4e_branch2c", "class_name": "Conv1D", "config": {"name": "res4e_branch2c", "trainable": true, "dtype": "float32", "filters": 64, "kernel_size": [1], "strides": [1], "padding": "same", "data_format": "channels_last", "dilation_rate": [1], "activation": "linear", "use_bias": true, "kernel_initializer": {"class_name": "GlorotUniform", "config": {"seed": null, "dtype": "float32"}}, "bias_initializer": {"class_name": "Zeros", "config": {"dtype": "float32"}}, "kernel_regularizer": null, "bias_regularizer": null, "activity_regularizer": null, "kernel_constraint": null, "bias_constraint": null}, "inbound_nodes": [[["dropout_561", 0, 0, {}]]]}, {"name": "bn4e_branch2c", "class_name": "BatchNormalization", "config": {"name": "bn4e_branch2c", "trainable": true, "dtype": "float32", "axis": [2], "momentum": 0.99, "epsilon": 0.001, "center": true, "scale": true, "beta_initializer": {"class_name": "Zeros", "config": {"dtype": "float32"}}, "gamma_initializer": {"class_name": "Ones", "config": {"dtype": "float32"}}, "moving_mean_initializer": {"class_name": "Zeros", "config": {"dtype": "float32"}}, "moving_variance_initializer": {"class_name": "Ones", "config": {"dtype": "float32"}}, "beta_regularizer": null, "gamma_regularizer": null, "beta_constraint": null, "gamma_constraint": null}, "inbound_nodes": [[["res4e_branch2c", 0, 0, {}]]]}, {"name": "add_321", "class_name": "Add", "config": {"name": "add_321", "trainable": true, "dtype": "float32"}, "inbound_nodes": [[["bn4e_branch2c", 0, 0, {}], ["activation_1030", 0, 0, {}]]]}, {"name": "activation_1033", "class_name": "Activation", "config": {"name": "activation_1033", "trainable": true, "dtype": "float32", "activation": "relu"}, "inbound_nodes": [[["add_321", 0, 0, {}]]]}, {"name": "res4f_branch2a", "class_name": "Conv1D", "config": {"name": "res4f_branch2a", "trainable": true, "batch_input_shape": [null, null, 157, 64], "dtype": "float32", "filters": 32, "kernel_size": [1], "strides": [1], "padding": "same", "data_format": "channels_last", "dilation_rate": [1], "activation": "linear", "use_bias": true, "kernel_initializer": {"class_name": "GlorotUniform", "config": {"seed": null, "dtype": "float32"}}, "bias_initializer": {"class_name": "Zeros", "config": {"dtype": "float32"}}, "kernel_regularizer": null, "bias_regularizer": null, "activity_regularizer": null, "kernel_constraint": null, "bias_constraint": null}, "inbound_nodes": [[["activation_1033", 0, 0, {}]]]}, {"name": "bn4f_branch2a", "class_name": "BatchNormalization", "config": {"name": "bn4f_branch2a", "trainable": true, "dtype": "float32", "axis": [2], "momentum": 0.99, "epsilon": 0.001, "center": true, "scale": true, "beta_initializer": {"class_name": "Zeros", "config": {"dtype": "float32"}}, "gamma_initializer": {"class_name": "Ones", "config": {"dtype": "float32"}}, "moving_mean_initializer": {"class_name": "Zeros", "config": {"dtype": "float32"}}, "moving_variance_initializer": {"class_name": "Ones", "config": {"dtype": "float32"}}, "beta_regularizer": null, "gamma_regularizer": null, "beta_constraint": null, "gamma_constraint": null}, "inbound_nodes": [[["res4f_branch2a", 0, 0, {}]]]}, {"name": "activation_1034", "class_name": "Activation", "config": {"name": "activation_1034", "trainable": true, "dtype": "float32", "activation": "relu"}, "inbound_nodes": [[["bn4f_branch2a", 0, 0, {}]]]}, {"name": "dropout_562", "class_name": "Dropout", "config": {"name": "dropout_562", "trainable": true, "dtype": "float32", "rate": 0.2, "noise_shape": null, "seed": null}, "inbound_nodes": [[["activation_1034", 0, 0, {}]]]}, {"name": "res4f_branch2b", "class_name": "Conv1D", "config": {"name": "res4f_branch2b", "trainable": true, "dtype": "float32", "filters": 32, "kernel_size": [7], "strides": [1], "padding": "same", "data_format": "channels_last", "dilation_rate": [1], "activation": "linear", "use_bias": true, "kernel_initializer": {"class_name": "GlorotUniform", "config": {"seed": null, "dtype": "float32"}}, "bias_initializer": {"class_name": "Zeros", "config": {"dtype": "float32"}}, "kernel_regularizer": null, "bias_regularizer": null, "activity_regularizer": null, "kernel_constraint": null, "bias_constraint": null}, "inbound_nodes": [[["dropout_562", 0, 0, {}]]]}, {"name": "bn4f_branch2b", "class_name": "BatchNormalization", "config": {"name": "bn4f_branch2b", "trainable": true, "dtype": "float32", "axis": [2], "momentum": 0.99, "epsilon": 0.001, "center": true, "scale": true, "beta_initializer": {"class_name": "Zeros", "config": {"dtype": "float32"}}, "gamma_initializer": {"class_name": "Ones", "config": {"dtype": "float32"}}, "moving_mean_initializer": {"class_name": "Zeros", "config": {"dtype": "float32"}}, "moving_variance_initializer": {"class_name": "Ones", "config": {"dtype": "float32"}}, "beta_regularizer": null, "gamma_regularizer": null, "beta_constraint": null, "gamma_constraint": null}, "inbound_nodes": [[["res4f_branch2b", 0, 0, {}]]]}, {"name": "activation_1035", "class_name": "Activation", "config": {"name": "activation_1035", "trainable": true, "dtype": "float32", "activation": "relu"}, "inbound_nodes": [[["bn4f_branch2b", 0, 0, {}]]]}, {"name": "dropout_563", "class_name": "Dropout", "config": {"name": "dropout_563", "trainable": true, "dtype": "float32", "rate": 0.2, "noise_shape": null, "seed": null}, "inbound_nodes": [[["activation_1035", 0, 0, {}]]]}, {"name": "res4f_branch2c", "class_name": "Conv1D", "config": {"name": "res4f_branch2c", "trainable": true, "dtype": "float32", "filters": 64, "kernel_size": [1], "strides": [1], "padding": "same", "data_format": "channels_last", "dilation_rate": [1], "activation": "linear", "use_bias": true, "kernel_initializer": {"class_name": "GlorotUniform", "config": {"seed": null, "dtype": "float32"}}, "bias_initializer": {"class_name": "Zeros", "config": {"dtype": "float32"}}, "kernel_regularizer": null, "bias_regularizer": null, "activity_regularizer": null, "kernel_constraint": null, "bias_constraint": null}, "inbound_nodes": [[["dropout_563", 0, 0, {}]]]}, {"name": "bn4f_branch2c", "class_name": "BatchNormalization", "config": {"name": "bn4f_branch2c", "trainable": true, "dtype": "float32", "axis": [2], "momentum": 0.99, "epsilon": 0.001, "center": true, "scale": true, "beta_initializer": {"class_name": "Zeros", "config": {"dtype": "float32"}}, "gamma_initializer": {"class_name": "Ones", "config": {"dtype": "float32"}}, "moving_mean_initializer": {"class_name": "Zeros", "config": {"dtype": "float32"}}, "moving_variance_initializer": {"class_name": "Ones", "config": {"dtype": "float32"}}, "beta_regularizer": null, "gamma_regularizer": null, "beta_constraint": null, "gamma_constraint": null}, "inbound_nodes": [[["res4f_branch2c", 0, 0, {}]]]}, {"name": "add_322", "class_name": "Add", "config": {"name": "add_322", "trainable": true, "dtype": "float32"}, "inbound_nodes": [[["bn4f_branch2c", 0, 0, {}], ["activation_1033", 0, 0, {}]]]}, {"name": "activation_1036", "class_name": "Activation", "config": {"name": "activation_1036", "trainable": true, "dtype": "float32", "activation": "relu"}, "inbound_nodes": [[["add_322", 0, 0, {}]]]}, {"name": "res4g_branch2a", "class_name": "Conv1D", "config": {"name": "res4g_branch2a", "trainable": true, "batch_input_shape": [null, null, 157, 64], "dtype": "float32", "filters": 32, "kernel_size": [3], "strides": [1], "padding": "same", "data_format": "channels_last", "dilation_rate": [1], "activation": "linear", "use_bias": true, "kernel_initializer": {"class_name": "VarianceScaling", "config": {"scale": 2.0, "mode": "fan_in", "distribution": "normal", "seed": 0, "dtype": "float32"}}, "bias_initializer": {"class_name": "Zeros", "config": {"dtype": "float32"}}, "kernel_regularizer": null, "bias_regularizer": null, "activity_regularizer": null, "kernel_constraint": null, "bias_constraint": null}, "inbound_nodes": [[["activation_1036", 0, 0, {}]]]}, {"name": "bn4g_branch2a", "class_name": "BatchNormalization", "config": {"name": "bn4g_branch2a", "trainable": true, "dtype": "float32", "axis": [2], "momentum": 0.99, "epsilon": 0.001, "center": true, "scale": true, "beta_initializer": {"class_name": "Zeros", "config": {"dtype": "float32"}}, "gamma_initializer": {"class_name": "Ones", "config": {"dtype": "float32"}}, "moving_mean_initializer": {"class_name": "Zeros", "config": {"dtype": "float32"}}, "moving_variance_initializer": {"class_name": "Ones", "config": {"dtype": "float32"}}, "beta_regularizer": null, "gamma_regularizer": null, "beta_constraint": null, "gamma_constraint": null}, "inbound_nodes": [[["res4g_branch2a", 0, 0, {}]]]}, {"name": "activation_1037", "class_name": "Activation", "config": {"name": "activation_1037", "trainable": true, "dtype": "float32", "activation": "relu"}, "inbound_nodes": [[["bn4g_branch2a", 0, 0, {}]]]}, {"name": "dropout_564", "class_name": "Dropout", "config": {"name": "dropout_564", "trainable": true, "dtype": "float32", "rate": 0.2, "noise_shape": null, "seed": null}, "inbound_nodes": [[["activation_1037", 0, 0, {}]]]}, {"name": "res4g_branch2b", "class_name": "Conv1D", "config": {"name": "res4g_branch2b", "trainable": true, "dtype": "float32", "filters": 32, "kernel_size": [24], "strides": [1], "padding": "same", "data_format": "channels_last", "dilation_rate": [1], "activation": "linear", "use_bias": true, "kernel_initializer": {"class_name": "VarianceScaling", "config": {"scale": 2.0, "mode": "fan_in", "distribution": "normal", "seed": 0, "dtype": "float32"}}, "bias_initializer": {"class_name": "Zeros", "config": {"dtype": "float32"}}, "kernel_regularizer": null, "bias_regularizer": null, "activity_regularizer": null, "kernel_constraint": null, "bias_constraint": null}, "inbound_nodes": [[["dropout_564", 0, 0, {}]]]}, {"name": "bn4g_branch2b", "class_name": "BatchNormalization", "config": {"name": "bn4g_branch2b", "trainable": true, "dtype": "float32", "axis": [2], "momentum": 0.99, "epsilon": 0.001, "center": true, "scale": true, "beta_initializer": {"class_name": "Zeros", "config": {"dtype": "float32"}}, "gamma_initializer": {"class_name": "Ones", "config": {"dtype": "float32"}}, "moving_mean_initializer": {"class_name": "Zeros", "config": {"dtype": "float32"}}, "moving_variance_initializer": {"class_name": "Ones", "config": {"dtype": "float32"}}, "beta_regularizer": null, "gamma_regularizer": null, "beta_constraint": null, "gamma_constraint": null}, "inbound_nodes": [[["res4g_branch2b", 0, 0, {}]]]}, {"name": "activation_1038", "class_name": "Activation", "config": {"name": "activation_1038", "trainable": true, "dtype": "float32", "activation": "relu"}, "inbound_nodes": [[["bn4g_branch2b", 0, 0, {}]]]}, {"name": "dropout_565", "class_name": "Dropout", "config": {"name": "dropout_565", "trainable": true, "dtype": "float32", "rate": 0.2, "noise_shape": null, "seed": null}, "inbound_nodes": [[["activation_1038", 0, 0, {}]]]}, {"name": "res4g_branch2c", "class_name": "Conv1D", "config": {"name": "res4g_branch2c", "trainable": true, "dtype": "float32", "filters": 64, "kernel_size": [1], "strides": [1], "padding": "same", "data_format": "channels_last", "dilation_rate": [1], "activation": "linear", "use_bias": true, "kernel_initializer": {"class_name": "VarianceScaling", "config": {"scale": 2.0, "mode": "fan_in", "distribution": "normal", "seed": 0, "dtype": "float32"}}, "bias_initializer": {"class_name": "Zeros", "config": {"dtype": "float32"}}, "kernel_regularizer": null, "bias_regularizer": null, "activity_regularizer": null, "kernel_constraint": null, "bias_constraint": null}, "inbound_nodes": [[["dropout_565", 0, 0, {}]]]}, {"name": "bn4g_branch2c", "class_name": "BatchNormalization", "config": {"name": "bn4g_branch2c", "trainable": true, "dtype": "float32", "axis": [2], "momentum": 0.99, "epsilon": 0.001, "center": true, "scale": true, "beta_initializer": {"class_name": "Zeros", "config": {"dtype": "float32"}}, "gamma_initializer": {"class_name": "Ones", "config": {"dtype": "float32"}}, "moving_mean_initializer": {"class_name": "Zeros", "config": {"dtype": "float32"}}, "moving_variance_initializer": {"class_name": "Ones", "config": {"dtype": "float32"}}, "beta_regularizer": null, "gamma_regularizer": null, "beta_constraint": null, "gamma_constraint": null}, "inbound_nodes": [[["res4g_branch2c", 0, 0, {}]]]}, {"name": "activation_1039", "class_name": "Activation", "config": {"name": "activation_1039", "trainable": true, "dtype": "float32", "activation": "relu"}, "inbound_nodes": [[["bn4g_branch2c", 0, 0, {}]]]}, {"name": "res4g_branch1", "class_name": "Conv1D", "config": {"name": "res4g_branch1", "trainable": true, "dtype": "float32", "filters": 64, "kernel_size": [1], "strides": [1], "padding": "same", "data_format": "channels_last", "dilation_rate": [1], "activation": "linear", "use_bias": true, "kernel_initializer": {"class_name": "VarianceScaling", "config": {"scale": 2.0, "mode": "fan_in", "distribution": "normal", "seed": 0, "dtype": "float32"}}, "bias_initializer": {"class_name": "Zeros", "config": {"dtype": "float32"}}, "kernel_regularizer": null, "bias_regularizer": null, "activity_regularizer": null, "kernel_constraint": null, "bias_constraint": null}, "inbound_nodes": [[["activation_1036", 0, 0, {}]]]}, {"name": "dropout_566", "class_name": "Dropout", "config": {"name": "dropout_566", "trainable": true, "dtype": "float32", "rate": 0.2, "noise_shape": null, "seed": null}, "inbound_nodes": [[["activation_1039", 0, 0, {}]]]}, {"name": "bn4g_branch1", "class_name": "BatchNormalization", "config": {"name": "bn4g_branch1", "trainable": true, "dtype": "float32", "axis": [2], "momentum": 0.99, "epsilon": 0.001, "center": true, "scale": true, "beta_initializer": {"class_name": "Zeros", "config": {"dtype": "float32"}}, "gamma_initializer": {"class_name": "Ones", "config": {"dtype": "float32"}}, "moving_mean_initializer": {"class_name": "Zeros", "config": {"dtype": "float32"}}, "moving_variance_initializer": {"class_name": "Ones", "config": {"dtype": "float32"}}, "beta_regularizer": null, "gamma_regularizer": null, "beta_constraint": null, "gamma_constraint": null}, "inbound_nodes": [[["res4g_branch1", 0, 0, {}]]]}, {"name": "add_323", "class_name": "Add", "config": {"name": "add_323", "trainable": true, "dtype": "float32"}, "inbound_nodes": [[["dropout_566", 0, 0, {}], ["bn4g_branch1", 0, 0, {}]]]}, {"name": "activation_1040", "class_name": "Activation", "config": {"name": "activation_1040", "trainable": true, "dtype": "float32", "activation": "relu"}, "inbound_nodes": [[["add_323", 0, 0, {}]]]}, {"name": "bn5a_branch2a", "class_name": "BatchNormalization", "config": {"name": "bn5a_branch2a", "trainable": true, "dtype": "float32", "axis": [2], "momentum": 0.99, "epsilon": 0.001, "center": true, "scale": true, "beta_initializer": {"class_name": "Zeros", "config": {"dtype": "float32"}}, "gamma_initializer": {"class_name": "Ones", "config": {"dtype": "float32"}}, "moving_mean_initializer": {"class_name": "Zeros", "config": {"dtype": "float32"}}, "moving_variance_initializer": {"class_name": "Ones", "config": {"dtype": "float32"}}, "beta_regularizer": null, "gamma_regularizer": null, "beta_constraint": null, "gamma_constraint": null}, "inbound_nodes": [[["activation_1040", 0, 0, {}]]]}, {"name": "activation_1041", "class_name": "Activation", "config": {"name": "activation_1041", "trainable": true, "dtype": "float32", "activation": "relu"}, "inbound_nodes": [[["bn5a_branch2a", 0, 0, {}]]]}, {"name": "res5a_branch2b", "class_name": "Conv1D", "config": {"name": "res5a_branch2b", "trainable": true, "batch_input_shape": [null, null, 157, 64], "dtype": "float32", "filters": 64, "kernel_size": [5], "strides": [1], "padding": "same", "data_format": "channels_last", "dilation_rate": [1], "activation": "linear", "use_bias": true, "kernel_initializer": {"class_name": "VarianceScaling", "config": {"scale": 2.0, "mode": "fan_in", "distribution": "normal", "seed": 0, "dtype": "float32"}}, "bias_initializer": {"class_name": "Zeros", "config": {"dtype": "float32"}}, "kernel_regularizer": null, "bias_regularizer": null, "activity_regularizer": null, "kernel_constraint": null, "bias_constraint": null}, "inbound_nodes": [[["activation_1041", 0, 0, {}]]]}, {"name": "bn5a_branch2b", "class_name": "BatchNormalization", "config": {"name": "bn5a_branch2b", "trainable": true, "dtype": "float32", "axis": [2], "momentum": 0.99, "epsilon": 0.001, "center": true, "scale": true, "beta_initializer": {"class_name": "Zeros", "config": {"dtype": "float32"}}, "gamma_initializer": {"class_name": "Ones", "config": {"dtype": "float32"}}, "moving_mean_initializer": {"class_name": "Zeros", "config": {"dtype": "float32"}}, "moving_variance_initializer": {"class_name": "Ones", "config": {"dtype": "float32"}}, "beta_regularizer": null, "gamma_regularizer": null, "beta_constraint": null, "gamma_constraint": null}, "inbound_nodes": [[["res5a_branch2b", 0, 0, {}]]]}, {"name": "activation_1042", "class_name": "Activation", "config": {"name": "activation_1042", "trainable": true, "dtype": "float32", "activation": "relu"}, "inbound_nodes": [[["bn5a_branch2b", 0, 0, {}]]]}, {"name": "dropout_567", "class_name": "Dropout", "config": {"name": "dropout_567", "trainable": true, "dtype": "float32", "rate": 0.2, "noise_shape": null, "seed": null}, "inbound_nodes": [[["activation_1042", 0, 0, {}]]]}, {"name": "res5a_branch1", "class_name": "Conv1D", "config": {"name": "res5a_branch1", "trainable": true, "dtype": "float32", "filters": 128, "kernel_size": [1], "strides": [1], "padding": "valid", "data_format": "channels_last", "dilation_rate": [1], "activation": "linear", "use_bias": true, "kernel_initializer": {"class_name": "VarianceScaling", "config": {"scale": 2.0, "mode": "fan_in", "distribution": "normal", "seed": 0, "dtype": "float32"}}, "bias_initializer": {"class_name": "Zeros", "config": {"dtype": "float32"}}, "kernel_regularizer": null, "bias_regularizer": null, "activity_regularizer": null, "kernel_constraint": null, "bias_constraint": null}, "inbound_nodes": [[["activation_1040", 0, 0, {}]]]}, {"name": "res5a_branch2c", "class_name": "Conv1D", "config": {"name": "res5a_branch2c", "trainable": true, "dtype": "float32", "filters": 128, "kernel_size": [1], "strides": [1], "padding": "same", "data_format": "channels_last", "dilation_rate": [1], "activation": "linear", "use_bias": true, "kernel_initializer": {"class_name": "VarianceScaling", "config": {"scale": 2.0, "mode": "fan_in", "distribution": "normal", "seed": 0, "dtype": "float32"}}, "bias_initializer": {"class_name": "Zeros", "config": {"dtype": "float32"}}, "kernel_regularizer": null, "bias_regularizer": null, "activity_regularizer": null, "kernel_constraint": null, "bias_constraint": null}, "inbound_nodes": [[["dropout_567", 0, 0, {}]]]}, {"name": "mp5a_branch1", "class_name": "MaxPooling1D", "config": {"name": "mp5a_branch1", "trainable": true, "dtype": "float32", "strides": [1], "pool_size": [1], "padding": "same", "data_format": "channels_last"}, "inbound_nodes": [[["res5a_branch1", 0, 0, {}]]]}, {"name": "add_324", "class_name": "Add", "config": {"name": "add_324", "trainable": true, "dtype": "float32"}, "inbound_nodes": [[["res5a_branch2c", 0, 0, {}], ["mp5a_branch1", 0, 0, {}]]]}, {"name": "activation_1043", "class_name": "Activation", "config": {"name": "activation_1043", "trainable": true, "dtype": "float32", "activation": "relu"}, "inbound_nodes": [[["add_324", 0, 0, {}]]]}, {"name": "bn5b_branch2a", "class_name": "BatchNormalization", "config": {"name": "bn5b_branch2a", "trainable": true, "dtype": "float32", "axis": [2], "momentum": 0.99, "epsilon": 0.001, "center": true, "scale": true, "beta_initializer": {"class_name": "Zeros", "config": {"dtype": "float32"}}, "gamma_initializer": {"class_name": "Ones", "config": {"dtype": "float32"}}, "moving_mean_initializer": {"class_name": "Zeros", "config": {"dtype": "float32"}}, "moving_variance_initializer": {"class_name": "Ones", "config": {"dtype": "float32"}}, "beta_regularizer": null, "gamma_regularizer": null, "beta_constraint": null, "gamma_constraint": null}, "inbound_nodes": [[["activation_1043", 0, 0, {}]]]}, {"name": "activation_1044", "class_name": "Activation", "config": {"name": "activation_1044", "trainable": true, "dtype": "float32", "activation": "relu"}, "inbound_nodes": [[["bn5b_branch2a", 0, 0, {}]]]}, {"name": "res5b_branch2b", "class_name": "Conv1D", "config": {"name": "res5b_branch2b", "trainable": true, "batch_input_shape": [null, null, 157, 128], "dtype": "float32", "filters": 64, "kernel_size": [13], "strides": [2], "padding": "same", "data_format": "channels_last", "dilation_rate": [1], "activation": "linear", "use_bias": true, "kernel_initializer": {"class_name": "VarianceScaling", "config": {"scale": 2.0, "mode": "fan_in", "distribution": "normal", "seed": 0, "dtype": "float32"}}, "bias_initializer": {"class_name": "Zeros", "config": {"dtype": "float32"}}, "kernel_regularizer": null, "bias_regularizer": null, "activity_regularizer": null, "kernel_constraint": null, "bias_constraint": null}, "inbound_nodes": [[["activation_1044", 0, 0, {}]]]}, {"name": "bn5b_branch2b", "class_name": "BatchNormalization", "config": {"name": "bn5b_branch2b", "trainable": true, "dtype": "float32", "axis": [2], "momentum": 0.99, "epsilon": 0.001, "center": true, "scale": true, "beta_initializer": {"class_name": "Zeros", "config": {"dtype": "float32"}}, "gamma_initializer": {"class_name": "Ones", "config": {"dtype": "float32"}}, "moving_mean_initializer": {"class_name": "Zeros", "config": {"dtype": "float32"}}, "moving_variance_initializer": {"class_name": "Ones", "config": {"dtype": "float32"}}, "beta_regularizer": null, "gamma_regularizer": null, "beta_constraint": null, "gamma_constraint": null}, "inbound_nodes": [[["res5b_branch2b", 0, 0, {}]]]}, {"name": "activation_1045", "class_name": "Activation", "config": {"name": "activation_1045", "trainable": true, "dtype": "float32", "activation": "relu"}, "inbound_nodes": [[["bn5b_branch2b", 0, 0, {}]]]}, {"name": "dropout_568", "class_name": "Dropout", "config": {"name": "dropout_568", "trainable": true, "dtype": "float32", "rate": 0.2, "noise_shape": null, "seed": null}, "inbound_nodes": [[["activation_1045", 0, 0, {}]]]}, {"name": "res5b_branch1", "class_name": "Conv1D", "config": {"name": "res5b_branch1", "trainable": true, "dtype": "float32", "filters": 128, "kernel_size": [1], "strides": [1], "padding": "valid", "data_format": "channels_last", "dilation_rate": [1], "activation": "linear", "use_bias": true, "kernel_initializer": {"class_name": "VarianceScaling", "config": {"scale": 2.0, "mode": "fan_in", "distribution": "normal", "seed": 0, "dtype": "float32"}}, "bias_initializer": {"class_name": "Zeros", "config": {"dtype": "float32"}}, "kernel_regularizer": null, "bias_regularizer": null, "activity_regularizer": null, "kernel_constraint": null, "bias_constraint": null}, "inbound_nodes": [[["activation_1043", 0, 0, {}]]]}, {"name": "res5b_branch2c", "class_name": "Conv1D", "config": {"name": "res5b_branch2c", "trainable": true, "dtype": "float32", "filters": 128, "kernel_size": [1], "strides": [1], "padding": "same", "data_format": "channels_last", "dilation_rate": [1], "activation": "linear", "use_bias": true, "kernel_initializer": {"class_name": "VarianceScaling", "config": {"scale": 2.0, "mode": "fan_in", "distribution": "normal", "seed": 0, "dtype": "float32"}}, "bias_initializer": {"class_name": "Zeros", "config": {"dtype": "float32"}}, "kernel_regularizer": null, "bias_regularizer": null, "activity_regularizer": null, "kernel_constraint": null, "bias_constraint": null}, "inbound_nodes": [[["dropout_568", 0, 0, {}]]]}, {"name": "mp5b_branch1", "class_name": "MaxPooling1D", "config": {"name": "mp5b_branch1", "trainable": true, "dtype": "float32", "strides": [2], "pool_size": [2], "padding": "same", "data_format": "channels_last"}, "inbound_nodes": [[["res5b_branch1", 0, 0, {}]]]}, {"name": "add_325", "class_name": "Add", "config": {"name": "add_325", "trainable": true, "dtype": "float32"}, "inbound_nodes": [[["res5b_branch2c", 0, 0, {}], ["mp5b_branch1", 0, 0, {}]]]}, {"name": "activation_1046", "class_name": "Activation", "config": {"name": "activation_1046", "trainable": true, "dtype": "float32", "activation": "relu"}, "inbound_nodes": [[["add_325", 0, 0, {}]]]}, {"name": "bn5d_branch2a", "class_name": "BatchNormalization", "config": {"name": "bn5d_branch2a", "trainable": true, "dtype": "float32", "axis": [2], "momentum": 0.99, "epsilon": 0.001, "center": true, "scale": true, "beta_initializer": {"class_name": "Zeros", "config": {"dtype": "float32"}}, "gamma_initializer": {"class_name": "Ones", "config": {"dtype": "float32"}}, "moving_mean_initializer": {"class_name": "Zeros", "config": {"dtype": "float32"}}, "moving_variance_initializer": {"class_name": "Ones", "config": {"dtype": "float32"}}, "beta_regularizer": null, "gamma_regularizer": null, "beta_constraint": null, "gamma_constraint": null}, "inbound_nodes": [[["activation_1046", 0, 0, {}]]]}, {"name": "activation_1047", "class_name": "Activation", "config": {"name": "activation_1047", "trainable": true, "dtype": "float32", "activation": "relu"}, "inbound_nodes": [[["bn5d_branch2a", 0, 0, {}]]]}, {"name": "res5d_branch2b", "class_name": "Conv1D", "config": {"name": "res5d_branch2b", "trainable": true, "batch_input_shape": [null, null, 79, 128], "dtype": "float32", "filters": 64, "kernel_size": [13], "strides": [2], "padding": "same", "data_format": "channels_last", "dilation_rate": [1], "activation": "linear", "use_bias": true, "kernel_initializer": {"class_name": "VarianceScaling", "config": {"scale": 2.0, "mode": "fan_in", "distribution": "normal", "seed": 0, "dtype": "float32"}}, "bias_initializer": {"class_name": "Zeros", "config": {"dtype": "float32"}}, "kernel_regularizer": null, "bias_regularizer": null, "activity_regularizer": null, "kernel_constraint": null, "bias_constraint": null}, "inbound_nodes": [[["activation_1047", 0, 0, {}]]]}, {"name": "bn5d_branch2b", "class_name": "BatchNormalization", "config": {"name": "bn5d_branch2b", "trainable": true, "dtype": "float32", "axis": [2], "momentum": 0.99, "epsilon": 0.001, "center": true, "scale": true, "beta_initializer": {"class_name": "Zeros", "config": {"dtype": "float32"}}, "gamma_initializer": {"class_name": "Ones", "config": {"dtype": "float32"}}, "moving_mean_initializer": {"class_name": "Zeros", "config": {"dtype": "float32"}}, "moving_variance_initializer": {"class_name": "Ones", "config": {"dtype": "float32"}}, "beta_regularizer": null, "gamma_regularizer": null, "beta_constraint": null, "gamma_constraint": null}, "inbound_nodes": [[["res5d_branch2b", 0, 0, {}]]]}, {"name": "activation_1048", "class_name": "Activation", "config": {"name": "activation_1048", "trainable": true, "dtype": "float32", "activation": "relu"}, "inbound_nodes": [[["bn5d_branch2b", 0, 0, {}]]]}, {"name": "dropout_569", "class_name": "Dropout", "config": {"name": "dropout_569", "trainable": true, "dtype": "float32", "rate": 0.2, "noise_shape": null, "seed": null}, "inbound_nodes": [[["activation_1048", 0, 0, {}]]]}, {"name": "res5d_branch1", "class_name": "Conv1D", "config": {"name": "res5d_branch1", "trainable": true, "dtype": "float32", "filters": 128, "kernel_size": [1], "strides": [1], "padding": "valid", "data_format": "channels_last", "dilation_rate": [1], "activation": "linear", "use_bias": true, "kernel_initializer": {"class_name": "VarianceScaling", "config": {"scale": 2.0, "mode": "fan_in", "distribution": "normal", "seed": 0, "dtype": "float32"}}, "bias_initializer": {"class_name": "Zeros", "config": {"dtype": "float32"}}, "kernel_regularizer": null, "bias_regularizer": null, "activity_regularizer": null, "kernel_constraint": null, "bias_constraint": null}, "inbound_nodes": [[["activation_1046", 0, 0, {}]]]}, {"name": "res5d_branch2c", "class_name": "Conv1D", "config": {"name": "res5d_branch2c", "trainable": true, "dtype": "float32", "filters": 128, "kernel_size": [1], "strides": [1], "padding": "same", "data_format": "channels_last", "dilation_rate": [1], "activation": "linear", "use_bias": true, "kernel_initializer": {"class_name": "VarianceScaling", "config": {"scale": 2.0, "mode": "fan_in", "distribution": "normal", "seed": 0, "dtype": "float32"}}, "bias_initializer": {"class_name": "Zeros", "config": {"dtype": "float32"}}, "kernel_regularizer": null, "bias_regularizer": null, "activity_regularizer": null, "kernel_constraint": null, "bias_constraint": null}, "inbound_nodes": [[["dropout_569", 0, 0, {}]]]}, {"name": "mp5d_branch1", "class_name": "MaxPooling1D", "config": {"name": "mp5d_branch1", "trainable": true, "dtype": "float32", "strides": [2], "pool_size": [2], "padding": "same", "data_format": "channels_last"}, "inbound_nodes": [[["res5d_branch1", 0, 0, {}]]]}, {"name": "add_326", "class_name": "Add", "config": {"name": "add_326", "trainable": true, "dtype": "float32"}, "inbound_nodes": [[["res5d_branch2c", 0, 0, {}], ["mp5d_branch1", 0, 0, {}]]]}, {"name": "activation_1049", "class_name": "Activation", "config": {"name": "activation_1049", "trainable": true, "dtype": "float32", "activation": "relu"}, "inbound_nodes": [[["add_326", 0, 0, {}]]]}, {"name": "res5e_branch2a", "class_name": "Conv1D", "config": {"name": "res5e_branch2a", "trainable": true, "batch_input_shape": [null, null, 40, 128], "dtype": "float32", "filters": 64, "kernel_size": [1], "strides": [1], "padding": "same", "data_format": "channels_last", "dilation_rate": [1], "activation": "linear", "use_bias": true, "kernel_initializer": {"class_name": "GlorotUniform", "config": {"seed": null, "dtype": "float32"}}, "bias_initializer": {"class_name": "Zeros", "config": {"dtype": "float32"}}, "kernel_regularizer": null, "bias_regularizer": null, "activity_regularizer": null, "kernel_constraint": null, "bias_constraint": null}, "inbound_nodes": [[["activation_1049", 0, 0, {}]]]}, {"name": "bn5e_branch2a", "class_name": "BatchNormalization", "config": {"name": "bn5e_branch2a", "trainable": true, "dtype": "float32", "axis": [2], "momentum": 0.99, "epsilon": 0.001, "center": true, "scale": true, "beta_initializer": {"class_name": "Zeros", "config": {"dtype": "float32"}}, "gamma_initializer": {"class_name": "Ones", "config": {"dtype": "float32"}}, "moving_mean_initializer": {"class_name": "Zeros", "config": {"dtype": "float32"}}, "moving_variance_initializer": {"class_name": "Ones", "config": {"dtype": "float32"}}, "beta_regularizer": null, "gamma_regularizer": null, "beta_constraint": null, "gamma_constraint": null}, "inbound_nodes": [[["res5e_branch2a", 0, 0, {}]]]}, {"name": "activation_1050", "class_name": "Activation", "config": {"name": "activation_1050", "trainable": true, "dtype": "float32", "activation": "relu"}, "inbound_nodes": [[["bn5e_branch2a", 0, 0, {}]]]}, {"name": "dropout_570", "class_name": "Dropout", "config": {"name": "dropout_570", "trainable": true, "dtype": "float32", "rate": 0.2, "noise_shape": null, "seed": null}, "inbound_nodes": [[["activation_1050", 0, 0, {}]]]}, {"name": "res5e_branch2b", "class_name": "Conv1D", "config": {"name": "res5e_branch2b", "trainable": true, "dtype": "float32", "filters": 64, "kernel_size": [7], "strides": [1], "padding": "same", "data_format": "channels_last", "dilation_rate": [1], "activation": "linear", "use_bias": true, "kernel_initializer": {"class_name": "GlorotUniform", "config": {"seed": null, "dtype": "float32"}}, "bias_initializer": {"class_name": "Zeros", "config": {"dtype": "float32"}}, "kernel_regularizer": null, "bias_regularizer": null, "activity_regularizer": null, "kernel_constraint": null, "bias_constraint": null}, "inbound_nodes": [[["dropout_570", 0, 0, {}]]]}, {"name": "bn5e_branch2b", "class_name": "BatchNormalization", "config": {"name": "bn5e_branch2b", "trainable": true, "dtype": "float32", "axis": [2], "momentum": 0.99, "epsilon": 0.001, "center": true, "scale": true, "beta_initializer": {"class_name": "Zeros", "config": {"dtype": "float32"}}, "gamma_initializer": {"class_name": "Ones", "config": {"dtype": "float32"}}, "moving_mean_initializer": {"class_name": "Zeros", "config": {"dtype": "float32"}}, "moving_variance_initializer": {"class_name": "Ones", "config": {"dtype": "float32"}}, "beta_regularizer": null, "gamma_regularizer": null, "beta_constraint": null, "gamma_constraint": null}, "inbound_nodes": [[["res5e_branch2b", 0, 0, {}]]]}, {"name": "activation_1051", "class_name": "Activation", "config": {"name": "activation_1051", "trainable": true, "dtype": "float32", "activation": "relu"}, "inbound_nodes": [[["bn5e_branch2b", 0, 0, {}]]]}, {"name": "dropout_571", "class_name": "Dropout", "config": {"name": "dropout_571", "trainable": true, "dtype": "float32", "rate": 0.2, "noise_shape": null, "seed": null}, "inbound_nodes": [[["activation_1051", 0, 0, {}]]]}, {"name": "res5e_branch2c", "class_name": "Conv1D", "config": {"name": "res5e_branch2c", "trainable": true, "dtype": "float32", "filters": 128, "kernel_size": [1], "strides": [1], "padding": "same", "data_format": "channels_last", "dilation_rate": [1], "activation": "linear", "use_bias": true, "kernel_initializer": {"class_name": "GlorotUniform", "config": {"seed": null, "dtype": "float32"}}, "bias_initializer": {"class_name": "Zeros", "config": {"dtype": "float32"}}, "kernel_regularizer": null, "bias_regularizer": null, "activity_regularizer": null, "kernel_constraint": null, "bias_constraint": null}, "inbound_nodes": [[["dropout_571", 0, 0, {}]]]}, {"name": "bn5e_branch2c", "class_name": "BatchNormalization", "config": {"name": "bn5e_branch2c", "trainable": true, "dtype": "float32", "axis": [2], "momentum": 0.99, "epsilon": 0.001, "center": true, "scale": true, "beta_initializer": {"class_name": "Zeros", "config": {"dtype": "float32"}}, "gamma_initializer": {"class_name": "Ones", "config": {"dtype": "float32"}}, "moving_mean_initializer": {"class_name": "Zeros", "config": {"dtype": "float32"}}, "moving_variance_initializer": {"class_name": "Ones", "config": {"dtype": "float32"}}, "beta_regularizer": null, "gamma_regularizer": null, "beta_constraint": null, "gamma_constraint": null}, "inbound_nodes": [[["res5e_branch2c", 0, 0, {}]]]}, {"name": "add_327", "class_name": "Add", "config": {"name": "add_327", "trainable": true, "dtype": "float32"}, "inbound_nodes": [[["bn5e_branch2c", 0, 0, {}], ["activation_1049", 0, 0, {}]]]}, {"name": "activation_1052", "class_name": "Activation", "config": {"name": "activation_1052", "trainable": true, "dtype": "float32", "activation": "relu"}, "inbound_nodes": [[["add_327", 0, 0, {}]]]}, {"name": "res5f_branch2a", "class_name": "Conv1D", "config": {"name": "res5f_branch2a", "trainable": true, "batch_input_shape": [null, null, 40, 128], "dtype": "float32", "filters": 64, "kernel_size": [1], "strides": [1], "padding": "same", "data_format": "channels_last", "dilation_rate": [1], "activation": "linear", "use_bias": true, "kernel_initializer": {"class_name": "GlorotUniform", "config": {"seed": null, "dtype": "float32"}}, "bias_initializer": {"class_name": "Zeros", "config": {"dtype": "float32"}}, "kernel_regularizer": null, "bias_regularizer": null, "activity_regularizer": null, "kernel_constraint": null, "bias_constraint": null}, "inbound_nodes": [[["activation_1052", 0, 0, {}]]]}, {"name": "bn5f_branch2a", "class_name": "BatchNormalization", "config": {"name": "bn5f_branch2a", "trainable": true, "dtype": "float32", "axis": [2], "momentum": 0.99, "epsilon": 0.001, "center": true, "scale": true, "beta_initializer": {"class_name": "Zeros", "config": {"dtype": "float32"}}, "gamma_initializer": {"class_name": "Ones", "config": {"dtype": "float32"}}, "moving_mean_initializer": {"class_name": "Zeros", "config": {"dtype": "float32"}}, "moving_variance_initializer": {"class_name": "Ones", "config": {"dtype": "float32"}}, "beta_regularizer": null, "gamma_regularizer": null, "beta_constraint": null, "gamma_constraint": null}, "inbound_nodes": [[["res5f_branch2a", 0, 0, {}]]]}, {"name": "activation_1053", "class_name": "Activation", "config": {"name": "activation_1053", "trainable": true, "dtype": "float32", "activation": "relu"}, "inbound_nodes": [[["bn5f_branch2a", 0, 0, {}]]]}, {"name": "dropout_572", "class_name": "Dropout", "config": {"name": "dropout_572", "trainable": true, "dtype": "float32", "rate": 0.2, "noise_shape": null, "seed": null}, "inbound_nodes": [[["activation_1053", 0, 0, {}]]]}, {"name": "res5f_branch2b", "class_name": "Conv1D", "config": {"name": "res5f_branch2b", "trainable": true, "dtype": "float32", "filters": 64, "kernel_size": [7], "strides": [1], "padding": "same", "data_format": "channels_last", "dilation_rate": [1], "activation": "linear", "use_bias": true, "kernel_initializer": {"class_name": "GlorotUniform", "config": {"seed": null, "dtype": "float32"}}, "bias_initializer": {"class_name": "Zeros", "config": {"dtype": "float32"}}, "kernel_regularizer": null, "bias_regularizer": null, "activity_regularizer": null, "kernel_constraint": null, "bias_constraint": null}, "inbound_nodes": [[["dropout_572", 0, 0, {}]]]}, {"name": "bn5f_branch2b", "class_name": "BatchNormalization", "config": {"name": "bn5f_branch2b", "trainable": true, "dtype": "float32", "axis": [2], "momentum": 0.99, "epsilon": 0.001, "center": true, "scale": true, "beta_initializer": {"class_name": "Zeros", "config": {"dtype": "float32"}}, "gamma_initializer": {"class_name": "Ones", "config": {"dtype": "float32"}}, "moving_mean_initializer": {"class_name": "Zeros", "config": {"dtype": "float32"}}, "moving_variance_initializer": {"class_name": "Ones", "config": {"dtype": "float32"}}, "beta_regularizer": null, "gamma_regularizer": null, "beta_constraint": null, "gamma_constraint": null}, "inbound_nodes": [[["res5f_branch2b", 0, 0, {}]]]}, {"name": "activation_1054", "class_name": "Activation", "config": {"name": "activation_1054", "trainable": true, "dtype": "float32", "activation": "relu"}, "inbound_nodes": [[["bn5f_branch2b", 0, 0, {}]]]}, {"name": "dropout_573", "class_name": "Dropout", "config": {"name": "dropout_573", "trainable": true, "dtype": "float32", "rate": 0.2, "noise_shape": null, "seed": null}, "inbound_nodes": [[["activation_1054", 0, 0, {}]]]}, {"name": "res5f_branch2c", "class_name": "Conv1D", "config": {"name": "res5f_branch2c", "trainable": true, "dtype": "float32", "filters": 128, "kernel_size": [1], "strides": [1], "padding": "same", "data_format": "channels_last", "dilation_rate": [1], "activation": "linear", "use_bias": true, "kernel_initializer": {"class_name": "GlorotUniform", "config": {"seed": null, "dtype": "float32"}}, "bias_initializer": {"class_name": "Zeros", "config": {"dtype": "float32"}}, "kernel_regularizer": null, "bias_regularizer": null, "activity_regularizer": null, "kernel_constraint": null, "bias_constraint": null}, "inbound_nodes": [[["dropout_573", 0, 0, {}]]]}, {"name": "bn5f_branch2c", "class_name": "BatchNormalization", "config": {"name": "bn5f_branch2c", "trainable": true, "dtype": "float32", "axis": [2], "momentum": 0.99, "epsilon": 0.001, "center": true, "scale": true, "beta_initializer": {"class_name": "Zeros", "config": {"dtype": "float32"}}, "gamma_initializer": {"class_name": "Ones", "config": {"dtype": "float32"}}, "moving_mean_initializer": {"class_name": "Zeros", "config": {"dtype": "float32"}}, "moving_variance_initializer": {"class_name": "Ones", "config": {"dtype": "float32"}}, "beta_regularizer": null, "gamma_regularizer": null, "beta_constraint": null, "gamma_constraint": null}, "inbound_nodes": [[["res5f_branch2c", 0, 0, {}]]]}, {"name": "add_328", "class_name": "Add", "config": {"name": "add_328", "trainable": true, "dtype": "float32"}, "inbound_nodes": [[["bn5f_branch2c", 0, 0, {}], ["activation_1052", 0, 0, {}]]]}, {"name": "activation_1055", "class_name": "Activation", "config": {"name": "activation_1055", "trainable": true, "dtype": "float32", "activation": "relu"}, "inbound_nodes": [[["add_328", 0, 0, {}]]]}, {"name": "res5g_branch2a", "class_name": "Conv1D", "config": {"name": "res5g_branch2a", "trainable": true, "batch_input_shape": [null, null, 40, 128], "dtype": "float32", "filters": 64, "kernel_size": [3], "strides": [1], "padding": "same", "data_format": "channels_last", "dilation_rate": [1], "activation": "linear", "use_bias": true, "kernel_initializer": {"class_name": "VarianceScaling", "config": {"scale": 2.0, "mode": "fan_in", "distribution": "normal", "seed": 0, "dtype": "float32"}}, "bias_initializer": {"class_name": "Zeros", "config": {"dtype": "float32"}}, "kernel_regularizer": null, "bias_regularizer": null, "activity_regularizer": null, "kernel_constraint": null, "bias_constraint": null}, "inbound_nodes": [[["activation_1055", 0, 0, {}]]]}, {"name": "bn5g_branch2a", "class_name": "BatchNormalization", "config": {"name": "bn5g_branch2a", "trainable": true, "dtype": "float32", "axis": [2], "momentum": 0.99, "epsilon": 0.001, "center": true, "scale": true, "beta_initializer": {"class_name": "Zeros", "config": {"dtype": "float32"}}, "gamma_initializer": {"class_name": "Ones", "config": {"dtype": "float32"}}, "moving_mean_initializer": {"class_name": "Zeros", "config": {"dtype": "float32"}}, "moving_variance_initializer": {"class_name": "Ones", "config": {"dtype": "float32"}}, "beta_regularizer": null, "gamma_regularizer": null, "beta_constraint": null, "gamma_constraint": null}, "inbound_nodes": [[["res5g_branch2a", 0, 0, {}]]]}, {"name": "activation_1056", "class_name": "Activation", "config": {"name": "activation_1056", "trainable": true, "dtype": "float32", "activation": "relu"}, "inbound_nodes": [[["bn5g_branch2a", 0, 0, {}]]]}, {"name": "dropout_574", "class_name": "Dropout", "config": {"name": "dropout_574", "trainable": true, "dtype": "float32", "rate": 0.2, "noise_shape": null, "seed": null}, "inbound_nodes": [[["activation_1056", 0, 0, {}]]]}, {"name": "res5g_branch2b", "class_name": "Conv1D", "config": {"name": "res5g_branch2b", "trainable": true, "dtype": "float32", "filters": 64, "kernel_size": [24], "strides": [1], "padding": "same", "data_format": "channels_last", "dilation_rate": [1], "activation": "linear", "use_bias": true, "kernel_initializer": {"class_name": "VarianceScaling", "config": {"scale": 2.0, "mode": "fan_in", "distribution": "normal", "seed": 0, "dtype": "float32"}}, "bias_initializer": {"class_name": "Zeros", "config": {"dtype": "float32"}}, "kernel_regularizer": null, "bias_regularizer": null, "activity_regularizer": null, "kernel_constraint": null, "bias_constraint": null}, "inbound_nodes": [[["dropout_574", 0, 0, {}]]]}, {"name": "bn5g_branch2b", "class_name": "BatchNormalization", "config": {"name": "bn5g_branch2b", "trainable": true, "dtype": "float32", "axis": [2], "momentum": 0.99, "epsilon": 0.001, "center": true, "scale": true, "beta_initializer": {"class_name": "Zeros", "config": {"dtype": "float32"}}, "gamma_initializer": {"class_name": "Ones", "config": {"dtype": "float32"}}, "moving_mean_initializer": {"class_name": "Zeros", "config": {"dtype": "float32"}}, "moving_variance_initializer": {"class_name": "Ones", "config": {"dtype": "float32"}}, "beta_regularizer": null, "gamma_regularizer": null, "beta_constraint": null, "gamma_constraint": null}, "inbound_nodes": [[["res5g_branch2b", 0, 0, {}]]]}, {"name": "activation_1057", "class_name": "Activation", "config": {"name": "activation_1057", "trainable": true, "dtype": "float32", "activation": "relu"}, "inbound_nodes": [[["bn5g_branch2b", 0, 0, {}]]]}, {"name": "dropout_575", "class_name": "Dropout", "config": {"name": "dropout_575", "trainable": true, "dtype": "float32", "rate": 0.2, "noise_shape": null, "seed": null}, "inbound_nodes": [[["activation_1057", 0, 0, {}]]]}, {"name": "res5g_branch2c", "class_name": "Conv1D", "config": {"name": "res5g_branch2c", "trainable": true, "dtype": "float32", "filters": 128, "kernel_size": [1], "strides": [1], "padding": "same", "data_format": "channels_last", "dilation_rate": [1], "activation": "linear", "use_bias": true, "kernel_initializer": {"class_name": "VarianceScaling", "config": {"scale": 2.0, "mode": "fan_in", "distribution": "normal", "seed": 0, "dtype": "float32"}}, "bias_initializer": {"class_name": "Zeros", "config": {"dtype": "float32"}}, "kernel_regularizer": null, "bias_regularizer": null, "activity_regularizer": null, "kernel_constraint": null, "bias_constraint": null}, "inbound_nodes": [[["dropout_575", 0, 0, {}]]]}, {"name": "bn5g_branch2c", "class_name": "BatchNormalization", "config": {"name": "bn5g_branch2c", "trainable": true, "dtype": "float32", "axis": [2], "momentum": 0.99, "epsilon": 0.001, "center": true, "scale": true, "beta_initializer": {"class_name": "Zeros", "config": {"dtype": "float32"}}, "gamma_initializer": {"class_name": "Ones", "config": {"dtype": "float32"}}, "moving_mean_initializer": {"class_name": "Zeros", "config": {"dtype": "float32"}}, "moving_variance_initializer": {"class_name": "Ones", "config": {"dtype": "float32"}}, "beta_regularizer": null, "gamma_regularizer": null, "beta_constraint": null, "gamma_constraint": null}, "inbound_nodes": [[["res5g_branch2c", 0, 0, {}]]]}, {"name": "activation_1058", "class_name": "Activation", "config": {"name": "activation_1058", "trainable": true, "dtype": "float32", "activation": "relu"}, "inbound_nodes": [[["bn5g_branch2c", 0, 0, {}]]]}, {"name": "res5g_branch1", "class_name": "Conv1D", "config": {"name": "res5g_branch1", "trainable": true, "dtype": "float32", "filters": 128, "kernel_size": [1], "strides": [1], "padding": "same", "data_format": "channels_last", "dilation_rate": [1], "activation": "linear", "use_bias": true, "kernel_initializer": {"class_name": "VarianceScaling", "config": {"scale": 2.0, "mode": "fan_in", "distribution": "normal", "seed": 0, "dtype": "float32"}}, "bias_initializer": {"class_name": "Zeros", "config": {"dtype": "float32"}}, "kernel_regularizer": null, "bias_regularizer": null, "activity_regularizer": null, "kernel_constraint": null, "bias_constraint": null}, "inbound_nodes": [[["activation_1055", 0, 0, {}]]]}, {"name": "dropout_576", "class_name": "Dropout", "config": {"name": "dropout_576", "trainable": true, "dtype": "float32", "rate": 0.2, "noise_shape": null, "seed": null}, "inbound_nodes": [[["activation_1058", 0, 0, {}]]]}, {"name": "bn5g_branch1", "class_name": "BatchNormalization", "config": {"name": "bn5g_branch1", "trainable": true, "dtype": "float32", "axis": [2], "momentum": 0.99, "epsilon": 0.001, "center": true, "scale": true, "beta_initializer": {"class_name": "Zeros", "config": {"dtype": "float32"}}, "gamma_initializer": {"class_name": "Ones", "config": {"dtype": "float32"}}, "moving_mean_initializer": {"class_name": "Zeros", "config": {"dtype": "float32"}}, "moving_variance_initializer": {"class_name": "Ones", "config": {"dtype": "float32"}}, "beta_regularizer": null, "gamma_regularizer": null, "beta_constraint": null, "gamma_constraint": null}, "inbound_nodes": [[["res5g_branch1", 0, 0, {}]]]}, {"name": "add_329", "class_name": "Add", "config": {"name": "add_329", "trainable": true, "dtype": "float32"}, "inbound_nodes": [[["dropout_576", 0, 0, {}], ["bn5g_branch1", 0, 0, {}]]]}, {"name": "activation_1059", "class_name": "Activation", "config": {"name": "activation_1059", "trainable": true, "dtype": "float32", "activation": "relu"}, "inbound_nodes": [[["add_329", 0, 0, {}]]]}, {"name": "bn6a_branch2a", "class_name": "BatchNormalization", "config": {"name": "bn6a_branch2a", "trainable": true, "dtype": "float32", "axis": [2], "momentum": 0.99, "epsilon": 0.001, "center": true, "scale": true, "beta_initializer": {"class_name": "Zeros", "config": {"dtype": "float32"}}, "gamma_initializer": {"class_name": "Ones", "config": {"dtype": "float32"}}, "moving_mean_initializer": {"class_name": "Zeros", "config": {"dtype": "float32"}}, "moving_variance_initializer": {"class_name": "Ones", "config": {"dtype": "float32"}}, "beta_regularizer": null, "gamma_regularizer": null, "beta_constraint": null, "gamma_constraint": null}, "inbound_nodes": [[["activation_1059", 0, 0, {}]]]}, {"name": "activation_1060", "class_name": "Activation", "config": {"name": "activation_1060", "trainable": true, "dtype": "float32", "activation": "relu"}, "inbound_nodes": [[["bn6a_branch2a", 0, 0, {}]]]}, {"name": "res6a_branch2b", "class_name": "Conv1D", "config": {"name": "res6a_branch2b", "trainable": true, "batch_input_shape": [null, null, 40, 128], "dtype": "float32", "filters": 128, "kernel_size": [5], "strides": [1], "padding": "same", "data_format": "channels_last", "dilation_rate": [1], "activation": "linear", "use_bias": true, "kernel_initializer": {"class_name": "VarianceScaling", "config": {"scale": 2.0, "mode": "fan_in", "distribution": "normal", "seed": 0, "dtype": "float32"}}, "bias_initializer": {"class_name": "Zeros", "config": {"dtype": "float32"}}, "kernel_regularizer": null, "bias_regularizer": null, "activity_regularizer": null, "kernel_constraint": null, "bias_constraint": null}, "inbound_nodes": [[["activation_1060", 0, 0, {}]]]}, {"name": "bn6a_branch2b", "class_name": "BatchNormalization", "config": {"name": "bn6a_branch2b", "trainable": true, "dtype": "float32", "axis": [2], "momentum": 0.99, "epsilon": 0.001, "center": true, "scale": true, "beta_initializer": {"class_name": "Zeros", "config": {"dtype": "float32"}}, "gamma_initializer": {"class_name": "Ones", "config": {"dtype": "float32"}}, "moving_mean_initializer": {"class_name": "Zeros", "config": {"dtype": "float32"}}, "moving_variance_initializer": {"class_name": "Ones", "config": {"dtype": "float32"}}, "beta_regularizer": null, "gamma_regularizer": null, "beta_constraint": null, "gamma_constraint": null}, "inbound_nodes": [[["res6a_branch2b", 0, 0, {}]]]}, {"name": "activation_1061", "class_name": "Activation", "config": {"name": "activation_1061", "trainable": true, "dtype": "float32", "activation": "relu"}, "inbound_nodes": [[["bn6a_branch2b", 0, 0, {}]]]}, {"name": "dropout_577", "class_name": "Dropout", "config": {"name": "dropout_577", "trainable": true, "dtype": "float32", "rate": 0.2, "noise_shape": null, "seed": null}, "inbound_nodes": [[["activation_1061", 0, 0, {}]]]}, {"name": "res6a_branch1", "class_name": "Conv1D", "config": {"name": "res6a_branch1", "trainable": true, "dtype": "float32", "filters": 256, "kernel_size": [1], "strides": [1], "padding": "valid", "data_format": "channels_last", "dilation_rate": [1], "activation": "linear", "use_bias": true, "kernel_initializer": {"class_name": "VarianceScaling", "config": {"scale": 2.0, "mode": "fan_in", "distribution": "normal", "seed": 0, "dtype": "float32"}}, "bias_initializer": {"class_name": "Zeros", "config": {"dtype": "float32"}}, "kernel_regularizer": null, "bias_regularizer": null, "activity_regularizer": null, "kernel_constraint": null, "bias_constraint": null}, "inbound_nodes": [[["activation_1059", 0, 0, {}]]]}, {"name": "res6a_branch2c", "class_name": "Conv1D", "config": {"name": "res6a_branch2c", "trainable": true, "dtype": "float32", "filters": 256, "kernel_size": [1], "strides": [1], "padding": "same", "data_format": "channels_last", "dilation_rate": [1], "activation": "linear", "use_bias": true, "kernel_initializer": {"class_name": "VarianceScaling", "config": {"scale": 2.0, "mode": "fan_in", "distribution": "normal", "seed": 0, "dtype": "float32"}}, "bias_initializer": {"class_name": "Zeros", "config": {"dtype": "float32"}}, "kernel_regularizer": null, "bias_regularizer": null, "activity_regularizer": null, "kernel_constraint": null, "bias_constraint": null}, "inbound_nodes": [[["dropout_577", 0, 0, {}]]]}, {"name": "mp6a_branch1", "class_name": "MaxPooling1D", "config": {"name": "mp6a_branch1", "trainable": true, "dtype": "float32", "strides": [1], "pool_size": [1], "padding": "same", "data_format": "channels_last"}, "inbound_nodes": [[["res6a_branch1", 0, 0, {}]]]}, {"name": "add_330", "class_name": "Add", "config": {"name": "add_330", "trainable": true, "dtype": "float32"}, "inbound_nodes": [[["res6a_branch2c", 0, 0, {}], ["mp6a_branch1", 0, 0, {}]]]}, {"name": "activation_1062", "class_name": "Activation", "config": {"name": "activation_1062", "trainable": true, "dtype": "float32", "activation": "relu"}, "inbound_nodes": [[["add_330", 0, 0, {}]]]}, {"name": "bn6b_branch2a", "class_name": "BatchNormalization", "config": {"name": "bn6b_branch2a", "trainable": true, "dtype": "float32", "axis": [2], "momentum": 0.99, "epsilon": 0.001, "center": true, "scale": true, "beta_initializer": {"class_name": "Zeros", "config": {"dtype": "float32"}}, "gamma_initializer": {"class_name": "Ones", "config": {"dtype": "float32"}}, "moving_mean_initializer": {"class_name": "Zeros", "config": {"dtype": "float32"}}, "moving_variance_initializer": {"class_name": "Ones", "config": {"dtype": "float32"}}, "beta_regularizer": null, "gamma_regularizer": null, "beta_constraint": null, "gamma_constraint": null}, "inbound_nodes": [[["activation_1062", 0, 0, {}]]]}, {"name": "activation_1063", "class_name": "Activation", "config": {"name": "activation_1063", "trainable": true, "dtype": "float32", "activation": "relu"}, "inbound_nodes": [[["bn6b_branch2a", 0, 0, {}]]]}, {"name": "res6b_branch2b", "class_name": "Conv1D", "config": {"name": "res6b_branch2b", "trainable": true, "batch_input_shape": [null, null, 40, 256], "dtype": "float32", "filters": 128, "kernel_size": [13], "strides": [2], "padding": "same", "data_format": "channels_last", "dilation_rate": [1], "activation": "linear", "use_bias": true, "kernel_initializer": {"class_name": "VarianceScaling", "config": {"scale": 2.0, "mode": "fan_in", "distribution": "normal", "seed": 0, "dtype": "float32"}}, "bias_initializer": {"class_name": "Zeros", "config": {"dtype": "float32"}}, "kernel_regularizer": null, "bias_regularizer": null, "activity_regularizer": null, "kernel_constraint": null, "bias_constraint": null}, "inbound_nodes": [[["activation_1063", 0, 0, {}]]]}, {"name": "bn6b_branch2b", "class_name": "BatchNormalization", "config": {"name": "bn6b_branch2b", "trainable": true, "dtype": "float32", "axis": [2], "momentum": 0.99, "epsilon": 0.001, "center": true, "scale": true, "beta_initializer": {"class_name": "Zeros", "config": {"dtype": "float32"}}, "gamma_initializer": {"class_name": "Ones", "config": {"dtype": "float32"}}, "moving_mean_initializer": {"class_name": "Zeros", "config": {"dtype": "float32"}}, "moving_variance_initializer": {"class_name": "Ones", "config": {"dtype": "float32"}}, "beta_regularizer": null, "gamma_regularizer": null, "beta_constraint": null, "gamma_constraint": null}, "inbound_nodes": [[["res6b_branch2b", 0, 0, {}]]]}, {"name": "activation_1064", "class_name": "Activation", "config": {"name": "activation_1064", "trainable": true, "dtype": "float32", "activation": "relu"}, "inbound_nodes": [[["bn6b_branch2b", 0, 0, {}]]]}, {"name": "dropout_578", "class_name": "Dropout", "config": {"name": "dropout_578", "trainable": true, "dtype": "float32", "rate": 0.2, "noise_shape": null, "seed": null}, "inbound_nodes": [[["activation_1064", 0, 0, {}]]]}, {"name": "res6b_branch1", "class_name": "Conv1D", "config": {"name": "res6b_branch1", "trainable": true, "dtype": "float32", "filters": 256, "kernel_size": [1], "strides": [1], "padding": "valid", "data_format": "channels_last", "dilation_rate": [1], "activation": "linear", "use_bias": true, "kernel_initializer": {"class_name": "VarianceScaling", "config": {"scale": 2.0, "mode": "fan_in", "distribution": "normal", "seed": 0, "dtype": "float32"}}, "bias_initializer": {"class_name": "Zeros", "config": {"dtype": "float32"}}, "kernel_regularizer": null, "bias_regularizer": null, "activity_regularizer": null, "kernel_constraint": null, "bias_constraint": null}, "inbound_nodes": [[["activation_1062", 0, 0, {}]]]}, {"name": "res6b_branch2c", "class_name": "Conv1D", "config": {"name": "res6b_branch2c", "trainable": true, "dtype": "float32", "filters": 256, "kernel_size": [1], "strides": [1], "padding": "same", "data_format": "channels_last", "dilation_rate": [1], "activation": "linear", "use_bias": true, "kernel_initializer": {"class_name": "VarianceScaling", "config": {"scale": 2.0, "mode": "fan_in", "distribution": "normal", "seed": 0, "dtype": "float32"}}, "bias_initializer": {"class_name": "Zeros", "config": {"dtype": "float32"}}, "kernel_regularizer": null, "bias_regularizer": null, "activity_regularizer": null, "kernel_constraint": null, "bias_constraint": null}, "inbound_nodes": [[["dropout_578", 0, 0, {}]]]}, {"name": "mp6b_branch1", "class_name": "MaxPooling1D", "config": {"name": "mp6b_branch1", "trainable": true, "dtype": "float32", "strides": [2], "pool_size": [2], "padding": "same", "data_format": "channels_last"}, "inbound_nodes": [[["res6b_branch1", 0, 0, {}]]]}, {"name": "add_331", "class_name": "Add", "config": {"name": "add_331", "trainable": true, "dtype": "float32"}, "inbound_nodes": [[["res6b_branch2c", 0, 0, {}], ["mp6b_branch1", 0, 0, {}]]]}, {"name": "activation_1065", "class_name": "Activation", "config": {"name": "activation_1065", "trainable": true, "dtype": "float32", "activation": "relu"}, "inbound_nodes": [[["add_331", 0, 0, {}]]]}, {"name": "bn6d_branch2a", "class_name": "BatchNormalization", "config": {"name": "bn6d_branch2a", "trainable": true, "dtype": "float32", "axis": [2], "momentum": 0.99, "epsilon": 0.001, "center": true, "scale": true, "beta_initializer": {"class_name": "Zeros", "config": {"dtype": "float32"}}, "gamma_initializer": {"class_name": "Ones", "config": {"dtype": "float32"}}, "moving_mean_initializer": {"class_name": "Zeros", "config": {"dtype": "float32"}}, "moving_variance_initializer": {"class_name": "Ones", "config": {"dtype": "float32"}}, "beta_regularizer": null, "gamma_regularizer": null, "beta_constraint": null, "gamma_constraint": null}, "inbound_nodes": [[["activation_1065", 0, 0, {}]]]}, {"name": "activation_1066", "class_name": "Activation", "config": {"name": "activation_1066", "trainable": true, "dtype": "float32", "activation": "relu"}, "inbound_nodes": [[["bn6d_branch2a", 0, 0, {}]]]}, {"name": "res6d_branch2b", "class_name": "Conv1D", "config": {"name": "res6d_branch2b", "trainable": true, "batch_input_shape": [null, null, 20, 256], "dtype": "float32", "filters": 128, "kernel_size": [13], "strides": [2], "padding": "same", "data_format": "channels_last", "dilation_rate": [1], "activation": "linear", "use_bias": true, "kernel_initializer": {"class_name": "VarianceScaling", "config": {"scale": 2.0, "mode": "fan_in", "distribution": "normal", "seed": 0, "dtype": "float32"}}, "bias_initializer": {"class_name": "Zeros", "config": {"dtype": "float32"}}, "kernel_regularizer": null, "bias_regularizer": null, "activity_regularizer": null, "kernel_constraint": null, "bias_constraint": null}, "inbound_nodes": [[["activation_1066", 0, 0, {}]]]}, {"name": "bn6d_branch2b", "class_name": "BatchNormalization", "config": {"name": "bn6d_branch2b", "trainable": true, "dtype": "float32", "axis": [2], "momentum": 0.99, "epsilon": 0.001, "center": true, "scale": true, "beta_initializer": {"class_name": "Zeros", "config": {"dtype": "float32"}}, "gamma_initializer": {"class_name": "Ones", "config": {"dtype": "float32"}}, "moving_mean_initializer": {"class_name": "Zeros", "config": {"dtype": "float32"}}, "moving_variance_initializer": {"class_name": "Ones", "config": {"dtype": "float32"}}, "beta_regularizer": null, "gamma_regularizer": null, "beta_constraint": null, "gamma_constraint": null}, "inbound_nodes": [[["res6d_branch2b", 0, 0, {}]]]}, {"name": "activation_1067", "class_name": "Activation", "config": {"name": "activation_1067", "trainable": true, "dtype": "float32", "activation": "relu"}, "inbound_nodes": [[["bn6d_branch2b", 0, 0, {}]]]}, {"name": "dropout_579", "class_name": "Dropout", "config": {"name": "dropout_579", "trainable": true, "dtype": "float32", "rate": 0.2, "noise_shape": null, "seed": null}, "inbound_nodes": [[["activation_1067", 0, 0, {}]]]}, {"name": "res6d_branch1", "class_name": "Conv1D", "config": {"name": "res6d_branch1", "trainable": true, "dtype": "float32", "filters": 256, "kernel_size": [1], "strides": [1], "padding": "valid", "data_format": "channels_last", "dilation_rate": [1], "activation": "linear", "use_bias": true, "kernel_initializer": {"class_name": "VarianceScaling", "config": {"scale": 2.0, "mode": "fan_in", "distribution": "normal", "seed": 0, "dtype": "float32"}}, "bias_initializer": {"class_name": "Zeros", "config": {"dtype": "float32"}}, "kernel_regularizer": null, "bias_regularizer": null, "activity_regularizer": null, "kernel_constraint": null, "bias_constraint": null}, "inbound_nodes": [[["activation_1065", 0, 0, {}]]]}, {"name": "res6d_branch2c", "class_name": "Conv1D", "config": {"name": "res6d_branch2c", "trainable": true, "dtype": "float32", "filters": 256, "kernel_size": [1], "strides": [1], "padding": "same", "data_format": "channels_last", "dilation_rate": [1], "activation": "linear", "use_bias": true, "kernel_initializer": {"class_name": "VarianceScaling", "config": {"scale": 2.0, "mode": "fan_in", "distribution": "normal", "seed": 0, "dtype": "float32"}}, "bias_initializer": {"class_name": "Zeros", "config": {"dtype": "float32"}}, "kernel_regularizer": null, "bias_regularizer": null, "activity_regularizer": null, "kernel_constraint": null, "bias_constraint": null}, "inbound_nodes": [[["dropout_579", 0, 0, {}]]]}, {"name": "mp6d_branch1", "class_name": "MaxPooling1D", "config": {"name": "mp6d_branch1", "trainable": true, "dtype": "float32", "strides": [2], "pool_size": [2], "padding": "same", "data_format": "channels_last"}, "inbound_nodes": [[["res6d_branch1", 0, 0, {}]]]}, {"name": "add_332", "class_name": "Add", "config": {"name": "add_332", "trainable": true, "dtype": "float32"}, "inbound_nodes": [[["res6d_branch2c", 0, 0, {}], ["mp6d_branch1", 0, 0, {}]]]}, {"name": "activation_1068", "class_name": "Activation", "config": {"name": "activation_1068", "trainable": true, "dtype": "float32", "activation": "relu"}, "inbound_nodes": [[["add_332", 0, 0, {}]]]}, {"name": "res6e_branch2a", "class_name": "Conv1D", "config": {"name": "res6e_branch2a", "trainable": true, "batch_input_shape": [null, null, 10, 256], "dtype": "float32", "filters": 128, "kernel_size": [1], "strides": [1], "padding": "same", "data_format": "channels_last", "dilation_rate": [1], "activation": "linear", "use_bias": true, "kernel_initializer": {"class_name": "GlorotUniform", "config": {"seed": null, "dtype": "float32"}}, "bias_initializer": {"class_name": "Zeros", "config": {"dtype": "float32"}}, "kernel_regularizer": null, "bias_regularizer": null, "activity_regularizer": null, "kernel_constraint": null, "bias_constraint": null}, "inbound_nodes": [[["activation_1068", 0, 0, {}]]]}, {"name": "bn6e_branch2a", "class_name": "BatchNormalization", "config": {"name": "bn6e_branch2a", "trainable": true, "dtype": "float32", "axis": [2], "momentum": 0.99, "epsilon": 0.001, "center": true, "scale": true, "beta_initializer": {"class_name": "Zeros", "config": {"dtype": "float32"}}, "gamma_initializer": {"class_name": "Ones", "config": {"dtype": "float32"}}, "moving_mean_initializer": {"class_name": "Zeros", "config": {"dtype": "float32"}}, "moving_variance_initializer": {"class_name": "Ones", "config": {"dtype": "float32"}}, "beta_regularizer": null, "gamma_regularizer": null, "beta_constraint": null, "gamma_constraint": null}, "inbound_nodes": [[["res6e_branch2a", 0, 0, {}]]]}, {"name": "activation_1069", "class_name": "Activation", "config": {"name": "activation_1069", "trainable": true, "dtype": "float32", "activation": "relu"}, "inbound_nodes": [[["bn6e_branch2a", 0, 0, {}]]]}, {"name": "dropout_580", "class_name": "Dropout", "config": {"name": "dropout_580", "trainable": true, "dtype": "float32", "rate": 0.2, "noise_shape": null, "seed": null}, "inbound_nodes": [[["activation_1069", 0, 0, {}]]]}, {"name": "res6e_branch2b", "class_name": "Conv1D", "config": {"name": "res6e_branch2b", "trainable": true, "dtype": "float32", "filters": 128, "kernel_size": [7], "strides": [1], "padding": "same", "data_format": "channels_last", "dilation_rate": [1], "activation": "linear", "use_bias": true, "kernel_initializer": {"class_name": "GlorotUniform", "config": {"seed": null, "dtype": "float32"}}, "bias_initializer": {"class_name": "Zeros", "config": {"dtype": "float32"}}, "kernel_regularizer": null, "bias_regularizer": null, "activity_regularizer": null, "kernel_constraint": null, "bias_constraint": null}, "inbound_nodes": [[["dropout_580", 0, 0, {}]]]}, {"name": "bn6e_branch2b", "class_name": "BatchNormalization", "config": {"name": "bn6e_branch2b", "trainable": true, "dtype": "float32", "axis": [2], "momentum": 0.99, "epsilon": 0.001, "center": true, "scale": true, "beta_initializer": {"class_name": "Zeros", "config": {"dtype": "float32"}}, "gamma_initializer": {"class_name": "Ones", "config": {"dtype": "float32"}}, "moving_mean_initializer": {"class_name": "Zeros", "config": {"dtype": "float32"}}, "moving_variance_initializer": {"class_name": "Ones", "config": {"dtype": "float32"}}, "beta_regularizer": null, "gamma_regularizer": null, "beta_constraint": null, "gamma_constraint": null}, "inbound_nodes": [[["res6e_branch2b", 0, 0, {}]]]}, {"name": "activation_1070", "class_name": "Activation", "config": {"name": "activation_1070", "trainable": true, "dtype": "float32", "activation": "relu"}, "inbound_nodes": [[["bn6e_branch2b", 0, 0, {}]]]}, {"name": "dropout_581", "class_name": "Dropout", "config": {"name": "dropout_581", "trainable": true, "dtype": "float32", "rate": 0.2, "noise_shape": null, "seed": null}, "inbound_nodes": [[["activation_1070", 0, 0, {}]]]}, {"name": "res6e_branch2c", "class_name": "Conv1D", "config": {"name": "res6e_branch2c", "trainable": true, "dtype": "float32", "filters": 256, "kernel_size": [1], "strides": [1], "padding": "same", "data_format": "channels_last", "dilation_rate": [1], "activation": "linear", "use_bias": true, "kernel_initializer": {"class_name": "GlorotUniform", "config": {"seed": null, "dtype": "float32"}}, "bias_initializer": {"class_name": "Zeros", "config": {"dtype": "float32"}}, "kernel_regularizer": null, "bias_regularizer": null, "activity_regularizer": null, "kernel_constraint": null, "bias_constraint": null}, "inbound_nodes": [[["dropout_581", 0, 0, {}]]]}, {"name": "bn6e_branch2c", "class_name": "BatchNormalization", "config": {"name": "bn6e_branch2c", "trainable": true, "dtype": "float32", "axis": [2], "momentum": 0.99, "epsilon": 0.001, "center": true, "scale": true, "beta_initializer": {"class_name": "Zeros", "config": {"dtype": "float32"}}, "gamma_initializer": {"class_name": "Ones", "config": {"dtype": "float32"}}, "moving_mean_initializer": {"class_name": "Zeros", "config": {"dtype": "float32"}}, "moving_variance_initializer": {"class_name": "Ones", "config": {"dtype": "float32"}}, "beta_regularizer": null, "gamma_regularizer": null, "beta_constraint": null, "gamma_constraint": null}, "inbound_nodes": [[["res6e_branch2c", 0, 0, {}]]]}, {"name": "add_333", "class_name": "Add", "config": {"name": "add_333", "trainable": true, "dtype": "float32"}, "inbound_nodes": [[["bn6e_branch2c", 0, 0, {}], ["activation_1068", 0, 0, {}]]]}, {"name": "activation_1071", "class_name": "Activation", "config": {"name": "activation_1071", "trainable": true, "dtype": "float32", "activation": "relu"}, "inbound_nodes": [[["add_333", 0, 0, {}]]]}, {"name": "res6f_branch2a", "class_name": "Conv1D", "config": {"name": "res6f_branch2a", "trainable": true, "batch_input_shape": [null, null, 10, 256], "dtype": "float32", "filters": 128, "kernel_size": [1], "strides": [1], "padding": "same", "data_format": "channels_last", "dilation_rate": [1], "activation": "linear", "use_bias": true, "kernel_initializer": {"class_name": "GlorotUniform", "config": {"seed": null, "dtype": "float32"}}, "bias_initializer": {"class_name": "Zeros", "config": {"dtype": "float32"}}, "kernel_regularizer": null, "bias_regularizer": null, "activity_regularizer": null, "kernel_constraint": null, "bias_constraint": null}, "inbound_nodes": [[["activation_1071", 0, 0, {}]]]}, {"name": "bn6f_branch2a", "class_name": "BatchNormalization", "config": {"name": "bn6f_branch2a", "trainable": true, "dtype": "float32", "axis": [2], "momentum": 0.99, "epsilon": 0.001, "center": true, "scale": true, "beta_initializer": {"class_name": "Zeros", "config": {"dtype": "float32"}}, "gamma_initializer": {"class_name": "Ones", "config": {"dtype": "float32"}}, "moving_mean_initializer": {"class_name": "Zeros", "config": {"dtype": "float32"}}, "moving_variance_initializer": {"class_name": "Ones", "config": {"dtype": "float32"}}, "beta_regularizer": null, "gamma_regularizer": null, "beta_constraint": null, "gamma_constraint": null}, "inbound_nodes": [[["res6f_branch2a", 0, 0, {}]]]}, {"name": "activation_1072", "class_name": "Activation", "config": {"name": "activation_1072", "trainable": true, "dtype": "float32", "activation": "relu"}, "inbound_nodes": [[["bn6f_branch2a", 0, 0, {}]]]}, {"name": "dropout_582", "class_name": "Dropout", "config": {"name": "dropout_582", "trainable": true, "dtype": "float32", "rate": 0.2, "noise_shape": null, "seed": null}, "inbound_nodes": [[["activation_1072", 0, 0, {}]]]}, {"name": "res6f_branch2b", "class_name": "Conv1D", "config": {"name": "res6f_branch2b", "trainable": true, "dtype": "float32", "filters": 128, "kernel_size": [7], "strides": [1], "padding": "same", "data_format": "channels_last", "dilation_rate": [1], "activation": "linear", "use_bias": true, "kernel_initializer": {"class_name": "GlorotUniform", "config": {"seed": null, "dtype": "float32"}}, "bias_initializer": {"class_name": "Zeros", "config": {"dtype": "float32"}}, "kernel_regularizer": null, "bias_regularizer": null, "activity_regularizer": null, "kernel_constraint": null, "bias_constraint": null}, "inbound_nodes": [[["dropout_582", 0, 0, {}]]]}, {"name": "bn6f_branch2b", "class_name": "BatchNormalization", "config": {"name": "bn6f_branch2b", "trainable": true, "dtype": "float32", "axis": [2], "momentum": 0.99, "epsilon": 0.001, "center": true, "scale": true, "beta_initializer": {"class_name": "Zeros", "config": {"dtype": "float32"}}, "gamma_initializer": {"class_name": "Ones", "config": {"dtype": "float32"}}, "moving_mean_initializer": {"class_name": "Zeros", "config": {"dtype": "float32"}}, "moving_variance_initializer": {"class_name": "Ones", "config": {"dtype": "float32"}}, "beta_regularizer": null, "gamma_regularizer": null, "beta_constraint": null, "gamma_constraint": null}, "inbound_nodes": [[["res6f_branch2b", 0, 0, {}]]]}, {"name": "activation_1073", "class_name": "Activation", "config": {"name": "activation_1073", "trainable": true, "dtype": "float32", "activation": "relu"}, "inbound_nodes": [[["bn6f_branch2b", 0, 0, {}]]]}, {"name": "dropout_583", "class_name": "Dropout", "config": {"name": "dropout_583", "trainable": true, "dtype": "float32", "rate": 0.2, "noise_shape": null, "seed": null}, "inbound_nodes": [[["activation_1073", 0, 0, {}]]]}, {"name": "res6f_branch2c", "class_name": "Conv1D", "config": {"name": "res6f_branch2c", "trainable": true, "dtype": "float32", "filters": 256, "kernel_size": [1], "strides": [1], "padding": "same", "data_format": "channels_last", "dilation_rate": [1], "activation": "linear", "use_bias": true, "kernel_initializer": {"class_name": "GlorotUniform", "config": {"seed": null, "dtype": "float32"}}, "bias_initializer": {"class_name": "Zeros", "config": {"dtype": "float32"}}, "kernel_regularizer": null, "bias_regularizer": null, "activity_regularizer": null, "kernel_constraint": null, "bias_constraint": null}, "inbound_nodes": [[["dropout_583", 0, 0, {}]]]}, {"name": "bn6f_branch2c", "class_name": "BatchNormalization", "config": {"name": "bn6f_branch2c", "trainable": true, "dtype": "float32", "axis": [2], "momentum": 0.99, "epsilon": 0.001, "center": true, "scale": true, "beta_initializer": {"class_name": "Zeros", "config": {"dtype": "float32"}}, "gamma_initializer": {"class_name": "Ones", "config": {"dtype": "float32"}}, "moving_mean_initializer": {"class_name": "Zeros", "config": {"dtype": "float32"}}, "moving_variance_initializer": {"class_name": "Ones", "config": {"dtype": "float32"}}, "beta_regularizer": null, "gamma_regularizer": null, "beta_constraint": null, "gamma_constraint": null}, "inbound_nodes": [[["res6f_branch2c", 0, 0, {}]]]}, {"name": "add_334", "class_name": "Add", "config": {"name": "add_334", "trainable": true, "dtype": "float32"}, "inbound_nodes": [[["bn6f_branch2c", 0, 0, {}], ["activation_1071", 0, 0, {}]]]}, {"name": "activation_1074", "class_name": "Activation", "config": {"name": "activation_1074", "trainable": true, "dtype": "float32", "activation": "relu"}, "inbound_nodes": [[["add_334", 0, 0, {}]]]}, {"name": "res6g_branch2a", "class_name": "Conv1D", "config": {"name": "res6g_branch2a", "trainable": true, "batch_input_shape": [null, null, 10, 256], "dtype": "float32", "filters": 128, "kernel_size": [3], "strides": [1], "padding": "same", "data_format": "channels_last", "dilation_rate": [1], "activation": "linear", "use_bias": true, "kernel_initializer": {"class_name": "VarianceScaling", "config": {"scale": 2.0, "mode": "fan_in", "distribution": "normal", "seed": 0, "dtype": "float32"}}, "bias_initializer": {"class_name": "Zeros", "config": {"dtype": "float32"}}, "kernel_regularizer": null, "bias_regularizer": null, "activity_regularizer": null, "kernel_constraint": null, "bias_constraint": null}, "inbound_nodes": [[["activation_1074", 0, 0, {}]]]}, {"name": "bn6g_branch2a", "class_name": "BatchNormalization", "config": {"name": "bn6g_branch2a", "trainable": true, "dtype": "float32", "axis": [2], "momentum": 0.99, "epsilon": 0.001, "center": true, "scale": true, "beta_initializer": {"class_name": "Zeros", "config": {"dtype": "float32"}}, "gamma_initializer": {"class_name": "Ones", "config": {"dtype": "float32"}}, "moving_mean_initializer": {"class_name": "Zeros", "config": {"dtype": "float32"}}, "moving_variance_initializer": {"class_name": "Ones", "config": {"dtype": "float32"}}, "beta_regularizer": null, "gamma_regularizer": null, "beta_constraint": null, "gamma_constraint": null}, "inbound_nodes": [[["res6g_branch2a", 0, 0, {}]]]}, {"name": "activation_1075", "class_name": "Activation", "config": {"name": "activation_1075", "trainable": true, "dtype": "float32", "activation": "relu"}, "inbound_nodes": [[["bn6g_branch2a", 0, 0, {}]]]}, {"name": "dropout_584", "class_name": "Dropout", "config": {"name": "dropout_584", "trainable": true, "dtype": "float32", "rate": 0.2, "noise_shape": null, "seed": null}, "inbound_nodes": [[["activation_1075", 0, 0, {}]]]}, {"name": "res6g_branch2b", "class_name": "Conv1D", "config": {"name": "res6g_branch2b", "trainable": true, "dtype": "float32", "filters": 128, "kernel_size": [24], "strides": [1], "padding": "same", "data_format": "channels_last", "dilation_rate": [1], "activation": "linear", "use_bias": true, "kernel_initializer": {"class_name": "VarianceScaling", "config": {"scale": 2.0, "mode": "fan_in", "distribution": "normal", "seed": 0, "dtype": "float32"}}, "bias_initializer": {"class_name": "Zeros", "config": {"dtype": "float32"}}, "kernel_regularizer": null, "bias_regularizer": null, "activity_regularizer": null, "kernel_constraint": null, "bias_constraint": null}, "inbound_nodes": [[["dropout_584", 0, 0, {}]]]}, {"name": "bn6g_branch2b", "class_name": "BatchNormalization", "config": {"name": "bn6g_branch2b", "trainable": true, "dtype": "float32", "axis": [2], "momentum": 0.99, "epsilon": 0.001, "center": true, "scale": true, "beta_initializer": {"class_name": "Zeros", "config": {"dtype": "float32"}}, "gamma_initializer": {"class_name": "Ones", "config": {"dtype": "float32"}}, "moving_mean_initializer": {"class_name": "Zeros", "config": {"dtype": "float32"}}, "moving_variance_initializer": {"class_name": "Ones", "config": {"dtype": "float32"}}, "beta_regularizer": null, "gamma_regularizer": null, "beta_constraint": null, "gamma_constraint": null}, "inbound_nodes": [[["res6g_branch2b", 0, 0, {}]]]}, {"name": "activation_1076", "class_name": "Activation", "config": {"name": "activation_1076", "trainable": true, "dtype": "float32", "activation": "relu"}, "inbound_nodes": [[["bn6g_branch2b", 0, 0, {}]]]}, {"name": "dropout_585", "class_name": "Dropout", "config": {"name": "dropout_585", "trainable": true, "dtype": "float32", "rate": 0.2, "noise_shape": null, "seed": null}, "inbound_nodes": [[["activation_1076", 0, 0, {}]]]}, {"name": "res6g_branch2c", "class_name": "Conv1D", "config": {"name": "res6g_branch2c", "trainable": true, "dtype": "float32", "filters": 256, "kernel_size": [1], "strides": [1], "padding": "same", "data_format": "channels_last", "dilation_rate": [1], "activation": "linear", "use_bias": true, "kernel_initializer": {"class_name": "VarianceScaling", "config": {"scale": 2.0, "mode": "fan_in", "distribution": "normal", "seed": 0, "dtype": "float32"}}, "bias_initializer": {"class_name": "Zeros", "config": {"dtype": "float32"}}, "kernel_regularizer": null, "bias_regularizer": null, "activity_regularizer": null, "kernel_constraint": null, "bias_constraint": null}, "inbound_nodes": [[["dropout_585", 0, 0, {}]]]}, {"name": "bn6g_branch2c", "class_name": "BatchNormalization", "config": {"name": "bn6g_branch2c", "trainable": true, "dtype": "float32", "axis": [2], "momentum": 0.99, "epsilon": 0.001, "center": true, "scale": true, "beta_initializer": {"class_name": "Zeros", "config": {"dtype": "float32"}}, "gamma_initializer": {"class_name": "Ones", "config": {"dtype": "float32"}}, "moving_mean_initializer": {"class_name": "Zeros", "config": {"dtype": "float32"}}, "moving_variance_initializer": {"class_name": "Ones", "config": {"dtype": "float32"}}, "beta_regularizer": null, "gamma_regularizer": null, "beta_constraint": null, "gamma_constraint": null}, "inbound_nodes": [[["res6g_branch2c", 0, 0, {}]]]}, {"name": "activation_1077", "class_name": "Activation", "config": {"name": "activation_1077", "trainable": true, "dtype": "float32", "activation": "relu"}, "inbound_nodes": [[["bn6g_branch2c", 0, 0, {}]]]}, {"name": "res6g_branch1", "class_name": "Conv1D", "config": {"name": "res6g_branch1", "trainable": true, "dtype": "float32", "filters": 256, "kernel_size": [1], "strides": [1], "padding": "same", "data_format": "channels_last", "dilation_rate": [1], "activation": "linear", "use_bias": true, "kernel_initializer": {"class_name": "VarianceScaling", "config": {"scale": 2.0, "mode": "fan_in", "distribution": "normal", "seed": 0, "dtype": "float32"}}, "bias_initializer": {"class_name": "Zeros", "config": {"dtype": "float32"}}, "kernel_regularizer": null, "bias_regularizer": null, "activity_regularizer": null, "kernel_constraint": null, "bias_constraint": null}, "inbound_nodes": [[["activation_1074", 0, 0, {}]]]}, {"name": "dropout_586", "class_name": "Dropout", "config": {"name": "dropout_586", "trainable": true, "dtype": "float32", "rate": 0.2, "noise_shape": null, "seed": null}, "inbound_nodes": [[["activation_1077", 0, 0, {}]]]}, {"name": "bn6g_branch1", "class_name": "BatchNormalization", "config": {"name": "bn6g_branch1", "trainable": true, "dtype": "float32", "axis": [2], "momentum": 0.99, "epsilon": 0.001, "center": true, "scale": true, "beta_initializer": {"class_name": "Zeros", "config": {"dtype": "float32"}}, "gamma_initializer": {"class_name": "Ones", "config": {"dtype": "float32"}}, "moving_mean_initializer": {"class_name": "Zeros", "config": {"dtype": "float32"}}, "moving_variance_initializer": {"class_name": "Ones", "config": {"dtype": "float32"}}, "beta_regularizer": null, "gamma_regularizer": null, "beta_constraint": null, "gamma_constraint": null}, "inbound_nodes": [[["res6g_branch1", 0, 0, {}]]]}, {"name": "add_335", "class_name": "Add", "config": {"name": "add_335", "trainable": true, "dtype": "float32"}, "inbound_nodes": [[["dropout_586", 0, 0, {}], ["bn6g_branch1", 0, 0, {}]]]}, {"name": "activation_1078", "class_name": "Activation", "config": {"name": "activation_1078", "trainable": true, "dtype": "float32", "activation": "relu"}, "inbound_nodes": [[["add_335", 0, 0, {}]]]}, {"name": "bn_final", "class_name": "BatchNormalization", "config": {"name": "bn_final", "trainable": true, "dtype": "float32", "axis": [2], "momentum": 0.99, "epsilon": 0.001, "center": true, "scale": true, "beta_initializer": {"class_name": "Zeros", "config": {"dtype": "float32"}}, "gamma_initializer": {"class_name": "Ones", "config": {"dtype": "float32"}}, "moving_mean_initializer": {"class_name": "Zeros", "config": {"dtype": "float32"}}, "moving_variance_initializer": {"class_name": "Ones", "config": {"dtype": "float32"}}, "beta_regularizer": null, "gamma_regularizer": null, "beta_constraint": null, "gamma_constraint": null}, "inbound_nodes": [[["activation_1078", 0, 0, {}]]]}, {"name": "activation_1079", "class_name": "Activation", "config": {"name": "activation_1079", "trainable": true, "dtype": "float32", "activation": "relu"}, "inbound_nodes": [[["bn_final", 0, 0, {}]]]}, {"name": "flatten_11", "class_name": "Flatten", "config": {"name": "flatten_11", "trainable": true, "dtype": "float32", "data_format": "channels_last"}, "inbound_nodes": [[["activation_1079", 0, 0, {}]]]}, {"name": "dense_11", "class_name": "Dense", "config": {"name": "dense_11", "trainable": true, "dtype": "float32", "units": 150, "activation": "relu", "use_bias": true, "kernel_initializer": {"class_name": "GlorotUniform", "config": {"seed": null, "dtype": "float32"}}, "bias_initializer": {"class_name": "Zeros", "config": {"dtype": "float32"}}, "kernel_regularizer": null, "bias_regularizer": null, "activity_regularizer": null, "kernel_constraint": null, "bias_constraint": null}, "inbound_nodes": [[["flatten_11", 0, 0, {}]]]}, {"name": "dropout_587", "class_name": "Dropout", "config": {"name": "dropout_587", "trainable": true, "dtype": "float32", "rate": 0.3, "noise_shape": null, "seed": null}, "inbound_nodes": [[["dense_11", 0, 0, {}]]]}, {"name": "fc9", "class_name": "Dense", "config": {"name": "fc9", "trainable": true, "dtype": "float32", "units": 9, "activation": "softmax", "use_bias": true, "kernel_initializer": {"class_name": "GlorotUniform", "config": {"seed": null, "dtype": "float32"}}, "bias_initializer": {"class_name": "Zeros", "config": {"dtype": "float32"}}, "kernel_regularizer": null, "bias_regularizer": null, "activity_regularizer": null, "kernel_constraint": null, "bias_constraint": null}, "inbound_nodes": [[["dropout_587", 0, 0, {}]]]}], "input_layers": [["input_12", 0, 0]], "output_layers": [["fc9", 0, 0]]}, "keras_version": "2.2.4-tf", "backend": "tensorflow"}