{"class_name": "Model", "config": {"name": "ResNet_Inc_LSTM", "layers": [{"name": "input_11", "class_name": "InputLayer", "config": {"batch_input_shape": [null, 2500, 12], "dtype": "float32", "sparse": false, "ragged": false, "name": "input_11"}, "inbound_nodes": []}, {"name": "zero_padding1d_10", "class_name": "ZeroPadding1D", "config": {"name": "zero_padding1d_10", "trainable": true, "dtype": "float32", "padding": [0, 0]}, "inbound_nodes": [[["input_11", 0, 0, {}]]]}, {"name": "conv1", "class_name": "Conv1D", "config": {"name": "conv1", "trainable": true, "dtype": "float32", "filters": 16, "kernel_size": [13], "strides": [1], "padding": "same", "data_format": "channels_last", "dilation_rate": [1], "activation": "linear", "use_bias": true, "kernel_initializer": {"class_name": "VarianceScaling", "config": {"scale": 2.0, "mode": "fan_in", "distribution": "truncated_normal", "seed": 0, "dtype": "float32"}}, "bias_initializer": {"class_name": "Zeros", "config": {"dtype": "float32"}}, "kernel_regularizer": null, "bias_regularizer": null, "activity_regularizer": null, "kernel_constraint": null, "bias_constraint": null}, "inbound_nodes": [[["zero_padding1d_10", 0, 0, {}]]]}, {"name": "bn_conv1", "class_name": "BatchNormalization", "config": {"name": "bn_conv1", "trainable": true, "dtype": "float32", "axis": [2], "momentum": 0.99, "epsilon": 0.001, "center": true, "scale": true, "beta_initializer": {"class_name": "Zeros", "config": {"dtype": "float32"}}, "gamma_initializer": {"class_name": "Ones", "config": {"dtype": "float32"}}, "moving_mean_initializer": {"class_name": "Zeros", "config": {"dtype": "float32"}}, "moving_variance_initializer": {"class_name": "Ones", "config": {"dtype": "float32"}}, "beta_regularizer": null, "gamma_regularizer": null, "beta_constraint": null, "gamma_constraint": null}, "inbound_nodes": [[["conv1", 0, 0, {}]]]}, {"name": "activation_860", "class_name": "Activation", "config": {"name": "activation_860", "trainable": true, "dtype": "float32", "activation": "relu"}, "inbound_nodes": [[["bn_conv1", 0, 0, {}]]]}, {"name": "res2A_branch2a", "class_name": "Conv1D", "config": {"name": "res2A_branch2a", "trainable": true, "batch_input_shape": [null, null, 2500, 16], "dtype": "float32", "filters": 16, "kernel_size": [1], "strides": [1], "padding": "same", "data_format": "channels_last", "dilation_rate": [1], "activation": "linear", "use_bias": true, "kernel_initializer": {"class_name": "VarianceScaling", "config": {"scale": 2.0, "mode": "fan_in", "distribution": "truncated_normal", "seed": 0, "dtype": "float32"}}, "bias_initializer": {"class_name": "Zeros", "config": {"dtype": "float32"}}, "kernel_regularizer": null, "bias_regularizer": null, "activity_regularizer": null, "kernel_constraint": null, "bias_constraint": null}, "inbound_nodes": [[["activation_860", 0, 0, {}]]]}, {"name": "bn2A_branch2a", "class_name": "BatchNormalization", "config": {"name": "bn2A_branch2a", "trainable": true, "dtype": "float32", "axis": [2], "momentum": 0.99, "epsilon": 0.001, "center": true, "scale": true, "beta_initializer": {"class_name": "Zeros", "config": {"dtype": "float32"}}, "gamma_initializer": {"class_name": "Ones", "config": {"dtype": "float32"}}, "moving_mean_initializer": {"class_name": "Zeros", "config": {"dtype": "float32"}}, "moving_variance_initializer": {"class_name": "Ones", "config": {"dtype": "float32"}}, "beta_regularizer": null, "gamma_regularizer": null, "beta_constraint": null, "gamma_constraint": null}, "inbound_nodes": [[["res2A_branch2a", 0, 0, {}]]]}, {"name": "activation_861", "class_name": "Activation", "config": {"name": "activation_861", "trainable": true, "dtype": "float32", "activation": "relu"}, "inbound_nodes": [[["bn2A_branch2a", 0, 0, {}]]]}, {"name": "dropout_420", "class_name": "Dropout", "config": {"name": "dropout_420", "trainable": true, "dtype": "float32", "rate": 0.25, "noise_shape": null, "seed": null}, "inbound_nodes": [[["activation_861", 0, 0, {}]]]}, {"name": "res2A_branch1", "class_name": "Conv1D", "config": {"name": "res2A_branch1", "trainable": true, "dtype": "float32", "filters": 16, "kernel_size": [13], "strides": [1], "padding": "same", "data_format": "channels_last", "dilation_rate": [1], "activation": "linear", "use_bias": true, "kernel_initializer": {"class_name": "VarianceScaling", "config": {"scale": 2.0, "mode": "fan_in", "distribution": "truncated_normal", "seed": 0, "dtype": "float32"}}, "bias_initializer": {"class_name": "Zeros", "config": {"dtype": "float32"}}, "kernel_regularizer": null, "bias_regularizer": null, "activity_regularizer": null, "kernel_constraint": null, "bias_constraint": null}, "inbound_nodes": [[["activation_860", 0, 0, {}]]]}, {"name": "bn2A_branch1", "class_name": "BatchNormalization", "config": {"name": "bn2A_branch1", "trainable": true, "dtype": "float32", "axis": [2], "momentum": 0.99, "epsilon": 0.001, "center": true, "scale": true, "beta_initializer": {"class_name": "Zeros", "config": {"dtype": "float32"}}, "gamma_initializer": {"class_name": "Ones", "config": {"dtype": "float32"}}, "moving_mean_initializer": {"class_name": "Zeros", "config": {"dtype": "float32"}}, "moving_variance_initializer": {"class_name": "Ones", "config": {"dtype": "float32"}}, "beta_regularizer": null, "gamma_regularizer": null, "beta_constraint": null, "gamma_constraint": null}, "inbound_nodes": [[["res2A_branch1", 0, 0, {}]]]}, {"name": "res2A_branch4sha", "class_name": "Conv1D", "config": {"name": "res2A_branch4sha", "trainable": true, "dtype": "float32", "filters": 16, "kernel_size": [13], "strides": [1], "padding": "same", "data_format": "channels_last", "dilation_rate": [1], "activation": "linear", "use_bias": true, "kernel_initializer": {"class_name": "VarianceScaling", "config": {"scale": 2.0, "mode": "fan_in", "distribution": "truncated_normal", "seed": 0, "dtype": "float32"}}, "bias_initializer": {"class_name": "Zeros", "config": {"dtype": "float32"}}, "kernel_regularizer": null, "bias_regularizer": null, "activity_regularizer": null, "kernel_constraint": null, "bias_constraint": null}, "inbound_nodes": [[["dropout_420", 0, 0, {}]]]}, {"name": "activation_863", "class_name": "Activation", "config": {"name": "activation_863", "trainable": true, "dtype": "float32", "activation": "relu"}, "inbound_nodes": [[["bn2A_branch1", 0, 0, {}]]]}, {"name": "bn2A_branch4sha", "class_name": "BatchNormalization", "config": {"name": "bn2A_branch4sha", "trainable": true, "dtype": "float32", "axis": [2], "momentum": 0.99, "epsilon": 0.001, "center": true, "scale": true, "beta_initializer": {"class_name": "Zeros", "config": {"dtype": "float32"}}, "gamma_initializer": {"class_name": "Ones", "config": {"dtype": "float32"}}, "moving_mean_initializer": {"class_name": "Zeros", "config": {"dtype": "float32"}}, "moving_variance_initializer": {"class_name": "Ones", "config": {"dtype": "float32"}}, "beta_regularizer": null, "gamma_regularizer": null, "beta_constraint": null, "gamma_constraint": null}, "inbound_nodes": [[["res2A_branch4sha", 0, 0, {}]]]}, {"name": "res2A_branch2sha", "class_name": "Conv1D", "config": {"name": "res2A_branch2sha", "trainable": true, "dtype": "float32", "filters": 16, "kernel_size": [13], "strides": [1], "padding": "same", "data_format": "channels_last", "dilation_rate": [1], "activation": "linear", "use_bias": true, "kernel_initializer": {"class_name": "VarianceScaling", "config": {"scale": 2.0, "mode": "fan_in", "distribution": "truncated_normal", "seed": 0, "dtype": "float32"}}, "bias_initializer": {"class_name": "Zeros", "config": {"dtype": "float32"}}, "kernel_regularizer": null, "bias_regularizer": null, "activity_regularizer": null, "kernel_constraint": null, "bias_constraint": null}, "inbound_nodes": [[["activation_863", 0, 0, {}]]]}, {"name": "activation_867", "class_name": "Activation", "config": {"name": "activation_867", "trainable": true, "dtype": "float32", "activation": "relu"}, "inbound_nodes": [[["bn2A_branch4sha", 0, 0, {}]]]}, {"name": "res2A_branch2b", "class_name": "Conv1D", "config": {"name": "res2A_branch2b", "trainable": true, "dtype": "float32", "filters": 16, "kernel_size": [13], "strides": [1], "padding": "same", "data_format": "channels_last", "dilation_rate": [1], "activation": "linear", "use_bias": true, "kernel_initializer": {"class_name": "VarianceScaling", "config": {"scale": 2.0, "mode": "fan_in", "distribution": "truncated_normal", "seed": 0, "dtype": "float32"}}, "bias_initializer": {"class_name": "Zeros", "config": {"dtype": "float32"}}, "kernel_regularizer": null, "bias_regularizer": null, "activity_regularizer": null, "kernel_constraint": null, "bias_constraint": null}, "inbound_nodes": [[["dropout_420", 0, 0, {}]]]}, {"name": "bn2A_branch2sha", "class_name": "BatchNormalization", "config": {"name": "bn2A_branch2sha", "trainable": true, "dtype": "float32", "axis": [2], "momentum": 0.99, "epsilon": 0.001, "center": true, "scale": true, "beta_initializer": {"class_name": "Zeros", "config": {"dtype": "float32"}}, "gamma_initializer": {"class_name": "Ones", "config": {"dtype": "float32"}}, "moving_mean_initializer": {"class_name": "Zeros", "config": {"dtype": "float32"}}, "moving_variance_initializer": {"class_name": "Ones", "config": {"dtype": "float32"}}, "beta_regularizer": null, "gamma_regularizer": null, "beta_constraint": null, "gamma_constraint": null}, "inbound_nodes": [[["res2A_branch2sha", 0, 0, {}]]]}, {"name": "dropout_423", "class_name": "Dropout", "config": {"name": "dropout_423", "trainable": true, "dtype": "float32", "rate": 0.15, "noise_shape": null, "seed": null}, "inbound_nodes": [[["activation_867", 0, 0, {}]]]}, {"name": "bn2A_branch2b", "class_name": "BatchNormalization", "config": {"name": "bn2A_branch2b", "trainable": true, "dtype": "float32", "axis": [2], "momentum": 0.99, "epsilon": 0.001, "center": true, "scale": true, "beta_initializer": {"class_name": "Zeros", "config": {"dtype": "float32"}}, "gamma_initializer": {"class_name": "Ones", "config": {"dtype": "float32"}}, "moving_mean_initializer": {"class_name": "Zeros", "config": {"dtype": "float32"}}, "moving_variance_initializer": {"class_name": "Ones", "config": {"dtype": "float32"}}, "beta_regularizer": null, "gamma_regularizer": null, "beta_constraint": null, "gamma_constraint": null}, "inbound_nodes": [[["res2A_branch2b", 0, 0, {}]]]}, {"name": "activation_864", "class_name": "Activation", "config": {"name": "activation_864", "trainable": true, "dtype": "float32", "activation": "relu"}, "inbound_nodes": [[["bn2A_branch2sha", 0, 0, {}]]]}, {"name": "res2A_branch4shb", "class_name": "Conv1D", "config": {"name": "res2A_branch4shb", "trainable": true, "dtype": "float32", "filters": 32, "kernel_size": [13], "strides": [1], "padding": "same", "data_format": "channels_last", "dilation_rate": [1], "activation": "linear", "use_bias": true, "kernel_initializer": {"class_name": "VarianceScaling", "config": {"scale": 2.0, "mode": "fan_in", "distribution": "truncated_normal", "seed": 0, "dtype": "float32"}}, "bias_initializer": {"class_name": "Zeros", "config": {"dtype": "float32"}}, "kernel_regularizer": null, "bias_regularizer": null, "activity_regularizer": null, "kernel_constraint": null, "bias_constraint": null}, "inbound_nodes": [[["dropout_423", 0, 0, {}]]]}, {"name": "activation_862", "class_name": "Activation", "config": {"name": "activation_862", "trainable": true, "dtype": "float32", "activation": "relu"}, "inbound_nodes": [[["bn2A_branch2b", 0, 0, {}]]]}, {"name": "add_180", "class_name": "Add", "config": {"name": "add_180", "trainable": true, "dtype": "float32"}, "inbound_nodes": [[["activation_863", 0, 0, {}], ["activation_860", 0, 0, {}]]]}, {"name": "dropout_422", "class_name": "Dropout", "config": {"name": "dropout_422", "trainable": true, "dtype": "float32", "rate": 0.15, "noise_shape": null, "seed": null}, "inbound_nodes": [[["activation_864", 0, 0, {}]]]}, {"name": "bn2A_branch4shb", "class_name": "BatchNormalization", "config": {"name": "bn2A_branch4shb", "trainable": true, "dtype": "float32", "axis": [2], "momentum": 0.99, "epsilon": 0.001, "center": true, "scale": true, "beta_initializer": {"class_name": "Zeros", "config": {"dtype": "float32"}}, "gamma_initializer": {"class_name": "Ones", "config": {"dtype": "float32"}}, "moving_mean_initializer": {"class_name": "Zeros", "config": {"dtype": "float32"}}, "moving_variance_initializer": {"class_name": "Ones", "config": {"dtype": "float32"}}, "beta_regularizer": null, "gamma_regularizer": null, "beta_constraint": null, "gamma_constraint": null}, "inbound_nodes": [[["res2A_branch4shb", 0, 0, {}]]]}, {"name": "dropout_421", "class_name": "Dropout", "config": {"name": "dropout_421", "trainable": true, "dtype": "float32", "rate": 0.15, "noise_shape": null, "seed": null}, "inbound_nodes": [[["activation_862", 0, 0, {}]]]}, {"name": "res2A_branch3sha", "class_name": "Conv1D", "config": {"name": "res2A_branch3sha", "trainable": true, "dtype": "float32", "filters": 32, "kernel_size": [13], "strides": [1], "padding": "same", "data_format": "channels_last", "dilation_rate": [1], "activation": "linear", "use_bias": true, "kernel_initializer": {"class_name": "VarianceScaling", "config": {"scale": 2.0, "mode": "fan_in", "distribution": "truncated_normal", "seed": 0, "dtype": "float32"}}, "bias_initializer": {"class_name": "Zeros", "config": {"dtype": "float32"}}, "kernel_regularizer": null, "bias_regularizer": null, "activity_regularizer": null, "kernel_constraint": null, "bias_constraint": null}, "inbound_nodes": [[["add_180", 0, 0, {}]]]}, {"name": "res2A_branch2shb", "class_name": "Conv1D", "config": {"name": "res2A_branch2shb", "trainable": true, "dtype": "float32", "filters": 32, "kernel_size": [13], "strides": [1], "padding": "same", "data_format": "channels_last", "dilation_rate": [1], "activation": "linear", "use_bias": true, "kernel_initializer": {"class_name": "VarianceScaling", "config": {"scale": 2.0, "mode": "fan_in", "distribution": "truncated_normal", "seed": 0, "dtype": "float32"}}, "bias_initializer": {"class_name": "Zeros", "config": {"dtype": "float32"}}, "kernel_regularizer": null, "bias_regularizer": null, "activity_regularizer": null, "kernel_constraint": null, "bias_constraint": null}, "inbound_nodes": [[["dropout_422", 0, 0, {}]]]}, {"name": "activation_868", "class_name": "Activation", "config": {"name": "activation_868", "trainable": true, "dtype": "float32", "activation": "relu"}, "inbound_nodes": [[["bn2A_branch4shb", 0, 0, {}]]]}, {"name": "res2A_branch2c", "class_name": "Conv1D", "config": {"name": "res2A_branch2c", "trainable": true, "dtype": "float32", "filters": 32, "kernel_size": [1], "strides": [1], "padding": "same", "data_format": "channels_last", "dilation_rate": [1], "activation": "linear", "use_bias": true, "kernel_initializer": {"class_name": "VarianceScaling", "config": {"scale": 2.0, "mode": "fan_in", "distribution": "truncated_normal", "seed": 0, "dtype": "float32"}}, "bias_initializer": {"class_name": "Zeros", "config": {"dtype": "float32"}}, "kernel_regularizer": null, "bias_regularizer": null, "activity_regularizer": null, "kernel_constraint": null, "bias_constraint": null}, "inbound_nodes": [[["dropout_421", 0, 0, {}]]]}, {"name": "bn2A_branch3sha", "class_name": "BatchNormalization", "config": {"name": "bn2A_branch3sha", "trainable": true, "dtype": "float32", "axis": [2], "momentum": 0.99, "epsilon": 0.001, "center": true, "scale": true, "beta_initializer": {"class_name": "Zeros", "config": {"dtype": "float32"}}, "gamma_initializer": {"class_name": "Ones", "config": {"dtype": "float32"}}, "moving_mean_initializer": {"class_name": "Zeros", "config": {"dtype": "float32"}}, "moving_variance_initializer": {"class_name": "Ones", "config": {"dtype": "float32"}}, "beta_regularizer": null, "gamma_regularizer": null, "beta_constraint": null, "gamma_constraint": null}, "inbound_nodes": [[["res2A_branch3sha", 0, 0, {}]]]}, {"name": "bn2A_branch2shb", "class_name": "BatchNormalization", "config": {"name": "bn2A_branch2shb", "trainable": true, "dtype": "float32", "axis": [2], "momentum": 0.99, "epsilon": 0.001, "center": true, "scale": true, "beta_initializer": {"class_name": "Zeros", "config": {"dtype": "float32"}}, "gamma_initializer": {"class_name": "Ones", "config": {"dtype": "float32"}}, "moving_mean_initializer": {"class_name": "Zeros", "config": {"dtype": "float32"}}, "moving_variance_initializer": {"class_name": "Ones", "config": {"dtype": "float32"}}, "beta_regularizer": null, "gamma_regularizer": null, "beta_constraint": null, "gamma_constraint": null}, "inbound_nodes": [[["res2A_branch2shb", 0, 0, {}]]]}, {"name": "bn2A_branch5sha", "class_name": "BatchNormalization", "config": {"name": "bn2A_branch5sha", "trainable": true, "dtype": "float32", "axis": [2], "momentum": 0.99, "epsilon": 0.001, "center": true, "scale": true, "beta_initializer": {"class_name": "Zeros", "config": {"dtype": "float32"}}, "gamma_initializer": {"class_name": "Ones", "config": {"dtype": "float32"}}, "moving_mean_initializer": {"class_name": "Zeros", "config": {"dtype": "float32"}}, "moving_variance_initializer": {"class_name": "Ones", "config": {"dtype": "float32"}}, "beta_regularizer": null, "gamma_regularizer": null, "beta_constraint": null, "gamma_constraint": null}, "inbound_nodes": [[["activation_868", 0, 0, {}]]]}, {"name": "bn2A_branch2c", "class_name": "BatchNormalization", "config": {"name": "bn2A_branch2c", "trainable": true, "dtype": "float32", "axis": [2], "momentum": 0.99, "epsilon": 0.001, "center": true, "scale": true, "beta_initializer": {"class_name": "Zeros", "config": {"dtype": "float32"}}, "gamma_initializer": {"class_name": "Ones", "config": {"dtype": "float32"}}, "moving_mean_initializer": {"class_name": "Zeros", "config": {"dtype": "float32"}}, "moving_variance_initializer": {"class_name": "Ones", "config": {"dtype": "float32"}}, "beta_regularizer": null, "gamma_regularizer": null, "beta_constraint": null, "gamma_constraint": null}, "inbound_nodes": [[["res2A_branch2c", 0, 0, {}]]]}, {"name": "activation_866", "class_name": "Activation", "config": {"name": "activation_866", "trainable": true, "dtype": "float32", "activation": "relu"}, "inbound_nodes": [[["bn2A_branch3sha", 0, 0, {}]]]}, {"name": "activation_865", "class_name": "Activation", "config": {"name": "activation_865", "trainable": true, "dtype": "float32", "activation": "relu"}, "inbound_nodes": [[["bn2A_branch2shb", 0, 0, {}]]]}, {"name": "activation_869", "class_name": "Activation", "config": {"name": "activation_869", "trainable": true, "dtype": "float32", "activation": "relu"}, "inbound_nodes": [[["bn2A_branch5sha", 0, 0, {}]]]}, {"name": "add_181", "class_name": "Add", "config": {"name": "add_181", "trainable": true, "dtype": "float32"}, "inbound_nodes": [[["bn2A_branch2c", 0, 0, {}], ["activation_866", 0, 0, {}], ["activation_865", 0, 0, {}], ["activation_868", 0, 0, {}], ["activation_869", 0, 0, {}]]]}, {"name": "activation_870", "class_name": "Activation", "config": {"name": "activation_870", "trainable": true, "dtype": "float32", "activation": "relu"}, "inbound_nodes": [[["add_181", 0, 0, {}]]]}, {"name": "res2a_branch2a", "class_name": "Conv1D", "config": {"name": "res2a_branch2a", "trainable": true, "batch_input_shape": [null, null, 2500, 32], "dtype": "float32", "filters": 16, "kernel_size": [13], "strides": [2], "padding": "same", "data_format": "channels_last", "dilation_rate": [1], "activation": "linear", "use_bias": true, "kernel_initializer": {"class_name": "VarianceScaling", "config": {"scale": 2.0, "mode": "fan_in", "distribution": "truncated_normal", "seed": 0, "dtype": "float32"}}, "bias_initializer": {"class_name": "Zeros", "config": {"dtype": "float32"}}, "kernel_regularizer": null, "bias_regularizer": null, "activity_regularizer": null, "kernel_constraint": null, "bias_constraint": null}, "inbound_nodes": [[["activation_870", 0, 0, {}]]]}, {"name": "bn2a_branch2a", "class_name": "BatchNormalization", "config": {"name": "bn2a_branch2a", "trainable": true, "dtype": "float32", "axis": [2], "momentum": 0.99, "epsilon": 0.001, "center": true, "scale": true, "beta_initializer": {"class_name": "Zeros", "config": {"dtype": "float32"}}, "gamma_initializer": {"class_name": "Ones", "config": {"dtype": "float32"}}, "moving_mean_initializer": {"class_name": "Zeros", "config": {"dtype": "float32"}}, "moving_variance_initializer": {"class_name": "Ones", "config": {"dtype": "float32"}}, "beta_regularizer": null, "gamma_regularizer": null, "beta_constraint": null, "gamma_constraint": null}, "inbound_nodes": [[["res2a_branch2a", 0, 0, {}]]]}, {"name": "activation_871", "class_name": "Activation", "config": {"name": "activation_871", "trainable": true, "dtype": "float32", "activation": "relu"}, "inbound_nodes": [[["bn2a_branch2a", 0, 0, {}]]]}, {"name": "dropout_424", "class_name": "Dropout", "config": {"name": "dropout_424", "trainable": true, "dtype": "float32", "rate": 0.3, "noise_shape": null, "seed": null}, "inbound_nodes": [[["activation_871", 0, 0, {}]]]}, {"name": "res2a_branch2b", "class_name": "Conv1D", "config": {"name": "res2a_branch2b", "trainable": true, "dtype": "float32", "filters": 16, "kernel_size": [13], "strides": [1], "padding": "same", "data_format": "channels_last", "dilation_rate": [1], "activation": "linear", "use_bias": true, "kernel_initializer": {"class_name": "VarianceScaling", "config": {"scale": 2.0, "mode": "fan_in", "distribution": "truncated_normal", "seed": 0, "dtype": "float32"}}, "bias_initializer": {"class_name": "Zeros", "config": {"dtype": "float32"}}, "kernel_regularizer": null, "bias_regularizer": null, "activity_regularizer": null, "kernel_constraint": null, "bias_constraint": null}, "inbound_nodes": [[["dropout_424", 0, 0, {}]]]}, {"name": "activation_872", "class_name": "Activation", "config": {"name": "activation_872", "trainable": true, "dtype": "float32", "activation": "relu"}, "inbound_nodes": [[["res2a_branch2b", 0, 0, {}]]]}, {"name": "dropout_425", "class_name": "Dropout", "config": {"name": "dropout_425", "trainable": true, "dtype": "float32", "rate": 0.3, "noise_shape": null, "seed": null}, "inbound_nodes": [[["activation_872", 0, 0, {}]]]}, {"name": "res2a_branch2c", "class_name": "Conv1D", "config": {"name": "res2a_branch2c", "trainable": true, "dtype": "float32", "filters": 32, "kernel_size": [1], "strides": [1], "padding": "same", "data_format": "channels_last", "dilation_rate": [1], "activation": "linear", "use_bias": true, "kernel_initializer": {"class_name": "VarianceScaling", "config": {"scale": 2.0, "mode": "fan_in", "distribution": "truncated_normal", "seed": 0, "dtype": "float32"}}, "bias_initializer": {"class_name": "Zeros", "config": {"dtype": "float32"}}, "kernel_regularizer": null, "bias_regularizer": null, "activity_regularizer": null, "kernel_constraint": null, "bias_constraint": null}, "inbound_nodes": [[["dropout_425", 0, 0, {}]]]}, {"name": "bn2a_branch2c", "class_name": "BatchNormalization", "config": {"name": "bn2a_branch2c", "trainable": true, "dtype": "float32", "axis": [2], "momentum": 0.99, "epsilon": 0.001, "center": true, "scale": true, "beta_initializer": {"class_name": "Zeros", "config": {"dtype": "float32"}}, "gamma_initializer": {"class_name": "Ones", "config": {"dtype": "float32"}}, "moving_mean_initializer": {"class_name": "Zeros", "config": {"dtype": "float32"}}, "moving_variance_initializer": {"class_name": "Ones", "config": {"dtype": "float32"}}, "beta_regularizer": null, "gamma_regularizer": null, "beta_constraint": null, "gamma_constraint": null}, "inbound_nodes": [[["res2a_branch2c", 0, 0, {}]]]}, {"name": "activation_873", "class_name": "Activation", "config": {"name": "activation_873", "trainable": true, "dtype": "float32", "activation": "relu"}, "inbound_nodes": [[["bn2a_branch2c", 0, 0, {}]]]}, {"name": "res2a_branch1", "class_name": "Conv1D", "config": {"name": "res2a_branch1", "trainable": true, "dtype": "float32", "filters": 32, "kernel_size": [1], "strides": [2], "padding": "same", "data_format": "channels_last", "dilation_rate": [1], "activation": "linear", "use_bias": true, "kernel_initializer": {"class_name": "VarianceScaling", "config": {"scale": 2.0, "mode": "fan_in", "distribution": "truncated_normal", "seed": 0, "dtype": "float32"}}, "bias_initializer": {"class_name": "Zeros", "config": {"dtype": "float32"}}, "kernel_regularizer": null, "bias_regularizer": null, "activity_regularizer": null, "kernel_constraint": null, "bias_constraint": null}, "inbound_nodes": [[["activation_870", 0, 0, {}]]]}, {"name": "dropout_426", "class_name": "Dropout", "config": {"name": "dropout_426", "trainable": true, "dtype": "float32", "rate": 0.3, "noise_shape": null, "seed": null}, "inbound_nodes": [[["activation_873", 0, 0, {}]]]}, {"name": "bn2a_branch1", "class_name": "BatchNormalization", "config": {"name": "bn2a_branch1", "trainable": true, "dtype": "float32", "axis": [2], "momentum": 0.99, "epsilon": 0.001, "center": true, "scale": true, "beta_initializer": {"class_name": "Zeros", "config": {"dtype": "float32"}}, "gamma_initializer": {"class_name": "Ones", "config": {"dtype": "float32"}}, "moving_mean_initializer": {"class_name": "Zeros", "config": {"dtype": "float32"}}, "moving_variance_initializer": {"class_name": "Ones", "config": {"dtype": "float32"}}, "beta_regularizer": null, "gamma_regularizer": null, "beta_constraint": null, "gamma_constraint": null}, "inbound_nodes": [[["res2a_branch1", 0, 0, {}]]]}, {"name": "add_182", "class_name": "Add", "config": {"name": "add_182", "trainable": true, "dtype": "float32"}, "inbound_nodes": [[["dropout_426", 0, 0, {}], ["bn2a_branch1", 0, 0, {}]]]}, {"name": "activation_874", "class_name": "Activation", "config": {"name": "activation_874", "trainable": true, "dtype": "float32", "activation": "relu"}, "inbound_nodes": [[["add_182", 0, 0, {}]]]}, {"name": "res3A_branch2a", "class_name": "Conv1D", "config": {"name": "res3A_branch2a", "trainable": true, "batch_input_shape": [null, null, 1250, 32], "dtype": "float32", "filters": 32, "kernel_size": [1], "strides": [1], "padding": "same", "data_format": "channels_last", "dilation_rate": [1], "activation": "linear", "use_bias": true, "kernel_initializer": {"class_name": "VarianceScaling", "config": {"scale": 2.0, "mode": "fan_in", "distribution": "truncated_normal", "seed": 0, "dtype": "float32"}}, "bias_initializer": {"class_name": "Zeros", "config": {"dtype": "float32"}}, "kernel_regularizer": null, "bias_regularizer": null, "activity_regularizer": null, "kernel_constraint": null, "bias_constraint": null}, "inbound_nodes": [[["activation_874", 0, 0, {}]]]}, {"name": "bn3A_branch2a", "class_name": "BatchNormalization", "config": {"name": "bn3A_branch2a", "trainable": true, "dtype": "float32", "axis": [2], "momentum": 0.99, "epsilon": 0.001, "center": true, "scale": true, "beta_initializer": {"class_name": "Zeros", "config": {"dtype": "float32"}}, "gamma_initializer": {"class_name": "Ones", "config": {"dtype": "float32"}}, "moving_mean_initializer": {"class_name": "Zeros", "config": {"dtype": "float32"}}, "moving_variance_initializer": {"class_name": "Ones", "config": {"dtype": "float32"}}, "beta_regularizer": null, "gamma_regularizer": null, "beta_constraint": null, "gamma_constraint": null}, "inbound_nodes": [[["res3A_branch2a", 0, 0, {}]]]}, {"name": "activation_875", "class_name": "Activation", "config": {"name": "activation_875", "trainable": true, "dtype": "float32", "activation": "relu"}, "inbound_nodes": [[["bn3A_branch2a", 0, 0, {}]]]}, {"name": "dropout_427", "class_name": "Dropout", "config": {"name": "dropout_427", "trainable": true, "dtype": "float32", "rate": 0.25, "noise_shape": null, "seed": null}, "inbound_nodes": [[["activation_875", 0, 0, {}]]]}, {"name": "res3A_branch1", "class_name": "Conv1D", "config": {"name": "res3A_branch1", "trainable": true, "dtype": "float32", "filters": 32, "kernel_size": [7], "strides": [1], "padding": "same", "data_format": "channels_last", "dilation_rate": [1], "activation": "linear", "use_bias": true, "kernel_initializer": {"class_name": "VarianceScaling", "config": {"scale": 2.0, "mode": "fan_in", "distribution": "truncated_normal", "seed": 0, "dtype": "float32"}}, "bias_initializer": {"class_name": "Zeros", "config": {"dtype": "float32"}}, "kernel_regularizer": null, "bias_regularizer": null, "activity_regularizer": null, "kernel_constraint": null, "bias_constraint": null}, "inbound_nodes": [[["activation_874", 0, 0, {}]]]}, {"name": "bn3A_branch1", "class_name": "BatchNormalization", "config": {"name": "bn3A_branch1", "trainable": true, "dtype": "float32", "axis": [2], "momentum": 0.99, "epsilon": 0.001, "center": true, "scale": true, "beta_initializer": {"class_name": "Zeros", "config": {"dtype": "float32"}}, "gamma_initializer": {"class_name": "Ones", "config": {"dtype": "float32"}}, "moving_mean_initializer": {"class_name": "Zeros", "config": {"dtype": "float32"}}, "moving_variance_initializer": {"class_name": "Ones", "config": {"dtype": "float32"}}, "beta_regularizer": null, "gamma_regularizer": null, "beta_constraint": null, "gamma_constraint": null}, "inbound_nodes": [[["res3A_branch1", 0, 0, {}]]]}, {"name": "res3A_branch4sha", "class_name": "Conv1D", "config": {"name": "res3A_branch4sha", "trainable": true, "dtype": "float32", "filters": 32, "kernel_size": [7], "strides": [1], "padding": "same", "data_format": "channels_last", "dilation_rate": [1], "activation": "linear", "use_bias": true, "kernel_initializer": {"class_name": "VarianceScaling", "config": {"scale": 2.0, "mode": "fan_in", "distribution": "truncated_normal", "seed": 0, "dtype": "float32"}}, "bias_initializer": {"class_name": "Zeros", "config": {"dtype": "float32"}}, "kernel_regularizer": null, "bias_regularizer": null, "activity_regularizer": null, "kernel_constraint": null, "bias_constraint": null}, "inbound_nodes": [[["dropout_427", 0, 0, {}]]]}, {"name": "activation_877", "class_name": "Activation", "config": {"name": "activation_877", "trainable": true, "dtype": "float32", "activation": "relu"}, "inbound_nodes": [[["bn3A_branch1", 0, 0, {}]]]}, {"name": "bn3A_branch4sha", "class_name": "BatchNormalization", "config": {"name": "bn3A_branch4sha", "trainable": true, "dtype": "float32", "axis": [2], "momentum": 0.99, "epsilon": 0.001, "center": true, "scale": true, "beta_initializer": {"class_name": "Zeros", "config": {"dtype": "float32"}}, "gamma_initializer": {"class_name": "Ones", "config": {"dtype": "float32"}}, "moving_mean_initializer": {"class_name": "Zeros", "config": {"dtype": "float32"}}, "moving_variance_initializer": {"class_name": "Ones", "config": {"dtype": "float32"}}, "beta_regularizer": null, "gamma_regularizer": null, "beta_constraint": null, "gamma_constraint": null}, "inbound_nodes": [[["res3A_branch4sha", 0, 0, {}]]]}, {"name": "res3A_branch2sha", "class_name": "Conv1D", "config": {"name": "res3A_branch2sha", "trainable": true, "dtype": "float32", "filters": 32, "kernel_size": [7], "strides": [1], "padding": "same", "data_format": "channels_last", "dilation_rate": [1], "activation": "linear", "use_bias": true, "kernel_initializer": {"class_name": "VarianceScaling", "config": {"scale": 2.0, "mode": "fan_in", "distribution": "truncated_normal", "seed": 0, "dtype": "float32"}}, "bias_initializer": {"class_name": "Zeros", "config": {"dtype": "float32"}}, "kernel_regularizer": null, "bias_regularizer": null, "activity_regularizer": null, "kernel_constraint": null, "bias_constraint": null}, "inbound_nodes": [[["activation_877", 0, 0, {}]]]}, {"name": "activation_881", "class_name": "Activation", "config": {"name": "activation_881", "trainable": true, "dtype": "float32", "activation": "relu"}, "inbound_nodes": [[["bn3A_branch4sha", 0, 0, {}]]]}, {"name": "res3A_branch2b", "class_name": "Conv1D", "config": {"name": "res3A_branch2b", "trainable": true, "dtype": "float32", "filters": 32, "kernel_size": [7], "strides": [1], "padding": "same", "data_format": "channels_last", "dilation_rate": [1], "activation": "linear", "use_bias": true, "kernel_initializer": {"class_name": "VarianceScaling", "config": {"scale": 2.0, "mode": "fan_in", "distribution": "truncated_normal", "seed": 0, "dtype": "float32"}}, "bias_initializer": {"class_name": "Zeros", "config": {"dtype": "float32"}}, "kernel_regularizer": null, "bias_regularizer": null, "activity_regularizer": null, "kernel_constraint": null, "bias_constraint": null}, "inbound_nodes": [[["dropout_427", 0, 0, {}]]]}, {"name": "bn3A_branch2sha", "class_name": "BatchNormalization", "config": {"name": "bn3A_branch2sha", "trainable": true, "dtype": "float32", "axis": [2], "momentum": 0.99, "epsilon": 0.001, "center": true, "scale": true, "beta_initializer": {"class_name": "Zeros", "config": {"dtype": "float32"}}, "gamma_initializer": {"class_name": "Ones", "config": {"dtype": "float32"}}, "moving_mean_initializer": {"class_name": "Zeros", "config": {"dtype": "float32"}}, "moving_variance_initializer": {"class_name": "Ones", "config": {"dtype": "float32"}}, "beta_regularizer": null, "gamma_regularizer": null, "beta_constraint": null, "gamma_constraint": null}, "inbound_nodes": [[["res3A_branch2sha", 0, 0, {}]]]}, {"name": "dropout_430", "class_name": "Dropout", "config": {"name": "dropout_430", "trainable": true, "dtype": "float32", "rate": 0.15, "noise_shape": null, "seed": null}, "inbound_nodes": [[["activation_881", 0, 0, {}]]]}, {"name": "bn3A_branch2b", "class_name": "BatchNormalization", "config": {"name": "bn3A_branch2b", "trainable": true, "dtype": "float32", "axis": [2], "momentum": 0.99, "epsilon": 0.001, "center": true, "scale": true, "beta_initializer": {"class_name": "Zeros", "config": {"dtype": "float32"}}, "gamma_initializer": {"class_name": "Ones", "config": {"dtype": "float32"}}, "moving_mean_initializer": {"class_name": "Zeros", "config": {"dtype": "float32"}}, "moving_variance_initializer": {"class_name": "Ones", "config": {"dtype": "float32"}}, "beta_regularizer": null, "gamma_regularizer": null, "beta_constraint": null, "gamma_constraint": null}, "inbound_nodes": [[["res3A_branch2b", 0, 0, {}]]]}, {"name": "activation_878", "class_name": "Activation", "config": {"name": "activation_878", "trainable": true, "dtype": "float32", "activation": "relu"}, "inbound_nodes": [[["bn3A_branch2sha", 0, 0, {}]]]}, {"name": "res3A_branch4shb", "class_name": "Conv1D", "config": {"name": "res3A_branch4shb", "trainable": true, "dtype": "float32", "filters": 64, "kernel_size": [7], "strides": [1], "padding": "same", "data_format": "channels_last", "dilation_rate": [1], "activation": "linear", "use_bias": true, "kernel_initializer": {"class_name": "VarianceScaling", "config": {"scale": 2.0, "mode": "fan_in", "distribution": "truncated_normal", "seed": 0, "dtype": "float32"}}, "bias_initializer": {"class_name": "Zeros", "config": {"dtype": "float32"}}, "kernel_regularizer": null, "bias_regularizer": null, "activity_regularizer": null, "kernel_constraint": null, "bias_constraint": null}, "inbound_nodes": [[["dropout_430", 0, 0, {}]]]}, {"name": "activation_876", "class_name": "Activation", "config": {"name": "activation_876", "trainable": true, "dtype": "float32", "activation": "relu"}, "inbound_nodes": [[["bn3A_branch2b", 0, 0, {}]]]}, {"name": "add_183", "class_name": "Add", "config": {"name": "add_183", "trainable": true, "dtype": "float32"}, "inbound_nodes": [[["activation_877", 0, 0, {}], ["activation_874", 0, 0, {}]]]}, {"name": "dropout_429", "class_name": "Dropout", "config": {"name": "dropout_429", "trainable": true, "dtype": "float32", "rate": 0.15, "noise_shape": null, "seed": null}, "inbound_nodes": [[["activation_878", 0, 0, {}]]]}, {"name": "bn3A_branch4shb", "class_name": "BatchNormalization", "config": {"name": "bn3A_branch4shb", "trainable": true, "dtype": "float32", "axis": [2], "momentum": 0.99, "epsilon": 0.001, "center": true, "scale": true, "beta_initializer": {"class_name": "Zeros", "config": {"dtype": "float32"}}, "gamma_initializer": {"class_name": "Ones", "config": {"dtype": "float32"}}, "moving_mean_initializer": {"class_name": "Zeros", "config": {"dtype": "float32"}}, "moving_variance_initializer": {"class_name": "Ones", "config": {"dtype": "float32"}}, "beta_regularizer": null, "gamma_regularizer": null, "beta_constraint": null, "gamma_constraint": null}, "inbound_nodes": [[["res3A_branch4shb", 0, 0, {}]]]}, {"name": "dropout_428", "class_name": "Dropout", "config": {"name": "dropout_428", "trainable": true, "dtype": "float32", "rate": 0.15, "noise_shape": null, "seed": null}, "inbound_nodes": [[["activation_876", 0, 0, {}]]]}, {"name": "res3A_branch3sha", "class_name": "Conv1D", "config": {"name": "res3A_branch3sha", "trainable": true, "dtype": "float32", "filters": 64, "kernel_size": [7], "strides": [1], "padding": "same", "data_format": "channels_last", "dilation_rate": [1], "activation": "linear", "use_bias": true, "kernel_initializer": {"class_name": "VarianceScaling", "config": {"scale": 2.0, "mode": "fan_in", "distribution": "truncated_normal", "seed": 0, "dtype": "float32"}}, "bias_initializer": {"class_name": "Zeros", "config": {"dtype": "float32"}}, "kernel_regularizer": null, "bias_regularizer": null, "activity_regularizer": null, "kernel_constraint": null, "bias_constraint": null}, "inbound_nodes": [[["add_183", 0, 0, {}]]]}, {"name": "res3A_branch2shb", "class_name": "Conv1D", "config": {"name": "res3A_branch2shb", "trainable": true, "dtype": "float32", "filters": 64, "kernel_size": [7], "strides": [1], "padding": "same", "data_format": "channels_last", "dilation_rate": [1], "activation": "linear", "use_bias": true, "kernel_initializer": {"class_name": "VarianceScaling", "config": {"scale": 2.0, "mode": "fan_in", "distribution": "truncated_normal", "seed": 0, "dtype": "float32"}}, "bias_initializer": {"class_name": "Zeros", "config": {"dtype": "float32"}}, "kernel_regularizer": null, "bias_regularizer": null, "activity_regularizer": null, "kernel_constraint": null, "bias_constraint": null}, "inbound_nodes": [[["dropout_429", 0, 0, {}]]]}, {"name": "activation_882", "class_name": "Activation", "config": {"name": "activation_882", "trainable": true, "dtype": "float32", "activation": "relu"}, "inbound_nodes": [[["bn3A_branch4shb", 0, 0, {}]]]}, {"name": "res3A_branch2c", "class_name": "Conv1D", "config": {"name": "res3A_branch2c", "trainable": true, "dtype": "float32", "filters": 64, "kernel_size": [1], "strides": [1], "padding": "same", "data_format": "channels_last", "dilation_rate": [1], "activation": "linear", "use_bias": true, "kernel_initializer": {"class_name": "VarianceScaling", "config": {"scale": 2.0, "mode": "fan_in", "distribution": "truncated_normal", "seed": 0, "dtype": "float32"}}, "bias_initializer": {"class_name": "Zeros", "config": {"dtype": "float32"}}, "kernel_regularizer": null, "bias_regularizer": null, "activity_regularizer": null, "kernel_constraint": null, "bias_constraint": null}, "inbound_nodes": [[["dropout_428", 0, 0, {}]]]}, {"name": "bn3A_branch3sha", "class_name": "BatchNormalization", "config": {"name": "bn3A_branch3sha", "trainable": true, "dtype": "float32", "axis": [2], "momentum": 0.99, "epsilon": 0.001, "center": true, "scale": true, "beta_initializer": {"class_name": "Zeros", "config": {"dtype": "float32"}}, "gamma_initializer": {"class_name": "Ones", "config": {"dtype": "float32"}}, "moving_mean_initializer": {"class_name": "Zeros", "config": {"dtype": "float32"}}, "moving_variance_initializer": {"class_name": "Ones", "config": {"dtype": "float32"}}, "beta_regularizer": null, "gamma_regularizer": null, "beta_constraint": null, "gamma_constraint": null}, "inbound_nodes": [[["res3A_branch3sha", 0, 0, {}]]]}, {"name": "bn3A_branch2shb", "class_name": "BatchNormalization", "config": {"name": "bn3A_branch2shb", "trainable": true, "dtype": "float32", "axis": [2], "momentum": 0.99, "epsilon": 0.001, "center": true, "scale": true, "beta_initializer": {"class_name": "Zeros", "config": {"dtype": "float32"}}, "gamma_initializer": {"class_name": "Ones", "config": {"dtype": "float32"}}, "moving_mean_initializer": {"class_name": "Zeros", "config": {"dtype": "float32"}}, "moving_variance_initializer": {"class_name": "Ones", "config": {"dtype": "float32"}}, "beta_regularizer": null, "gamma_regularizer": null, "beta_constraint": null, "gamma_constraint": null}, "inbound_nodes": [[["res3A_branch2shb", 0, 0, {}]]]}, {"name": "bn3A_branch5sha", "class_name": "BatchNormalization", "config": {"name": "bn3A_branch5sha", "trainable": true, "dtype": "float32", "axis": [2], "momentum": 0.99, "epsilon": 0.001, "center": true, "scale": true, "beta_initializer": {"class_name": "Zeros", "config": {"dtype": "float32"}}, "gamma_initializer": {"class_name": "Ones", "config": {"dtype": "float32"}}, "moving_mean_initializer": {"class_name": "Zeros", "config": {"dtype": "float32"}}, "moving_variance_initializer": {"class_name": "Ones", "config": {"dtype": "float32"}}, "beta_regularizer": null, "gamma_regularizer": null, "beta_constraint": null, "gamma_constraint": null}, "inbound_nodes": [[["activation_882", 0, 0, {}]]]}, {"name": "bn3A_branch2c", "class_name": "BatchNormalization", "config": {"name": "bn3A_branch2c", "trainable": true, "dtype": "float32", "axis": [2], "momentum": 0.99, "epsilon": 0.001, "center": true, "scale": true, "beta_initializer": {"class_name": "Zeros", "config": {"dtype": "float32"}}, "gamma_initializer": {"class_name": "Ones", "config": {"dtype": "float32"}}, "moving_mean_initializer": {"class_name": "Zeros", "config": {"dtype": "float32"}}, "moving_variance_initializer": {"class_name": "Ones", "config": {"dtype": "float32"}}, "beta_regularizer": null, "gamma_regularizer": null, "beta_constraint": null, "gamma_constraint": null}, "inbound_nodes": [[["res3A_branch2c", 0, 0, {}]]]}, {"name": "activation_880", "class_name": "Activation", "config": {"name": "activation_880", "trainable": true, "dtype": "float32", "activation": "relu"}, "inbound_nodes": [[["bn3A_branch3sha", 0, 0, {}]]]}, {"name": "activation_879", "class_name": "Activation", "config": {"name": "activation_879", "trainable": true, "dtype": "float32", "activation": "relu"}, "inbound_nodes": [[["bn3A_branch2shb", 0, 0, {}]]]}, {"name": "activation_883", "class_name": "Activation", "config": {"name": "activation_883", "trainable": true, "dtype": "float32", "activation": "relu"}, "inbound_nodes": [[["bn3A_branch5sha", 0, 0, {}]]]}, {"name": "add_184", "class_name": "Add", "config": {"name": "add_184", "trainable": true, "dtype": "float32"}, "inbound_nodes": [[["bn3A_branch2c", 0, 0, {}], ["activation_880", 0, 0, {}], ["activation_879", 0, 0, {}], ["activation_882", 0, 0, {}], ["activation_883", 0, 0, {}]]]}, {"name": "activation_884", "class_name": "Activation", "config": {"name": "activation_884", "trainable": true, "dtype": "float32", "activation": "relu"}, "inbound_nodes": [[["add_184", 0, 0, {}]]]}, {"name": "res3a_branch2a", "class_name": "Conv1D", "config": {"name": "res3a_branch2a", "trainable": true, "batch_input_shape": [null, null, 1250, 64], "dtype": "float32", "filters": 32, "kernel_size": [7], "strides": [2], "padding": "same", "data_format": "channels_last", "dilation_rate": [1], "activation": "linear", "use_bias": true, "kernel_initializer": {"class_name": "VarianceScaling", "config": {"scale": 2.0, "mode": "fan_in", "distribution": "truncated_normal", "seed": 0, "dtype": "float32"}}, "bias_initializer": {"class_name": "Zeros", "config": {"dtype": "float32"}}, "kernel_regularizer": null, "bias_regularizer": null, "activity_regularizer": null, "kernel_constraint": null, "bias_constraint": null}, "inbound_nodes": [[["activation_884", 0, 0, {}]]]}, {"name": "bn3a_branch2a", "class_name": "BatchNormalization", "config": {"name": "bn3a_branch2a", "trainable": true, "dtype": "float32", "axis": [2], "momentum": 0.99, "epsilon": 0.001, "center": true, "scale": true, "beta_initializer": {"class_name": "Zeros", "config": {"dtype": "float32"}}, "gamma_initializer": {"class_name": "Ones", "config": {"dtype": "float32"}}, "moving_mean_initializer": {"class_name": "Zeros", "config": {"dtype": "float32"}}, "moving_variance_initializer": {"class_name": "Ones", "config": {"dtype": "float32"}}, "beta_regularizer": null, "gamma_regularizer": null, "beta_constraint": null, "gamma_constraint": null}, "inbound_nodes": [[["res3a_branch2a", 0, 0, {}]]]}, {"name": "activation_885", "class_name": "Activation", "config": {"name": "activation_885", "trainable": true, "dtype": "float32", "activation": "relu"}, "inbound_nodes": [[["bn3a_branch2a", 0, 0, {}]]]}, {"name": "dropout_431", "class_name": "Dropout", "config": {"name": "dropout_431", "trainable": true, "dtype": "float32", "rate": 0.3, "noise_shape": null, "seed": null}, "inbound_nodes": [[["activation_885", 0, 0, {}]]]}, {"name": "res3a_branch2b", "class_name": "Conv1D", "config": {"name": "res3a_branch2b", "trainable": true, "dtype": "float32", "filters": 32, "kernel_size": [7], "strides": [1], "padding": "same", "data_format": "channels_last", "dilation_rate": [1], "activation": "linear", "use_bias": true, "kernel_initializer": {"class_name": "VarianceScaling", "config": {"scale": 2.0, "mode": "fan_in", "distribution": "truncated_normal", "seed": 0, "dtype": "float32"}}, "bias_initializer": {"class_name": "Zeros", "config": {"dtype": "float32"}}, "kernel_regularizer": null, "bias_regularizer": null, "activity_regularizer": null, "kernel_constraint": null, "bias_constraint": null}, "inbound_nodes": [[["dropout_431", 0, 0, {}]]]}, {"name": "activation_886", "class_name": "Activation", "config": {"name": "activation_886", "trainable": true, "dtype": "float32", "activation": "relu"}, "inbound_nodes": [[["res3a_branch2b", 0, 0, {}]]]}, {"name": "dropout_432", "class_name": "Dropout", "config": {"name": "dropout_432", "trainable": true, "dtype": "float32", "rate": 0.3, "noise_shape": null, "seed": null}, "inbound_nodes": [[["activation_886", 0, 0, {}]]]}, {"name": "res3a_branch2c", "class_name": "Conv1D", "config": {"name": "res3a_branch2c", "trainable": true, "dtype": "float32", "filters": 64, "kernel_size": [1], "strides": [1], "padding": "same", "data_format": "channels_last", "dilation_rate": [1], "activation": "linear", "use_bias": true, "kernel_initializer": {"class_name": "VarianceScaling", "config": {"scale": 2.0, "mode": "fan_in", "distribution": "truncated_normal", "seed": 0, "dtype": "float32"}}, "bias_initializer": {"class_name": "Zeros", "config": {"dtype": "float32"}}, "kernel_regularizer": null, "bias_regularizer": null, "activity_regularizer": null, "kernel_constraint": null, "bias_constraint": null}, "inbound_nodes": [[["dropout_432", 0, 0, {}]]]}, {"name": "bn3a_branch2c", "class_name": "BatchNormalization", "config": {"name": "bn3a_branch2c", "trainable": true, "dtype": "float32", "axis": [2], "momentum": 0.99, "epsilon": 0.001, "center": true, "scale": true, "beta_initializer": {"class_name": "Zeros", "config": {"dtype": "float32"}}, "gamma_initializer": {"class_name": "Ones", "config": {"dtype": "float32"}}, "moving_mean_initializer": {"class_name": "Zeros", "config": {"dtype": "float32"}}, "moving_variance_initializer": {"class_name": "Ones", "config": {"dtype": "float32"}}, "beta_regularizer": null, "gamma_regularizer": null, "beta_constraint": null, "gamma_constraint": null}, "inbound_nodes": [[["res3a_branch2c", 0, 0, {}]]]}, {"name": "activation_887", "class_name": "Activation", "config": {"name": "activation_887", "trainable": true, "dtype": "float32", "activation": "relu"}, "inbound_nodes": [[["bn3a_branch2c", 0, 0, {}]]]}, {"name": "res3a_branch1", "class_name": "Conv1D", "config": {"name": "res3a_branch1", "trainable": true, "dtype": "float32", "filters": 64, "kernel_size": [1], "strides": [2], "padding": "same", "data_format": "channels_last", "dilation_rate": [1], "activation": "linear", "use_bias": true, "kernel_initializer": {"class_name": "VarianceScaling", "config": {"scale": 2.0, "mode": "fan_in", "distribution": "truncated_normal", "seed": 0, "dtype": "float32"}}, "bias_initializer": {"class_name": "Zeros", "config": {"dtype": "float32"}}, "kernel_regularizer": null, "bias_regularizer": null, "activity_regularizer": null, "kernel_constraint": null, "bias_constraint": null}, "inbound_nodes": [[["activation_884", 0, 0, {}]]]}, {"name": "dropout_433", "class_name": "Dropout", "config": {"name": "dropout_433", "trainable": true, "dtype": "float32", "rate": 0.3, "noise_shape": null, "seed": null}, "inbound_nodes": [[["activation_887", 0, 0, {}]]]}, {"name": "bn3a_branch1", "class_name": "BatchNormalization", "config": {"name": "bn3a_branch1", "trainable": true, "dtype": "float32", "axis": [2], "momentum": 0.99, "epsilon": 0.001, "center": true, "scale": true, "beta_initializer": {"class_name": "Zeros", "config": {"dtype": "float32"}}, "gamma_initializer": {"class_name": "Ones", "config": {"dtype": "float32"}}, "moving_mean_initializer": {"class_name": "Zeros", "config": {"dtype": "float32"}}, "moving_variance_initializer": {"class_name": "Ones", "config": {"dtype": "float32"}}, "beta_regularizer": null, "gamma_regularizer": null, "beta_constraint": null, "gamma_constraint": null}, "inbound_nodes": [[["res3a_branch1", 0, 0, {}]]]}, {"name": "add_185", "class_name": "Add", "config": {"name": "add_185", "trainable": true, "dtype": "float32"}, "inbound_nodes": [[["dropout_433", 0, 0, {}], ["bn3a_branch1", 0, 0, {}]]]}, {"name": "activation_888", "class_name": "Activation", "config": {"name": "activation_888", "trainable": true, "dtype": "float32", "activation": "relu"}, "inbound_nodes": [[["add_185", 0, 0, {}]]]}, {"name": "res4A_branch2a", "class_name": "Conv1D", "config": {"name": "res4A_branch2a", "trainable": true, "batch_input_shape": [null, null, 625, 64], "dtype": "float32", "filters": 64, "kernel_size": [1], "strides": [1], "padding": "same", "data_format": "channels_last", "dilation_rate": [1], "activation": "linear", "use_bias": true, "kernel_initializer": {"class_name": "VarianceScaling", "config": {"scale": 2.0, "mode": "fan_in", "distribution": "truncated_normal", "seed": 0, "dtype": "float32"}}, "bias_initializer": {"class_name": "Zeros", "config": {"dtype": "float32"}}, "kernel_regularizer": null, "bias_regularizer": null, "activity_regularizer": null, "kernel_constraint": null, "bias_constraint": null}, "inbound_nodes": [[["activation_888", 0, 0, {}]]]}, {"name": "bn4A_branch2a", "class_name": "BatchNormalization", "config": {"name": "bn4A_branch2a", "trainable": true, "dtype": "float32", "axis": [2], "momentum": 0.99, "epsilon": 0.001, "center": true, "scale": true, "beta_initializer": {"class_name": "Zeros", "config": {"dtype": "float32"}}, "gamma_initializer": {"class_name": "Ones", "config": {"dtype": "float32"}}, "moving_mean_initializer": {"class_name": "Zeros", "config": {"dtype": "float32"}}, "moving_variance_initializer": {"class_name": "Ones", "config": {"dtype": "float32"}}, "beta_regularizer": null, "gamma_regularizer": null, "beta_constraint": null, "gamma_constraint": null}, "inbound_nodes": [[["res4A_branch2a", 0, 0, {}]]]}, {"name": "activation_889", "class_name": "Activation", "config": {"name": "activation_889", "trainable": true, "dtype": "float32", "activation": "relu"}, "inbound_nodes": [[["bn4A_branch2a", 0, 0, {}]]]}, {"name": "dropout_434", "class_name": "Dropout", "config": {"name": "dropout_434", "trainable": true, "dtype": "float32", "rate": 0.25, "noise_shape": null, "seed": null}, "inbound_nodes": [[["activation_889", 0, 0, {}]]]}, {"name": "res4A_branch1", "class_name": "Conv1D", "config": {"name": "res4A_branch1", "trainable": true, "dtype": "float32", "filters": 64, "kernel_size": [5], "strides": [1], "padding": "same", "data_format": "channels_last", "dilation_rate": [1], "activation": "linear", "use_bias": true, "kernel_initializer": {"class_name": "VarianceScaling", "config": {"scale": 2.0, "mode": "fan_in", "distribution": "truncated_normal", "seed": 0, "dtype": "float32"}}, "bias_initializer": {"class_name": "Zeros", "config": {"dtype": "float32"}}, "kernel_regularizer": null, "bias_regularizer": null, "activity_regularizer": null, "kernel_constraint": null, "bias_constraint": null}, "inbound_nodes": [[["activation_888", 0, 0, {}]]]}, {"name": "bn4A_branch1", "class_name": "BatchNormalization", "config": {"name": "bn4A_branch1", "trainable": true, "dtype": "float32", "axis": [2], "momentum": 0.99, "epsilon": 0.001, "center": true, "scale": true, "beta_initializer": {"class_name": "Zeros", "config": {"dtype": "float32"}}, "gamma_initializer": {"class_name": "Ones", "config": {"dtype": "float32"}}, "moving_mean_initializer": {"class_name": "Zeros", "config": {"dtype": "float32"}}, "moving_variance_initializer": {"class_name": "Ones", "config": {"dtype": "float32"}}, "beta_regularizer": null, "gamma_regularizer": null, "beta_constraint": null, "gamma_constraint": null}, "inbound_nodes": [[["res4A_branch1", 0, 0, {}]]]}, {"name": "res4A_branch4sha", "class_name": "Conv1D", "config": {"name": "res4A_branch4sha", "trainable": true, "dtype": "float32", "filters": 64, "kernel_size": [5], "strides": [1], "padding": "same", "data_format": "channels_last", "dilation_rate": [1], "activation": "linear", "use_bias": true, "kernel_initializer": {"class_name": "VarianceScaling", "config": {"scale": 2.0, "mode": "fan_in", "distribution": "truncated_normal", "seed": 0, "dtype": "float32"}}, "bias_initializer": {"class_name": "Zeros", "config": {"dtype": "float32"}}, "kernel_regularizer": null, "bias_regularizer": null, "activity_regularizer": null, "kernel_constraint": null, "bias_constraint": null}, "inbound_nodes": [[["dropout_434", 0, 0, {}]]]}, {"name": "activation_891", "class_name": "Activation", "config": {"name": "activation_891", "trainable": true, "dtype": "float32", "activation": "relu"}, "inbound_nodes": [[["bn4A_branch1", 0, 0, {}]]]}, {"name": "bn4A_branch4sha", "class_name": "BatchNormalization", "config": {"name": "bn4A_branch4sha", "trainable": true, "dtype": "float32", "axis": [2], "momentum": 0.99, "epsilon": 0.001, "center": true, "scale": true, "beta_initializer": {"class_name": "Zeros", "config": {"dtype": "float32"}}, "gamma_initializer": {"class_name": "Ones", "config": {"dtype": "float32"}}, "moving_mean_initializer": {"class_name": "Zeros", "config": {"dtype": "float32"}}, "moving_variance_initializer": {"class_name": "Ones", "config": {"dtype": "float32"}}, "beta_regularizer": null, "gamma_regularizer": null, "beta_constraint": null, "gamma_constraint": null}, "inbound_nodes": [[["res4A_branch4sha", 0, 0, {}]]]}, {"name": "res4A_branch2sha", "class_name": "Conv1D", "config": {"name": "res4A_branch2sha", "trainable": true, "dtype": "float32", "filters": 64, "kernel_size": [5], "strides": [1], "padding": "same", "data_format": "channels_last", "dilation_rate": [1], "activation": "linear", "use_bias": true, "kernel_initializer": {"class_name": "VarianceScaling", "config": {"scale": 2.0, "mode": "fan_in", "distribution": "truncated_normal", "seed": 0, "dtype": "float32"}}, "bias_initializer": {"class_name": "Zeros", "config": {"dtype": "float32"}}, "kernel_regularizer": null, "bias_regularizer": null, "activity_regularizer": null, "kernel_constraint": null, "bias_constraint": null}, "inbound_nodes": [[["activation_891", 0, 0, {}]]]}, {"name": "activation_895", "class_name": "Activation", "config": {"name": "activation_895", "trainable": true, "dtype": "float32", "activation": "relu"}, "inbound_nodes": [[["bn4A_branch4sha", 0, 0, {}]]]}, {"name": "res4A_branch2b", "class_name": "Conv1D", "config": {"name": "res4A_branch2b", "trainable": true, "dtype": "float32", "filters": 64, "kernel_size": [5], "strides": [1], "padding": "same", "data_format": "channels_last", "dilation_rate": [1], "activation": "linear", "use_bias": true, "kernel_initializer": {"class_name": "VarianceScaling", "config": {"scale": 2.0, "mode": "fan_in", "distribution": "truncated_normal", "seed": 0, "dtype": "float32"}}, "bias_initializer": {"class_name": "Zeros", "config": {"dtype": "float32"}}, "kernel_regularizer": null, "bias_regularizer": null, "activity_regularizer": null, "kernel_constraint": null, "bias_constraint": null}, "inbound_nodes": [[["dropout_434", 0, 0, {}]]]}, {"name": "bn4A_branch2sha", "class_name": "BatchNormalization", "config": {"name": "bn4A_branch2sha", "trainable": true, "dtype": "float32", "axis": [2], "momentum": 0.99, "epsilon": 0.001, "center": true, "scale": true, "beta_initializer": {"class_name": "Zeros", "config": {"dtype": "float32"}}, "gamma_initializer": {"class_name": "Ones", "config": {"dtype": "float32"}}, "moving_mean_initializer": {"class_name": "Zeros", "config": {"dtype": "float32"}}, "moving_variance_initializer": {"class_name": "Ones", "config": {"dtype": "float32"}}, "beta_regularizer": null, "gamma_regularizer": null, "beta_constraint": null, "gamma_constraint": null}, "inbound_nodes": [[["res4A_branch2sha", 0, 0, {}]]]}, {"name": "dropout_437", "class_name": "Dropout", "config": {"name": "dropout_437", "trainable": true, "dtype": "float32", "rate": 0.15, "noise_shape": null, "seed": null}, "inbound_nodes": [[["activation_895", 0, 0, {}]]]}, {"name": "bn4A_branch2b", "class_name": "BatchNormalization", "config": {"name": "bn4A_branch2b", "trainable": true, "dtype": "float32", "axis": [2], "momentum": 0.99, "epsilon": 0.001, "center": true, "scale": true, "beta_initializer": {"class_name": "Zeros", "config": {"dtype": "float32"}}, "gamma_initializer": {"class_name": "Ones", "config": {"dtype": "float32"}}, "moving_mean_initializer": {"class_name": "Zeros", "config": {"dtype": "float32"}}, "moving_variance_initializer": {"class_name": "Ones", "config": {"dtype": "float32"}}, "beta_regularizer": null, "gamma_regularizer": null, "beta_constraint": null, "gamma_constraint": null}, "inbound_nodes": [[["res4A_branch2b", 0, 0, {}]]]}, {"name": "activation_892", "class_name": "Activation", "config": {"name": "activation_892", "trainable": true, "dtype": "float32", "activation": "relu"}, "inbound_nodes": [[["bn4A_branch2sha", 0, 0, {}]]]}, {"name": "res4A_branch4shb", "class_name": "Conv1D", "config": {"name": "res4A_branch4shb", "trainable": true, "dtype": "float32", "filters": 128, "kernel_size": [5], "strides": [1], "padding": "same", "data_format": "channels_last", "dilation_rate": [1], "activation": "linear", "use_bias": true, "kernel_initializer": {"class_name": "VarianceScaling", "config": {"scale": 2.0, "mode": "fan_in", "distribution": "truncated_normal", "seed": 0, "dtype": "float32"}}, "bias_initializer": {"class_name": "Zeros", "config": {"dtype": "float32"}}, "kernel_regularizer": null, "bias_regularizer": null, "activity_regularizer": null, "kernel_constraint": null, "bias_constraint": null}, "inbound_nodes": [[["dropout_437", 0, 0, {}]]]}, {"name": "activation_890", "class_name": "Activation", "config": {"name": "activation_890", "trainable": true, "dtype": "float32", "activation": "relu"}, "inbound_nodes": [[["bn4A_branch2b", 0, 0, {}]]]}, {"name": "add_186", "class_name": "Add", "config": {"name": "add_186", "trainable": true, "dtype": "float32"}, "inbound_nodes": [[["activation_891", 0, 0, {}], ["activation_888", 0, 0, {}]]]}, {"name": "dropout_436", "class_name": "Dropout", "config": {"name": "dropout_436", "trainable": true, "dtype": "float32", "rate": 0.15, "noise_shape": null, "seed": null}, "inbound_nodes": [[["activation_892", 0, 0, {}]]]}, {"name": "bn4A_branch4shb", "class_name": "BatchNormalization", "config": {"name": "bn4A_branch4shb", "trainable": true, "dtype": "float32", "axis": [2], "momentum": 0.99, "epsilon": 0.001, "center": true, "scale": true, "beta_initializer": {"class_name": "Zeros", "config": {"dtype": "float32"}}, "gamma_initializer": {"class_name": "Ones", "config": {"dtype": "float32"}}, "moving_mean_initializer": {"class_name": "Zeros", "config": {"dtype": "float32"}}, "moving_variance_initializer": {"class_name": "Ones", "config": {"dtype": "float32"}}, "beta_regularizer": null, "gamma_regularizer": null, "beta_constraint": null, "gamma_constraint": null}, "inbound_nodes": [[["res4A_branch4shb", 0, 0, {}]]]}, {"name": "dropout_435", "class_name": "Dropout", "config": {"name": "dropout_435", "trainable": true, "dtype": "float32", "rate": 0.15, "noise_shape": null, "seed": null}, "inbound_nodes": [[["activation_890", 0, 0, {}]]]}, {"name": "res4A_branch3sha", "class_name": "Conv1D", "config": {"name": "res4A_branch3sha", "trainable": true, "dtype": "float32", "filters": 128, "kernel_size": [5], "strides": [1], "padding": "same", "data_format": "channels_last", "dilation_rate": [1], "activation": "linear", "use_bias": true, "kernel_initializer": {"class_name": "VarianceScaling", "config": {"scale": 2.0, "mode": "fan_in", "distribution": "truncated_normal", "seed": 0, "dtype": "float32"}}, "bias_initializer": {"class_name": "Zeros", "config": {"dtype": "float32"}}, "kernel_regularizer": null, "bias_regularizer": null, "activity_regularizer": null, "kernel_constraint": null, "bias_constraint": null}, "inbound_nodes": [[["add_186", 0, 0, {}]]]}, {"name": "res4A_branch2shb", "class_name": "Conv1D", "config": {"name": "res4A_branch2shb", "trainable": true, "dtype": "float32", "filters": 128, "kernel_size": [5], "strides": [1], "padding": "same", "data_format": "channels_last", "dilation_rate": [1], "activation": "linear", "use_bias": true, "kernel_initializer": {"class_name": "VarianceScaling", "config": {"scale": 2.0, "mode": "fan_in", "distribution": "truncated_normal", "seed": 0, "dtype": "float32"}}, "bias_initializer": {"class_name": "Zeros", "config": {"dtype": "float32"}}, "kernel_regularizer": null, "bias_regularizer": null, "activity_regularizer": null, "kernel_constraint": null, "bias_constraint": null}, "inbound_nodes": [[["dropout_436", 0, 0, {}]]]}, {"name": "activation_896", "class_name": "Activation", "config": {"name": "activation_896", "trainable": true, "dtype": "float32", "activation": "relu"}, "inbound_nodes": [[["bn4A_branch4shb", 0, 0, {}]]]}, {"name": "res4A_branch2c", "class_name": "Conv1D", "config": {"name": "res4A_branch2c", "trainable": true, "dtype": "float32", "filters": 128, "kernel_size": [1], "strides": [1], "padding": "same", "data_format": "channels_last", "dilation_rate": [1], "activation": "linear", "use_bias": true, "kernel_initializer": {"class_name": "VarianceScaling", "config": {"scale": 2.0, "mode": "fan_in", "distribution": "truncated_normal", "seed": 0, "dtype": "float32"}}, "bias_initializer": {"class_name": "Zeros", "config": {"dtype": "float32"}}, "kernel_regularizer": null, "bias_regularizer": null, "activity_regularizer": null, "kernel_constraint": null, "bias_constraint": null}, "inbound_nodes": [[["dropout_435", 0, 0, {}]]]}, {"name": "bn4A_branch3sha", "class_name": "BatchNormalization", "config": {"name": "bn4A_branch3sha", "trainable": true, "dtype": "float32", "axis": [2], "momentum": 0.99, "epsilon": 0.001, "center": true, "scale": true, "beta_initializer": {"class_name": "Zeros", "config": {"dtype": "float32"}}, "gamma_initializer": {"class_name": "Ones", "config": {"dtype": "float32"}}, "moving_mean_initializer": {"class_name": "Zeros", "config": {"dtype": "float32"}}, "moving_variance_initializer": {"class_name": "Ones", "config": {"dtype": "float32"}}, "beta_regularizer": null, "gamma_regularizer": null, "beta_constraint": null, "gamma_constraint": null}, "inbound_nodes": [[["res4A_branch3sha", 0, 0, {}]]]}, {"name": "bn4A_branch2shb", "class_name": "BatchNormalization", "config": {"name": "bn4A_branch2shb", "trainable": true, "dtype": "float32", "axis": [2], "momentum": 0.99, "epsilon": 0.001, "center": true, "scale": true, "beta_initializer": {"class_name": "Zeros", "config": {"dtype": "float32"}}, "gamma_initializer": {"class_name": "Ones", "config": {"dtype": "float32"}}, "moving_mean_initializer": {"class_name": "Zeros", "config": {"dtype": "float32"}}, "moving_variance_initializer": {"class_name": "Ones", "config": {"dtype": "float32"}}, "beta_regularizer": null, "gamma_regularizer": null, "beta_constraint": null, "gamma_constraint": null}, "inbound_nodes": [[["res4A_branch2shb", 0, 0, {}]]]}, {"name": "bn4A_branch5sha", "class_name": "BatchNormalization", "config": {"name": "bn4A_branch5sha", "trainable": true, "dtype": "float32", "axis": [2], "momentum": 0.99, "epsilon": 0.001, "center": true, "scale": true, "beta_initializer": {"class_name": "Zeros", "config": {"dtype": "float32"}}, "gamma_initializer": {"class_name": "Ones", "config": {"dtype": "float32"}}, "moving_mean_initializer": {"class_name": "Zeros", "config": {"dtype": "float32"}}, "moving_variance_initializer": {"class_name": "Ones", "config": {"dtype": "float32"}}, "beta_regularizer": null, "gamma_regularizer": null, "beta_constraint": null, "gamma_constraint": null}, "inbound_nodes": [[["activation_896", 0, 0, {}]]]}, {"name": "bn4A_branch2c", "class_name": "BatchNormalization", "config": {"name": "bn4A_branch2c", "trainable": true, "dtype": "float32", "axis": [2], "momentum": 0.99, "epsilon": 0.001, "center": true, "scale": true, "beta_initializer": {"class_name": "Zeros", "config": {"dtype": "float32"}}, "gamma_initializer": {"class_name": "Ones", "config": {"dtype": "float32"}}, "moving_mean_initializer": {"class_name": "Zeros", "config": {"dtype": "float32"}}, "moving_variance_initializer": {"class_name": "Ones", "config": {"dtype": "float32"}}, "beta_regularizer": null, "gamma_regularizer": null, "beta_constraint": null, "gamma_constraint": null}, "inbound_nodes": [[["res4A_branch2c", 0, 0, {}]]]}, {"name": "activation_894", "class_name": "Activation", "config": {"name": "activation_894", "trainable": true, "dtype": "float32", "activation": "relu"}, "inbound_nodes": [[["bn4A_branch3sha", 0, 0, {}]]]}, {"name": "activation_893", "class_name": "Activation", "config": {"name": "activation_893", "trainable": true, "dtype": "float32", "activation": "relu"}, "inbound_nodes": [[["bn4A_branch2shb", 0, 0, {}]]]}, {"name": "activation_897", "class_name": "Activation", "config": {"name": "activation_897", "trainable": true, "dtype": "float32", "activation": "relu"}, "inbound_nodes": [[["bn4A_branch5sha", 0, 0, {}]]]}, {"name": "add_187", "class_name": "Add", "config": {"name": "add_187", "trainable": true, "dtype": "float32"}, "inbound_nodes": [[["bn4A_branch2c", 0, 0, {}], ["activation_894", 0, 0, {}], ["activation_893", 0, 0, {}], ["activation_896", 0, 0, {}], ["activation_897", 0, 0, {}]]]}, {"name": "activation_898", "class_name": "Activation", "config": {"name": "activation_898", "trainable": true, "dtype": "float32", "activation": "relu"}, "inbound_nodes": [[["add_187", 0, 0, {}]]]}, {"name": "res4a_branch2a", "class_name": "Conv1D", "config": {"name": "res4a_branch2a", "trainable": true, "batch_input_shape": [null, null, 625, 128], "dtype": "float32", "filters": 64, "kernel_size": [5], "strides": [2], "padding": "same", "data_format": "channels_last", "dilation_rate": [1], "activation": "linear", "use_bias": true, "kernel_initializer": {"class_name": "VarianceScaling", "config": {"scale": 2.0, "mode": "fan_in", "distribution": "truncated_normal", "seed": 0, "dtype": "float32"}}, "bias_initializer": {"class_name": "Zeros", "config": {"dtype": "float32"}}, "kernel_regularizer": null, "bias_regularizer": null, "activity_regularizer": null, "kernel_constraint": null, "bias_constraint": null}, "inbound_nodes": [[["activation_898", 0, 0, {}]]]}, {"name": "bn4a_branch2a", "class_name": "BatchNormalization", "config": {"name": "bn4a_branch2a", "trainable": true, "dtype": "float32", "axis": [2], "momentum": 0.99, "epsilon": 0.001, "center": true, "scale": true, "beta_initializer": {"class_name": "Zeros", "config": {"dtype": "float32"}}, "gamma_initializer": {"class_name": "Ones", "config": {"dtype": "float32"}}, "moving_mean_initializer": {"class_name": "Zeros", "config": {"dtype": "float32"}}, "moving_variance_initializer": {"class_name": "Ones", "config": {"dtype": "float32"}}, "beta_regularizer": null, "gamma_regularizer": null, "beta_constraint": null, "gamma_constraint": null}, "inbound_nodes": [[["res4a_branch2a", 0, 0, {}]]]}, {"name": "activation_899", "class_name": "Activation", "config": {"name": "activation_899", "trainable": true, "dtype": "float32", "activation": "relu"}, "inbound_nodes": [[["bn4a_branch2a", 0, 0, {}]]]}, {"name": "dropout_438", "class_name": "Dropout", "config": {"name": "dropout_438", "trainable": true, "dtype": "float32", "rate": 0.3, "noise_shape": null, "seed": null}, "inbound_nodes": [[["activation_899", 0, 0, {}]]]}, {"name": "res4a_branch2b", "class_name": "Conv1D", "config": {"name": "res4a_branch2b", "trainable": true, "dtype": "float32", "filters": 64, "kernel_size": [5], "strides": [1], "padding": "same", "data_format": "channels_last", "dilation_rate": [1], "activation": "linear", "use_bias": true, "kernel_initializer": {"class_name": "VarianceScaling", "config": {"scale": 2.0, "mode": "fan_in", "distribution": "truncated_normal", "seed": 0, "dtype": "float32"}}, "bias_initializer": {"class_name": "Zeros", "config": {"dtype": "float32"}}, "kernel_regularizer": null, "bias_regularizer": null, "activity_regularizer": null, "kernel_constraint": null, "bias_constraint": null}, "inbound_nodes": [[["dropout_438", 0, 0, {}]]]}, {"name": "activation_900", "class_name": "Activation", "config": {"name": "activation_900", "trainable": true, "dtype": "float32", "activation": "relu"}, "inbound_nodes": [[["res4a_branch2b", 0, 0, {}]]]}, {"name": "dropout_439", "class_name": "Dropout", "config": {"name": "dropout_439", "trainable": true, "dtype": "float32", "rate": 0.3, "noise_shape": null, "seed": null}, "inbound_nodes": [[["activation_900", 0, 0, {}]]]}, {"name": "res4a_branch2c", "class_name": "Conv1D", "config": {"name": "res4a_branch2c", "trainable": true, "dtype": "float32", "filters": 128, "kernel_size": [1], "strides": [1], "padding": "same", "data_format": "channels_last", "dilation_rate": [1], "activation": "linear", "use_bias": true, "kernel_initializer": {"class_name": "VarianceScaling", "config": {"scale": 2.0, "mode": "fan_in", "distribution": "truncated_normal", "seed": 0, "dtype": "float32"}}, "bias_initializer": {"class_name": "Zeros", "config": {"dtype": "float32"}}, "kernel_regularizer": null, "bias_regularizer": null, "activity_regularizer": null, "kernel_constraint": null, "bias_constraint": null}, "inbound_nodes": [[["dropout_439", 0, 0, {}]]]}, {"name": "bn4a_branch2c", "class_name": "BatchNormalization", "config": {"name": "bn4a_branch2c", "trainable": true, "dtype": "float32", "axis": [2], "momentum": 0.99, "epsilon": 0.001, "center": true, "scale": true, "beta_initializer": {"class_name": "Zeros", "config": {"dtype": "float32"}}, "gamma_initializer": {"class_name": "Ones", "config": {"dtype": "float32"}}, "moving_mean_initializer": {"class_name": "Zeros", "config": {"dtype": "float32"}}, "moving_variance_initializer": {"class_name": "Ones", "config": {"dtype": "float32"}}, "beta_regularizer": null, "gamma_regularizer": null, "beta_constraint": null, "gamma_constraint": null}, "inbound_nodes": [[["res4a_branch2c", 0, 0, {}]]]}, {"name": "activation_901", "class_name": "Activation", "config": {"name": "activation_901", "trainable": true, "dtype": "float32", "activation": "relu"}, "inbound_nodes": [[["bn4a_branch2c", 0, 0, {}]]]}, {"name": "res4a_branch1", "class_name": "Conv1D", "config": {"name": "res4a_branch1", "trainable": true, "dtype": "float32", "filters": 128, "kernel_size": [1], "strides": [2], "padding": "same", "data_format": "channels_last", "dilation_rate": [1], "activation": "linear", "use_bias": true, "kernel_initializer": {"class_name": "VarianceScaling", "config": {"scale": 2.0, "mode": "fan_in", "distribution": "truncated_normal", "seed": 0, "dtype": "float32"}}, "bias_initializer": {"class_name": "Zeros", "config": {"dtype": "float32"}}, "kernel_regularizer": null, "bias_regularizer": null, "activity_regularizer": null, "kernel_constraint": null, "bias_constraint": null}, "inbound_nodes": [[["activation_898", 0, 0, {}]]]}, {"name": "dropout_440", "class_name": "Dropout", "config": {"name": "dropout_440", "trainable": true, "dtype": "float32", "rate": 0.3, "noise_shape": null, "seed": null}, "inbound_nodes": [[["activation_901", 0, 0, {}]]]}, {"name": "bn4a_branch1", "class_name": "BatchNormalization", "config": {"name": "bn4a_branch1", "trainable": true, "dtype": "float32", "axis": [2], "momentum": 0.99, "epsilon": 0.001, "center": true, "scale": true, "beta_initializer": {"class_name": "Zeros", "config": {"dtype": "float32"}}, "gamma_initializer": {"class_name": "Ones", "config": {"dtype": "float32"}}, "moving_mean_initializer": {"class_name": "Zeros", "config": {"dtype": "float32"}}, "moving_variance_initializer": {"class_name": "Ones", "config": {"dtype": "float32"}}, "beta_regularizer": null, "gamma_regularizer": null, "beta_constraint": null, "gamma_constraint": null}, "inbound_nodes": [[["res4a_branch1", 0, 0, {}]]]}, {"name": "add_188", "class_name": "Add", "config": {"name": "add_188", "trainable": true, "dtype": "float32"}, "inbound_nodes": [[["dropout_440", 0, 0, {}], ["bn4a_branch1", 0, 0, {}]]]}, {"name": "activation_902", "class_name": "Activation", "config": {"name": "activation_902", "trainable": true, "dtype": "float32", "activation": "relu"}, "inbound_nodes": [[["add_188", 0, 0, {}]]]}, {"name": "res5A_branch2a", "class_name": "Conv1D", "config": {"name": "res5A_branch2a", "trainable": true, "batch_input_shape": [null, null, 313, 128], "dtype": "float32", "filters": 128, "kernel_size": [1], "strides": [1], "padding": "same", "data_format": "channels_last", "dilation_rate": [1], "activation": "linear", "use_bias": true, "kernel_initializer": {"class_name": "VarianceScaling", "config": {"scale": 2.0, "mode": "fan_in", "distribution": "truncated_normal", "seed": 0, "dtype": "float32"}}, "bias_initializer": {"class_name": "Zeros", "config": {"dtype": "float32"}}, "kernel_regularizer": null, "bias_regularizer": null, "activity_regularizer": null, "kernel_constraint": null, "bias_constraint": null}, "inbound_nodes": [[["activation_902", 0, 0, {}]]]}, {"name": "bn5A_branch2a", "class_name": "BatchNormalization", "config": {"name": "bn5A_branch2a", "trainable": true, "dtype": "float32", "axis": [2], "momentum": 0.99, "epsilon": 0.001, "center": true, "scale": true, "beta_initializer": {"class_name": "Zeros", "config": {"dtype": "float32"}}, "gamma_initializer": {"class_name": "Ones", "config": {"dtype": "float32"}}, "moving_mean_initializer": {"class_name": "Zeros", "config": {"dtype": "float32"}}, "moving_variance_initializer": {"class_name": "Ones", "config": {"dtype": "float32"}}, "beta_regularizer": null, "gamma_regularizer": null, "beta_constraint": null, "gamma_constraint": null}, "inbound_nodes": [[["res5A_branch2a", 0, 0, {}]]]}, {"name": "activation_903", "class_name": "Activation", "config": {"name": "activation_903", "trainable": true, "dtype": "float32", "activation": "relu"}, "inbound_nodes": [[["bn5A_branch2a", 0, 0, {}]]]}, {"name": "dropout_441", "class_name": "Dropout", "config": {"name": "dropout_441", "trainable": true, "dtype": "float32", "rate": 0.25, "noise_shape": null, "seed": null}, "inbound_nodes": [[["activation_903", 0, 0, {}]]]}, {"name": "res5A_branch1", "class_name": "Conv1D", "config": {"name": "res5A_branch1", "trainable": true, "dtype": "float32", "filters": 128, "kernel_size": [3], "strides": [1], "padding": "same", "data_format": "channels_last", "dilation_rate": [1], "activation": "linear", "use_bias": true, "kernel_initializer": {"class_name": "VarianceScaling", "config": {"scale": 2.0, "mode": "fan_in", "distribution": "truncated_normal", "seed": 0, "dtype": "float32"}}, "bias_initializer": {"class_name": "Zeros", "config": {"dtype": "float32"}}, "kernel_regularizer": null, "bias_regularizer": null, "activity_regularizer": null, "kernel_constraint": null, "bias_constraint": null}, "inbound_nodes": [[["activation_902", 0, 0, {}]]]}, {"name": "bn5A_branch1", "class_name": "BatchNormalization", "config": {"name": "bn5A_branch1", "trainable": true, "dtype": "float32", "axis": [2], "momentum": 0.99, "epsilon": 0.001, "center": true, "scale": true, "beta_initializer": {"class_name": "Zeros", "config": {"dtype": "float32"}}, "gamma_initializer": {"class_name": "Ones", "config": {"dtype": "float32"}}, "moving_mean_initializer": {"class_name": "Zeros", "config": {"dtype": "float32"}}, "moving_variance_initializer": {"class_name": "Ones", "config": {"dtype": "float32"}}, "beta_regularizer": null, "gamma_regularizer": null, "beta_constraint": null, "gamma_constraint": null}, "inbound_nodes": [[["res5A_branch1", 0, 0, {}]]]}, {"name": "res5A_branch4sha", "class_name": "Conv1D", "config": {"name": "res5A_branch4sha", "trainable": true, "dtype": "float32", "filters": 128, "kernel_size": [3], "strides": [1], "padding": "same", "data_format": "channels_last", "dilation_rate": [1], "activation": "linear", "use_bias": true, "kernel_initializer": {"class_name": "VarianceScaling", "config": {"scale": 2.0, "mode": "fan_in", "distribution": "truncated_normal", "seed": 0, "dtype": "float32"}}, "bias_initializer": {"class_name": "Zeros", "config": {"dtype": "float32"}}, "kernel_regularizer": null, "bias_regularizer": null, "activity_regularizer": null, "kernel_constraint": null, "bias_constraint": null}, "inbound_nodes": [[["dropout_441", 0, 0, {}]]]}, {"name": "activation_905", "class_name": "Activation", "config": {"name": "activation_905", "trainable": true, "dtype": "float32", "activation": "relu"}, "inbound_nodes": [[["bn5A_branch1", 0, 0, {}]]]}, {"name": "bn5A_branch4sha", "class_name": "BatchNormalization", "config": {"name": "bn5A_branch4sha", "trainable": true, "dtype": "float32", "axis": [2], "momentum": 0.99, "epsilon": 0.001, "center": true, "scale": true, "beta_initializer": {"class_name": "Zeros", "config": {"dtype": "float32"}}, "gamma_initializer": {"class_name": "Ones", "config": {"dtype": "float32"}}, "moving_mean_initializer": {"class_name": "Zeros", "config": {"dtype": "float32"}}, "moving_variance_initializer": {"class_name": "Ones", "config": {"dtype": "float32"}}, "beta_regularizer": null, "gamma_regularizer": null, "beta_constraint": null, "gamma_constraint": null}, "inbound_nodes": [[["res5A_branch4sha", 0, 0, {}]]]}, {"name": "res5A_branch2sha", "class_name": "Conv1D", "config": {"name": "res5A_branch2sha", "trainable": true, "dtype": "float32", "filters": 128, "kernel_size": [3], "strides": [1], "padding": "same", "data_format": "channels_last", "dilation_rate": [1], "activation": "linear", "use_bias": true, "kernel_initializer": {"class_name": "VarianceScaling", "config": {"scale": 2.0, "mode": "fan_in", "distribution": "truncated_normal", "seed": 0, "dtype": "float32"}}, "bias_initializer": {"class_name": "Zeros", "config": {"dtype": "float32"}}, "kernel_regularizer": null, "bias_regularizer": null, "activity_regularizer": null, "kernel_constraint": null, "bias_constraint": null}, "inbound_nodes": [[["activation_905", 0, 0, {}]]]}, {"name": "activation_909", "class_name": "Activation", "config": {"name": "activation_909", "trainable": true, "dtype": "float32", "activation": "relu"}, "inbound_nodes": [[["bn5A_branch4sha", 0, 0, {}]]]}, {"name": "res5A_branch2b", "class_name": "Conv1D", "config": {"name": "res5A_branch2b", "trainable": true, "dtype": "float32", "filters": 128, "kernel_size": [3], "strides": [1], "padding": "same", "data_format": "channels_last", "dilation_rate": [1], "activation": "linear", "use_bias": true, "kernel_initializer": {"class_name": "VarianceScaling", "config": {"scale": 2.0, "mode": "fan_in", "distribution": "truncated_normal", "seed": 0, "dtype": "float32"}}, "bias_initializer": {"class_name": "Zeros", "config": {"dtype": "float32"}}, "kernel_regularizer": null, "bias_regularizer": null, "activity_regularizer": null, "kernel_constraint": null, "bias_constraint": null}, "inbound_nodes": [[["dropout_441", 0, 0, {}]]]}, {"name": "bn5A_branch2sha", "class_name": "BatchNormalization", "config": {"name": "bn5A_branch2sha", "trainable": true, "dtype": "float32", "axis": [2], "momentum": 0.99, "epsilon": 0.001, "center": true, "scale": true, "beta_initializer": {"class_name": "Zeros", "config": {"dtype": "float32"}}, "gamma_initializer": {"class_name": "Ones", "config": {"dtype": "float32"}}, "moving_mean_initializer": {"class_name": "Zeros", "config": {"dtype": "float32"}}, "moving_variance_initializer": {"class_name": "Ones", "config": {"dtype": "float32"}}, "beta_regularizer": null, "gamma_regularizer": null, "beta_constraint": null, "gamma_constraint": null}, "inbound_nodes": [[["res5A_branch2sha", 0, 0, {}]]]}, {"name": "dropout_444", "class_name": "Dropout", "config": {"name": "dropout_444", "trainable": true, "dtype": "float32", "rate": 0.15, "noise_shape": null, "seed": null}, "inbound_nodes": [[["activation_909", 0, 0, {}]]]}, {"name": "bn5A_branch2b", "class_name": "BatchNormalization", "config": {"name": "bn5A_branch2b", "trainable": true, "dtype": "float32", "axis": [2], "momentum": 0.99, "epsilon": 0.001, "center": true, "scale": true, "beta_initializer": {"class_name": "Zeros", "config": {"dtype": "float32"}}, "gamma_initializer": {"class_name": "Ones", "config": {"dtype": "float32"}}, "moving_mean_initializer": {"class_name": "Zeros", "config": {"dtype": "float32"}}, "moving_variance_initializer": {"class_name": "Ones", "config": {"dtype": "float32"}}, "beta_regularizer": null, "gamma_regularizer": null, "beta_constraint": null, "gamma_constraint": null}, "inbound_nodes": [[["res5A_branch2b", 0, 0, {}]]]}, {"name": "activation_906", "class_name": "Activation", "config": {"name": "activation_906", "trainable": true, "dtype": "float32", "activation": "relu"}, "inbound_nodes": [[["bn5A_branch2sha", 0, 0, {}]]]}, {"name": "res5A_branch4shb", "class_name": "Conv1D", "config": {"name": "res5A_branch4shb", "trainable": true, "dtype": "float32", "filters": 256, "kernel_size": [3], "strides": [1], "padding": "same", "data_format": "channels_last", "dilation_rate": [1], "activation": "linear", "use_bias": true, "kernel_initializer": {"class_name": "VarianceScaling", "config": {"scale": 2.0, "mode": "fan_in", "distribution": "truncated_normal", "seed": 0, "dtype": "float32"}}, "bias_initializer": {"class_name": "Zeros", "config": {"dtype": "float32"}}, "kernel_regularizer": null, "bias_regularizer": null, "activity_regularizer": null, "kernel_constraint": null, "bias_constraint": null}, "inbound_nodes": [[["dropout_444", 0, 0, {}]]]}, {"name": "activation_904", "class_name": "Activation", "config": {"name": "activation_904", "trainable": true, "dtype": "float32", "activation": "relu"}, "inbound_nodes": [[["bn5A_branch2b", 0, 0, {}]]]}, {"name": "add_189", "class_name": "Add", "config": {"name": "add_189", "trainable": true, "dtype": "float32"}, "inbound_nodes": [[["activation_905", 0, 0, {}], ["activation_902", 0, 0, {}]]]}, {"name": "dropout_443", "class_name": "Dropout", "config": {"name": "dropout_443", "trainable": true, "dtype": "float32", "rate": 0.15, "noise_shape": null, "seed": null}, "inbound_nodes": [[["activation_906", 0, 0, {}]]]}, {"name": "bn5A_branch4shb", "class_name": "BatchNormalization", "config": {"name": "bn5A_branch4shb", "trainable": true, "dtype": "float32", "axis": [2], "momentum": 0.99, "epsilon": 0.001, "center": true, "scale": true, "beta_initializer": {"class_name": "Zeros", "config": {"dtype": "float32"}}, "gamma_initializer": {"class_name": "Ones", "config": {"dtype": "float32"}}, "moving_mean_initializer": {"class_name": "Zeros", "config": {"dtype": "float32"}}, "moving_variance_initializer": {"class_name": "Ones", "config": {"dtype": "float32"}}, "beta_regularizer": null, "gamma_regularizer": null, "beta_constraint": null, "gamma_constraint": null}, "inbound_nodes": [[["res5A_branch4shb", 0, 0, {}]]]}, {"name": "dropout_442", "class_name": "Dropout", "config": {"name": "dropout_442", "trainable": true, "dtype": "float32", "rate": 0.15, "noise_shape": null, "seed": null}, "inbound_nodes": [[["activation_904", 0, 0, {}]]]}, {"name": "res5A_branch3sha", "class_name": "Conv1D", "config": {"name": "res5A_branch3sha", "trainable": true, "dtype": "float32", "filters": 256, "kernel_size": [3], "strides": [1], "padding": "same", "data_format": "channels_last", "dilation_rate": [1], "activation": "linear", "use_bias": true, "kernel_initializer": {"class_name": "VarianceScaling", "config": {"scale": 2.0, "mode": "fan_in", "distribution": "truncated_normal", "seed": 0, "dtype": "float32"}}, "bias_initializer": {"class_name": "Zeros", "config": {"dtype": "float32"}}, "kernel_regularizer": null, "bias_regularizer": null, "activity_regularizer": null, "kernel_constraint": null, "bias_constraint": null}, "inbound_nodes": [[["add_189", 0, 0, {}]]]}, {"name": "res5A_branch2shb", "class_name": "Conv1D", "config": {"name": "res5A_branch2shb", "trainable": true, "dtype": "float32", "filters": 256, "kernel_size": [3], "strides": [1], "padding": "same", "data_format": "channels_last", "dilation_rate": [1], "activation": "linear", "use_bias": true, "kernel_initializer": {"class_name": "VarianceScaling", "config": {"scale": 2.0, "mode": "fan_in", "distribution": "truncated_normal", "seed": 0, "dtype": "float32"}}, "bias_initializer": {"class_name": "Zeros", "config": {"dtype": "float32"}}, "kernel_regularizer": null, "bias_regularizer": null, "activity_regularizer": null, "kernel_constraint": null, "bias_constraint": null}, "inbound_nodes": [[["dropout_443", 0, 0, {}]]]}, {"name": "activation_910", "class_name": "Activation", "config": {"name": "activation_910", "trainable": true, "dtype": "float32", "activation": "relu"}, "inbound_nodes": [[["bn5A_branch4shb", 0, 0, {}]]]}, {"name": "res5A_branch2c", "class_name": "Conv1D", "config": {"name": "res5A_branch2c", "trainable": true, "dtype": "float32", "filters": 256, "kernel_size": [1], "strides": [1], "padding": "same", "data_format": "channels_last", "dilation_rate": [1], "activation": "linear", "use_bias": true, "kernel_initializer": {"class_name": "VarianceScaling", "config": {"scale": 2.0, "mode": "fan_in", "distribution": "truncated_normal", "seed": 0, "dtype": "float32"}}, "bias_initializer": {"class_name": "Zeros", "config": {"dtype": "float32"}}, "kernel_regularizer": null, "bias_regularizer": null, "activity_regularizer": null, "kernel_constraint": null, "bias_constraint": null}, "inbound_nodes": [[["dropout_442", 0, 0, {}]]]}, {"name": "bn5A_branch3sha", "class_name": "BatchNormalization", "config": {"name": "bn5A_branch3sha", "trainable": true, "dtype": "float32", "axis": [2], "momentum": 0.99, "epsilon": 0.001, "center": true, "scale": true, "beta_initializer": {"class_name": "Zeros", "config": {"dtype": "float32"}}, "gamma_initializer": {"class_name": "Ones", "config": {"dtype": "float32"}}, "moving_mean_initializer": {"class_name": "Zeros", "config": {"dtype": "float32"}}, "moving_variance_initializer": {"class_name": "Ones", "config": {"dtype": "float32"}}, "beta_regularizer": null, "gamma_regularizer": null, "beta_constraint": null, "gamma_constraint": null}, "inbound_nodes": [[["res5A_branch3sha", 0, 0, {}]]]}, {"name": "bn5A_branch2shb", "class_name": "BatchNormalization", "config": {"name": "bn5A_branch2shb", "trainable": true, "dtype": "float32", "axis": [2], "momentum": 0.99, "epsilon": 0.001, "center": true, "scale": true, "beta_initializer": {"class_name": "Zeros", "config": {"dtype": "float32"}}, "gamma_initializer": {"class_name": "Ones", "config": {"dtype": "float32"}}, "moving_mean_initializer": {"class_name": "Zeros", "config": {"dtype": "float32"}}, "moving_variance_initializer": {"class_name": "Ones", "config": {"dtype": "float32"}}, "beta_regularizer": null, "gamma_regularizer": null, "beta_constraint": null, "gamma_constraint": null}, "inbound_nodes": [[["res5A_branch2shb", 0, 0, {}]]]}, {"name": "bn5A_branch5sha", "class_name": "BatchNormalization", "config": {"name": "bn5A_branch5sha", "trainable": true, "dtype": "float32", "axis": [2], "momentum": 0.99, "epsilon": 0.001, "center": true, "scale": true, "beta_initializer": {"class_name": "Zeros", "config": {"dtype": "float32"}}, "gamma_initializer": {"class_name": "Ones", "config": {"dtype": "float32"}}, "moving_mean_initializer": {"class_name": "Zeros", "config": {"dtype": "float32"}}, "moving_variance_initializer": {"class_name": "Ones", "config": {"dtype": "float32"}}, "beta_regularizer": null, "gamma_regularizer": null, "beta_constraint": null, "gamma_constraint": null}, "inbound_nodes": [[["activation_910", 0, 0, {}]]]}, {"name": "bn5A_branch2c", "class_name": "BatchNormalization", "config": {"name": "bn5A_branch2c", "trainable": true, "dtype": "float32", "axis": [2], "momentum": 0.99, "epsilon": 0.001, "center": true, "scale": true, "beta_initializer": {"class_name": "Zeros", "config": {"dtype": "float32"}}, "gamma_initializer": {"class_name": "Ones", "config": {"dtype": "float32"}}, "moving_mean_initializer": {"class_name": "Zeros", "config": {"dtype": "float32"}}, "moving_variance_initializer": {"class_name": "Ones", "config": {"dtype": "float32"}}, "beta_regularizer": null, "gamma_regularizer": null, "beta_constraint": null, "gamma_constraint": null}, "inbound_nodes": [[["res5A_branch2c", 0, 0, {}]]]}, {"name": "activation_908", "class_name": "Activation", "config": {"name": "activation_908", "trainable": true, "dtype": "float32", "activation": "relu"}, "inbound_nodes": [[["bn5A_branch3sha", 0, 0, {}]]]}, {"name": "activation_907", "class_name": "Activation", "config": {"name": "activation_907", "trainable": true, "dtype": "float32", "activation": "relu"}, "inbound_nodes": [[["bn5A_branch2shb", 0, 0, {}]]]}, {"name": "activation_911", "class_name": "Activation", "config": {"name": "activation_911", "trainable": true, "dtype": "float32", "activation": "relu"}, "inbound_nodes": [[["bn5A_branch5sha", 0, 0, {}]]]}, {"name": "add_190", "class_name": "Add", "config": {"name": "add_190", "trainable": true, "dtype": "float32"}, "inbound_nodes": [[["bn5A_branch2c", 0, 0, {}], ["activation_908", 0, 0, {}], ["activation_907", 0, 0, {}], ["activation_910", 0, 0, {}], ["activation_911", 0, 0, {}]]]}, {"name": "activation_912", "class_name": "Activation", "config": {"name": "activation_912", "trainable": true, "dtype": "float32", "activation": "relu"}, "inbound_nodes": [[["add_190", 0, 0, {}]]]}, {"name": "res5a_branch2a", "class_name": "Conv1D", "config": {"name": "res5a_branch2a", "trainable": true, "batch_input_shape": [null, null, 313, 256], "dtype": "float32", "filters": 128, "kernel_size": [3], "strides": [2], "padding": "same", "data_format": "channels_last", "dilation_rate": [1], "activation": "linear", "use_bias": true, "kernel_initializer": {"class_name": "VarianceScaling", "config": {"scale": 2.0, "mode": "fan_in", "distribution": "truncated_normal", "seed": 0, "dtype": "float32"}}, "bias_initializer": {"class_name": "Zeros", "config": {"dtype": "float32"}}, "kernel_regularizer": null, "bias_regularizer": null, "activity_regularizer": null, "kernel_constraint": null, "bias_constraint": null}, "inbound_nodes": [[["activation_912", 0, 0, {}]]]}, {"name": "bn5a_branch2a", "class_name": "BatchNormalization", "config": {"name": "bn5a_branch2a", "trainable": true, "dtype": "float32", "axis": [2], "momentum": 0.99, "epsilon": 0.001, "center": true, "scale": true, "beta_initializer": {"class_name": "Zeros", "config": {"dtype": "float32"}}, "gamma_initializer": {"class_name": "Ones", "config": {"dtype": "float32"}}, "moving_mean_initializer": {"class_name": "Zeros", "config": {"dtype": "float32"}}, "moving_variance_initializer": {"class_name": "Ones", "config": {"dtype": "float32"}}, "beta_regularizer": null, "gamma_regularizer": null, "beta_constraint": null, "gamma_constraint": null}, "inbound_nodes": [[["res5a_branch2a", 0, 0, {}]]]}, {"name": "activation_913", "class_name": "Activation", "config": {"name": "activation_913", "trainable": true, "dtype": "float32", "activation": "relu"}, "inbound_nodes": [[["bn5a_branch2a", 0, 0, {}]]]}, {"name": "dropout_445", "class_name": "Dropout", "config": {"name": "dropout_445", "trainable": true, "dtype": "float32", "rate": 0.3, "noise_shape": null, "seed": null}, "inbound_nodes": [[["activation_913", 0, 0, {}]]]}, {"name": "res5a_branch2b", "class_name": "Conv1D", "config": {"name": "res5a_branch2b", "trainable": true, "dtype": "float32", "filters": 128, "kernel_size": [3], "strides": [1], "padding": "same", "data_format": "channels_last", "dilation_rate": [1], "activation": "linear", "use_bias": true, "kernel_initializer": {"class_name": "VarianceScaling", "config": {"scale": 2.0, "mode": "fan_in", "distribution": "truncated_normal", "seed": 0, "dtype": "float32"}}, "bias_initializer": {"class_name": "Zeros", "config": {"dtype": "float32"}}, "kernel_regularizer": null, "bias_regularizer": null, "activity_regularizer": null, "kernel_constraint": null, "bias_constraint": null}, "inbound_nodes": [[["dropout_445", 0, 0, {}]]]}, {"name": "activation_914", "class_name": "Activation", "config": {"name": "activation_914", "trainable": true, "dtype": "float32", "activation": "relu"}, "inbound_nodes": [[["res5a_branch2b", 0, 0, {}]]]}, {"name": "dropout_446", "class_name": "Dropout", "config": {"name": "dropout_446", "trainable": true, "dtype": "float32", "rate": 0.3, "noise_shape": null, "seed": null}, "inbound_nodes": [[["activation_914", 0, 0, {}]]]}, {"name": "res5a_branch2c", "class_name": "Conv1D", "config": {"name": "res5a_branch2c", "trainable": true, "dtype": "float32", "filters": 256, "kernel_size": [1], "strides": [1], "padding": "same", "data_format": "channels_last", "dilation_rate": [1], "activation": "linear", "use_bias": true, "kernel_initializer": {"class_name": "VarianceScaling", "config": {"scale": 2.0, "mode": "fan_in", "distribution": "truncated_normal", "seed": 0, "dtype": "float32"}}, "bias_initializer": {"class_name": "Zeros", "config": {"dtype": "float32"}}, "kernel_regularizer": null, "bias_regularizer": null, "activity_regularizer": null, "kernel_constraint": null, "bias_constraint": null}, "inbound_nodes": [[["dropout_446", 0, 0, {}]]]}, {"name": "bn5a_branch2c", "class_name": "BatchNormalization", "config": {"name": "bn5a_branch2c", "trainable": true, "dtype": "float32", "axis": [2], "momentum": 0.99, "epsilon": 0.001, "center": true, "scale": true, "beta_initializer": {"class_name": "Zeros", "config": {"dtype": "float32"}}, "gamma_initializer": {"class_name": "Ones", "config": {"dtype": "float32"}}, "moving_mean_initializer": {"class_name": "Zeros", "config": {"dtype": "float32"}}, "moving_variance_initializer": {"class_name": "Ones", "config": {"dtype": "float32"}}, "beta_regularizer": null, "gamma_regularizer": null, "beta_constraint": null, "gamma_constraint": null}, "inbound_nodes": [[["res5a_branch2c", 0, 0, {}]]]}, {"name": "activation_915", "class_name": "Activation", "config": {"name": "activation_915", "trainable": true, "dtype": "float32", "activation": "relu"}, "inbound_nodes": [[["bn5a_branch2c", 0, 0, {}]]]}, {"name": "res5a_branch1", "class_name": "Conv1D", "config": {"name": "res5a_branch1", "trainable": true, "dtype": "float32", "filters": 256, "kernel_size": [1], "strides": [2], "padding": "same", "data_format": "channels_last", "dilation_rate": [1], "activation": "linear", "use_bias": true, "kernel_initializer": {"class_name": "VarianceScaling", "config": {"scale": 2.0, "mode": "fan_in", "distribution": "truncated_normal", "seed": 0, "dtype": "float32"}}, "bias_initializer": {"class_name": "Zeros", "config": {"dtype": "float32"}}, "kernel_regularizer": null, "bias_regularizer": null, "activity_regularizer": null, "kernel_constraint": null, "bias_constraint": null}, "inbound_nodes": [[["activation_912", 0, 0, {}]]]}, {"name": "dropout_447", "class_name": "Dropout", "config": {"name": "dropout_447", "trainable": true, "dtype": "float32", "rate": 0.3, "noise_shape": null, "seed": null}, "inbound_nodes": [[["activation_915", 0, 0, {}]]]}, {"name": "bn5a_branch1", "class_name": "BatchNormalization", "config": {"name": "bn5a_branch1", "trainable": true, "dtype": "float32", "axis": [2], "momentum": 0.99, "epsilon": 0.001, "center": true, "scale": true, "beta_initializer": {"class_name": "Zeros", "config": {"dtype": "float32"}}, "gamma_initializer": {"class_name": "Ones", "config": {"dtype": "float32"}}, "moving_mean_initializer": {"class_name": "Zeros", "config": {"dtype": "float32"}}, "moving_variance_initializer": {"class_name": "Ones", "config": {"dtype": "float32"}}, "beta_regularizer": null, "gamma_regularizer": null, "beta_constraint": null, "gamma_constraint": null}, "inbound_nodes": [[["res5a_branch1", 0, 0, {}]]]}, {"name": "add_191", "class_name": "Add", "config": {"name": "add_191", "trainable": true, "dtype": "float32"}, "inbound_nodes": [[["dropout_447", 0, 0, {}], ["bn5a_branch1", 0, 0, {}]]]}, {"name": "activation_916", "class_name": "Activation", "config": {"name": "activation_916", "trainable": true, "dtype": "float32", "activation": "relu"}, "inbound_nodes": [[["add_191", 0, 0, {}]]]}, {"name": "res6A_branch2a", "class_name": "Conv1D", "config": {"name": "res6A_branch2a", "trainable": true, "batch_input_shape": [null, null, 157, 256], "dtype": "float32", "filters": 256, "kernel_size": [1], "strides": [1], "padding": "same", "data_format": "channels_last", "dilation_rate": [1], "activation": "linear", "use_bias": true, "kernel_initializer": {"class_name": "VarianceScaling", "config": {"scale": 2.0, "mode": "fan_in", "distribution": "truncated_normal", "seed": 0, "dtype": "float32"}}, "bias_initializer": {"class_name": "Zeros", "config": {"dtype": "float32"}}, "kernel_regularizer": null, "bias_regularizer": null, "activity_regularizer": null, "kernel_constraint": null, "bias_constraint": null}, "inbound_nodes": [[["activation_916", 0, 0, {}]]]}, {"name": "bn6A_branch2a", "class_name": "BatchNormalization", "config": {"name": "bn6A_branch2a", "trainable": true, "dtype": "float32", "axis": [2], "momentum": 0.99, "epsilon": 0.001, "center": true, "scale": true, "beta_initializer": {"class_name": "Zeros", "config": {"dtype": "float32"}}, "gamma_initializer": {"class_name": "Ones", "config": {"dtype": "float32"}}, "moving_mean_initializer": {"class_name": "Zeros", "config": {"dtype": "float32"}}, "moving_variance_initializer": {"class_name": "Ones", "config": {"dtype": "float32"}}, "beta_regularizer": null, "gamma_regularizer": null, "beta_constraint": null, "gamma_constraint": null}, "inbound_nodes": [[["res6A_branch2a", 0, 0, {}]]]}, {"name": "activation_917", "class_name": "Activation", "config": {"name": "activation_917", "trainable": true, "dtype": "float32", "activation": "relu"}, "inbound_nodes": [[["bn6A_branch2a", 0, 0, {}]]]}, {"name": "dropout_448", "class_name": "Dropout", "config": {"name": "dropout_448", "trainable": true, "dtype": "float32", "rate": 0.25, "noise_shape": null, "seed": null}, "inbound_nodes": [[["activation_917", 0, 0, {}]]]}, {"name": "res6A_branch1", "class_name": "Conv1D", "config": {"name": "res6A_branch1", "trainable": true, "dtype": "float32", "filters": 256, "kernel_size": [3], "strides": [1], "padding": "same", "data_format": "channels_last", "dilation_rate": [1], "activation": "linear", "use_bias": true, "kernel_initializer": {"class_name": "VarianceScaling", "config": {"scale": 2.0, "mode": "fan_in", "distribution": "truncated_normal", "seed": 0, "dtype": "float32"}}, "bias_initializer": {"class_name": "Zeros", "config": {"dtype": "float32"}}, "kernel_regularizer": null, "bias_regularizer": null, "activity_regularizer": null, "kernel_constraint": null, "bias_constraint": null}, "inbound_nodes": [[["activation_916", 0, 0, {}]]]}, {"name": "bn6A_branch1", "class_name": "BatchNormalization", "config": {"name": "bn6A_branch1", "trainable": true, "dtype": "float32", "axis": [2], "momentum": 0.99, "epsilon": 0.001, "center": true, "scale": true, "beta_initializer": {"class_name": "Zeros", "config": {"dtype": "float32"}}, "gamma_initializer": {"class_name": "Ones", "config": {"dtype": "float32"}}, "moving_mean_initializer": {"class_name": "Zeros", "config": {"dtype": "float32"}}, "moving_variance_initializer": {"class_name": "Ones", "config": {"dtype": "float32"}}, "beta_regularizer": null, "gamma_regularizer": null, "beta_constraint": null, "gamma_constraint": null}, "inbound_nodes": [[["res6A_branch1", 0, 0, {}]]]}, {"name": "res6A_branch4sha", "class_name": "Conv1D", "config": {"name": "res6A_branch4sha", "trainable": true, "dtype": "float32", "filters": 256, "kernel_size": [3], "strides": [1], "padding": "same", "data_format": "channels_last", "dilation_rate": [1], "activation": "linear", "use_bias": true, "kernel_initializer": {"class_name": "VarianceScaling", "config": {"scale": 2.0, "mode": "fan_in", "distribution": "truncated_normal", "seed": 0, "dtype": "float32"}}, "bias_initializer": {"class_name": "Zeros", "config": {"dtype": "float32"}}, "kernel_regularizer": null, "bias_regularizer": null, "activity_regularizer": null, "kernel_constraint": null, "bias_constraint": null}, "inbound_nodes": [[["dropout_448", 0, 0, {}]]]}, {"name": "activation_919", "class_name": "Activation", "config": {"name": "activation_919", "trainable": true, "dtype": "float32", "activation": "relu"}, "inbound_nodes": [[["bn6A_branch1", 0, 0, {}]]]}, {"name": "bn6A_branch4sha", "class_name": "BatchNormalization", "config": {"name": "bn6A_branch4sha", "trainable": true, "dtype": "float32", "axis": [2], "momentum": 0.99, "epsilon": 0.001, "center": true, "scale": true, "beta_initializer": {"class_name": "Zeros", "config": {"dtype": "float32"}}, "gamma_initializer": {"class_name": "Ones", "config": {"dtype": "float32"}}, "moving_mean_initializer": {"class_name": "Zeros", "config": {"dtype": "float32"}}, "moving_variance_initializer": {"class_name": "Ones", "config": {"dtype": "float32"}}, "beta_regularizer": null, "gamma_regularizer": null, "beta_constraint": null, "gamma_constraint": null}, "inbound_nodes": [[["res6A_branch4sha", 0, 0, {}]]]}, {"name": "res6A_branch2sha", "class_name": "Conv1D", "config": {"name": "res6A_branch2sha", "trainable": true, "dtype": "float32", "filters": 256, "kernel_size": [3], "strides": [1], "padding": "same", "data_format": "channels_last", "dilation_rate": [1], "activation": "linear", "use_bias": true, "kernel_initializer": {"class_name": "VarianceScaling", "config": {"scale": 2.0, "mode": "fan_in", "distribution": "truncated_normal", "seed": 0, "dtype": "float32"}}, "bias_initializer": {"class_name": "Zeros", "config": {"dtype": "float32"}}, "kernel_regularizer": null, "bias_regularizer": null, "activity_regularizer": null, "kernel_constraint": null, "bias_constraint": null}, "inbound_nodes": [[["activation_919", 0, 0, {}]]]}, {"name": "activation_923", "class_name": "Activation", "config": {"name": "activation_923", "trainable": true, "dtype": "float32", "activation": "relu"}, "inbound_nodes": [[["bn6A_branch4sha", 0, 0, {}]]]}, {"name": "res6A_branch2b", "class_name": "Conv1D", "config": {"name": "res6A_branch2b", "trainable": true, "dtype": "float32", "filters": 256, "kernel_size": [3], "strides": [1], "padding": "same", "data_format": "channels_last", "dilation_rate": [1], "activation": "linear", "use_bias": true, "kernel_initializer": {"class_name": "VarianceScaling", "config": {"scale": 2.0, "mode": "fan_in", "distribution": "truncated_normal", "seed": 0, "dtype": "float32"}}, "bias_initializer": {"class_name": "Zeros", "config": {"dtype": "float32"}}, "kernel_regularizer": null, "bias_regularizer": null, "activity_regularizer": null, "kernel_constraint": null, "bias_constraint": null}, "inbound_nodes": [[["dropout_448", 0, 0, {}]]]}, {"name": "bn6A_branch2sha", "class_name": "BatchNormalization", "config": {"name": "bn6A_branch2sha", "trainable": true, "dtype": "float32", "axis": [2], "momentum": 0.99, "epsilon": 0.001, "center": true, "scale": true, "beta_initializer": {"class_name": "Zeros", "config": {"dtype": "float32"}}, "gamma_initializer": {"class_name": "Ones", "config": {"dtype": "float32"}}, "moving_mean_initializer": {"class_name": "Zeros", "config": {"dtype": "float32"}}, "moving_variance_initializer": {"class_name": "Ones", "config": {"dtype": "float32"}}, "beta_regularizer": null, "gamma_regularizer": null, "beta_constraint": null, "gamma_constraint": null}, "inbound_nodes": [[["res6A_branch2sha", 0, 0, {}]]]}, {"name": "dropout_451", "class_name": "Dropout", "config": {"name": "dropout_451", "trainable": true, "dtype": "float32", "rate": 0.15, "noise_shape": null, "seed": null}, "inbound_nodes": [[["activation_923", 0, 0, {}]]]}, {"name": "bn6A_branch2b", "class_name": "BatchNormalization", "config": {"name": "bn6A_branch2b", "trainable": true, "dtype": "float32", "axis": [2], "momentum": 0.99, "epsilon": 0.001, "center": true, "scale": true, "beta_initializer": {"class_name": "Zeros", "config": {"dtype": "float32"}}, "gamma_initializer": {"class_name": "Ones", "config": {"dtype": "float32"}}, "moving_mean_initializer": {"class_name": "Zeros", "config": {"dtype": "float32"}}, "moving_variance_initializer": {"class_name": "Ones", "config": {"dtype": "float32"}}, "beta_regularizer": null, "gamma_regularizer": null, "beta_constraint": null, "gamma_constraint": null}, "inbound_nodes": [[["res6A_branch2b", 0, 0, {}]]]}, {"name": "activation_920", "class_name": "Activation", "config": {"name": "activation_920", "trainable": true, "dtype": "float32", "activation": "relu"}, "inbound_nodes": [[["bn6A_branch2sha", 0, 0, {}]]]}, {"name": "res6A_branch4shb", "class_name": "Conv1D", "config": {"name": "res6A_branch4shb", "trainable": true, "dtype": "float32", "filters": 512, "kernel_size": [3], "strides": [1], "padding": "same", "data_format": "channels_last", "dilation_rate": [1], "activation": "linear", "use_bias": true, "kernel_initializer": {"class_name": "VarianceScaling", "config": {"scale": 2.0, "mode": "fan_in", "distribution": "truncated_normal", "seed": 0, "dtype": "float32"}}, "bias_initializer": {"class_name": "Zeros", "config": {"dtype": "float32"}}, "kernel_regularizer": null, "bias_regularizer": null, "activity_regularizer": null, "kernel_constraint": null, "bias_constraint": null}, "inbound_nodes": [[["dropout_451", 0, 0, {}]]]}, {"name": "activation_918", "class_name": "Activation", "config": {"name": "activation_918", "trainable": true, "dtype": "float32", "activation": "relu"}, "inbound_nodes": [[["bn6A_branch2b", 0, 0, {}]]]}, {"name": "add_192", "class_name": "Add", "config": {"name": "add_192", "trainable": true, "dtype": "float32"}, "inbound_nodes": [[["activation_919", 0, 0, {}], ["activation_916", 0, 0, {}]]]}, {"name": "dropout_450", "class_name": "Dropout", "config": {"name": "dropout_450", "trainable": true, "dtype": "float32", "rate": 0.15, "noise_shape": null, "seed": null}, "inbound_nodes": [[["activation_920", 0, 0, {}]]]}, {"name": "bn6A_branch4shb", "class_name": "BatchNormalization", "config": {"name": "bn6A_branch4shb", "trainable": true, "dtype": "float32", "axis": [2], "momentum": 0.99, "epsilon": 0.001, "center": true, "scale": true, "beta_initializer": {"class_name": "Zeros", "config": {"dtype": "float32"}}, "gamma_initializer": {"class_name": "Ones", "config": {"dtype": "float32"}}, "moving_mean_initializer": {"class_name": "Zeros", "config": {"dtype": "float32"}}, "moving_variance_initializer": {"class_name": "Ones", "config": {"dtype": "float32"}}, "beta_regularizer": null, "gamma_regularizer": null, "beta_constraint": null, "gamma_constraint": null}, "inbound_nodes": [[["res6A_branch4shb", 0, 0, {}]]]}, {"name": "dropout_449", "class_name": "Dropout", "config": {"name": "dropout_449", "trainable": true, "dtype": "float32", "rate": 0.15, "noise_shape": null, "seed": null}, "inbound_nodes": [[["activation_918", 0, 0, {}]]]}, {"name": "res6A_branch3sha", "class_name": "Conv1D", "config": {"name": "res6A_branch3sha", "trainable": true, "dtype": "float32", "filters": 512, "kernel_size": [3], "strides": [1], "padding": "same", "data_format": "channels_last", "dilation_rate": [1], "activation": "linear", "use_bias": true, "kernel_initializer": {"class_name": "VarianceScaling", "config": {"scale": 2.0, "mode": "fan_in", "distribution": "truncated_normal", "seed": 0, "dtype": "float32"}}, "bias_initializer": {"class_name": "Zeros", "config": {"dtype": "float32"}}, "kernel_regularizer": null, "bias_regularizer": null, "activity_regularizer": null, "kernel_constraint": null, "bias_constraint": null}, "inbound_nodes": [[["add_192", 0, 0, {}]]]}, {"name": "res6A_branch2shb", "class_name": "Conv1D", "config": {"name": "res6A_branch2shb", "trainable": true, "dtype": "float32", "filters": 512, "kernel_size": [3], "strides": [1], "padding": "same", "data_format": "channels_last", "dilation_rate": [1], "activation": "linear", "use_bias": true, "kernel_initializer": {"class_name": "VarianceScaling", "config": {"scale": 2.0, "mode": "fan_in", "distribution": "truncated_normal", "seed": 0, "dtype": "float32"}}, "bias_initializer": {"class_name": "Zeros", "config": {"dtype": "float32"}}, "kernel_regularizer": null, "bias_regularizer": null, "activity_regularizer": null, "kernel_constraint": null, "bias_constraint": null}, "inbound_nodes": [[["dropout_450", 0, 0, {}]]]}, {"name": "activation_924", "class_name": "Activation", "config": {"name": "activation_924", "trainable": true, "dtype": "float32", "activation": "relu"}, "inbound_nodes": [[["bn6A_branch4shb", 0, 0, {}]]]}, {"name": "res6A_branch2c", "class_name": "Conv1D", "config": {"name": "res6A_branch2c", "trainable": true, "dtype": "float32", "filters": 512, "kernel_size": [1], "strides": [1], "padding": "same", "data_format": "channels_last", "dilation_rate": [1], "activation": "linear", "use_bias": true, "kernel_initializer": {"class_name": "VarianceScaling", "config": {"scale": 2.0, "mode": "fan_in", "distribution": "truncated_normal", "seed": 0, "dtype": "float32"}}, "bias_initializer": {"class_name": "Zeros", "config": {"dtype": "float32"}}, "kernel_regularizer": null, "bias_regularizer": null, "activity_regularizer": null, "kernel_constraint": null, "bias_constraint": null}, "inbound_nodes": [[["dropout_449", 0, 0, {}]]]}, {"name": "bn6A_branch3sha", "class_name": "BatchNormalization", "config": {"name": "bn6A_branch3sha", "trainable": true, "dtype": "float32", "axis": [2], "momentum": 0.99, "epsilon": 0.001, "center": true, "scale": true, "beta_initializer": {"class_name": "Zeros", "config": {"dtype": "float32"}}, "gamma_initializer": {"class_name": "Ones", "config": {"dtype": "float32"}}, "moving_mean_initializer": {"class_name": "Zeros", "config": {"dtype": "float32"}}, "moving_variance_initializer": {"class_name": "Ones", "config": {"dtype": "float32"}}, "beta_regularizer": null, "gamma_regularizer": null, "beta_constraint": null, "gamma_constraint": null}, "inbound_nodes": [[["res6A_branch3sha", 0, 0, {}]]]}, {"name": "bn6A_branch2shb", "class_name": "BatchNormalization", "config": {"name": "bn6A_branch2shb", "trainable": true, "dtype": "float32", "axis": [2], "momentum": 0.99, "epsilon": 0.001, "center": true, "scale": true, "beta_initializer": {"class_name": "Zeros", "config": {"dtype": "float32"}}, "gamma_initializer": {"class_name": "Ones", "config": {"dtype": "float32"}}, "moving_mean_initializer": {"class_name": "Zeros", "config": {"dtype": "float32"}}, "moving_variance_initializer": {"class_name": "Ones", "config": {"dtype": "float32"}}, "beta_regularizer": null, "gamma_regularizer": null, "beta_constraint": null, "gamma_constraint": null}, "inbound_nodes": [[["res6A_branch2shb", 0, 0, {}]]]}, {"name": "bn6A_branch5sha", "class_name": "BatchNormalization", "config": {"name": "bn6A_branch5sha", "trainable": true, "dtype": "float32", "axis": [2], "momentum": 0.99, "epsilon": 0.001, "center": true, "scale": true, "beta_initializer": {"class_name": "Zeros", "config": {"dtype": "float32"}}, "gamma_initializer": {"class_name": "Ones", "config": {"dtype": "float32"}}, "moving_mean_initializer": {"class_name": "Zeros", "config": {"dtype": "float32"}}, "moving_variance_initializer": {"class_name": "Ones", "config": {"dtype": "float32"}}, "beta_regularizer": null, "gamma_regularizer": null, "beta_constraint": null, "gamma_constraint": null}, "inbound_nodes": [[["activation_924", 0, 0, {}]]]}, {"name": "bn6A_branch2c", "class_name": "BatchNormalization", "config": {"name": "bn6A_branch2c", "trainable": true, "dtype": "float32", "axis": [2], "momentum": 0.99, "epsilon": 0.001, "center": true, "scale": true, "beta_initializer": {"class_name": "Zeros", "config": {"dtype": "float32"}}, "gamma_initializer": {"class_name": "Ones", "config": {"dtype": "float32"}}, "moving_mean_initializer": {"class_name": "Zeros", "config": {"dtype": "float32"}}, "moving_variance_initializer": {"class_name": "Ones", "config": {"dtype": "float32"}}, "beta_regularizer": null, "gamma_regularizer": null, "beta_constraint": null, "gamma_constraint": null}, "inbound_nodes": [[["res6A_branch2c", 0, 0, {}]]]}, {"name": "activation_922", "class_name": "Activation", "config": {"name": "activation_922", "trainable": true, "dtype": "float32", "activation": "relu"}, "inbound_nodes": [[["bn6A_branch3sha", 0, 0, {}]]]}, {"name": "activation_921", "class_name": "Activation", "config": {"name": "activation_921", "trainable": true, "dtype": "float32", "activation": "relu"}, "inbound_nodes": [[["bn6A_branch2shb", 0, 0, {}]]]}, {"name": "activation_925", "class_name": "Activation", "config": {"name": "activation_925", "trainable": true, "dtype": "float32", "activation": "relu"}, "inbound_nodes": [[["bn6A_branch5sha", 0, 0, {}]]]}, {"name": "add_193", "class_name": "Add", "config": {"name": "add_193", "trainable": true, "dtype": "float32"}, "inbound_nodes": [[["bn6A_branch2c", 0, 0, {}], ["activation_922", 0, 0, {}], ["activation_921", 0, 0, {}], ["activation_924", 0, 0, {}], ["activation_925", 0, 0, {}]]]}, {"name": "activation_926", "class_name": "Activation", "config": {"name": "activation_926", "trainable": true, "dtype": "float32", "activation": "relu"}, "inbound_nodes": [[["add_193", 0, 0, {}]]]}, {"name": "res6a_branch2a", "class_name": "Conv1D", "config": {"name": "res6a_branch2a", "trainable": true, "batch_input_shape": [null, null, 157, 512], "dtype": "float32", "filters": 256, "kernel_size": [3], "strides": [2], "padding": "same", "data_format": "channels_last", "dilation_rate": [1], "activation": "linear", "use_bias": true, "kernel_initializer": {"class_name": "VarianceScaling", "config": {"scale": 2.0, "mode": "fan_in", "distribution": "truncated_normal", "seed": 0, "dtype": "float32"}}, "bias_initializer": {"class_name": "Zeros", "config": {"dtype": "float32"}}, "kernel_regularizer": null, "bias_regularizer": null, "activity_regularizer": null, "kernel_constraint": null, "bias_constraint": null}, "inbound_nodes": [[["activation_926", 0, 0, {}]]]}, {"name": "bn6a_branch2a", "class_name": "BatchNormalization", "config": {"name": "bn6a_branch2a", "trainable": true, "dtype": "float32", "axis": [2], "momentum": 0.99, "epsilon": 0.001, "center": true, "scale": true, "beta_initializer": {"class_name": "Zeros", "config": {"dtype": "float32"}}, "gamma_initializer": {"class_name": "Ones", "config": {"dtype": "float32"}}, "moving_mean_initializer": {"class_name": "Zeros", "config": {"dtype": "float32"}}, "moving_variance_initializer": {"class_name": "Ones", "config": {"dtype": "float32"}}, "beta_regularizer": null, "gamma_regularizer": null, "beta_constraint": null, "gamma_constraint": null}, "inbound_nodes": [[["res6a_branch2a", 0, 0, {}]]]}, {"name": "activation_927", "class_name": "Activation", "config": {"name": "activation_927", "trainable": true, "dtype": "float32", "activation": "relu"}, "inbound_nodes": [[["bn6a_branch2a", 0, 0, {}]]]}, {"name": "dropout_452", "class_name": "Dropout", "config": {"name": "dropout_452", "trainable": true, "dtype": "float32", "rate": 0.3, "noise_shape": null, "seed": null}, "inbound_nodes": [[["activation_927", 0, 0, {}]]]}, {"name": "res6a_branch2b", "class_name": "Conv1D", "config": {"name": "res6a_branch2b", "trainable": true, "dtype": "float32", "filters": 256, "kernel_size": [3], "strides": [1], "padding": "same", "data_format": "channels_last", "dilation_rate": [1], "activation": "linear", "use_bias": true, "kernel_initializer": {"class_name": "VarianceScaling", "config": {"scale": 2.0, "mode": "fan_in", "distribution": "truncated_normal", "seed": 0, "dtype": "float32"}}, "bias_initializer": {"class_name": "Zeros", "config": {"dtype": "float32"}}, "kernel_regularizer": null, "bias_regularizer": null, "activity_regularizer": null, "kernel_constraint": null, "bias_constraint": null}, "inbound_nodes": [[["dropout_452", 0, 0, {}]]]}, {"name": "activation_928", "class_name": "Activation", "config": {"name": "activation_928", "trainable": true, "dtype": "float32", "activation": "relu"}, "inbound_nodes": [[["res6a_branch2b", 0, 0, {}]]]}, {"name": "dropout_453", "class_name": "Dropout", "config": {"name": "dropout_453", "trainable": true, "dtype": "float32", "rate": 0.3, "noise_shape": null, "seed": null}, "inbound_nodes": [[["activation_928", 0, 0, {}]]]}, {"name": "res6a_branch2c", "class_name": "Conv1D", "config": {"name": "res6a_branch2c", "trainable": true, "dtype": "float32", "filters": 512, "kernel_size": [1], "strides": [1], "padding": "same", "data_format": "channels_last", "dilation_rate": [1], "activation": "linear", "use_bias": true, "kernel_initializer": {"class_name": "VarianceScaling", "config": {"scale": 2.0, "mode": "fan_in", "distribution": "truncated_normal", "seed": 0, "dtype": "float32"}}, "bias_initializer": {"class_name": "Zeros", "config": {"dtype": "float32"}}, "kernel_regularizer": null, "bias_regularizer": null, "activity_regularizer": null, "kernel_constraint": null, "bias_constraint": null}, "inbound_nodes": [[["dropout_453", 0, 0, {}]]]}, {"name": "bn6a_branch2c", "class_name": "BatchNormalization", "config": {"name": "bn6a_branch2c", "trainable": true, "dtype": "float32", "axis": [2], "momentum": 0.99, "epsilon": 0.001, "center": true, "scale": true, "beta_initializer": {"class_name": "Zeros", "config": {"dtype": "float32"}}, "gamma_initializer": {"class_name": "Ones", "config": {"dtype": "float32"}}, "moving_mean_initializer": {"class_name": "Zeros", "config": {"dtype": "float32"}}, "moving_variance_initializer": {"class_name": "Ones", "config": {"dtype": "float32"}}, "beta_regularizer": null, "gamma_regularizer": null, "beta_constraint": null, "gamma_constraint": null}, "inbound_nodes": [[["res6a_branch2c", 0, 0, {}]]]}, {"name": "activation_929", "class_name": "Activation", "config": {"name": "activation_929", "trainable": true, "dtype": "float32", "activation": "relu"}, "inbound_nodes": [[["bn6a_branch2c", 0, 0, {}]]]}, {"name": "res6a_branch1", "class_name": "Conv1D", "config": {"name": "res6a_branch1", "trainable": true, "dtype": "float32", "filters": 512, "kernel_size": [1], "strides": [2], "padding": "same", "data_format": "channels_last", "dilation_rate": [1], "activation": "linear", "use_bias": true, "kernel_initializer": {"class_name": "VarianceScaling", "config": {"scale": 2.0, "mode": "fan_in", "distribution": "truncated_normal", "seed": 0, "dtype": "float32"}}, "bias_initializer": {"class_name": "Zeros", "config": {"dtype": "float32"}}, "kernel_regularizer": null, "bias_regularizer": null, "activity_regularizer": null, "kernel_constraint": null, "bias_constraint": null}, "inbound_nodes": [[["activation_926", 0, 0, {}]]]}, {"name": "dropout_454", "class_name": "Dropout", "config": {"name": "dropout_454", "trainable": true, "dtype": "float32", "rate": 0.3, "noise_shape": null, "seed": null}, "inbound_nodes": [[["activation_929", 0, 0, {}]]]}, {"name": "bn6a_branch1", "class_name": "BatchNormalization", "config": {"name": "bn6a_branch1", "trainable": true, "dtype": "float32", "axis": [2], "momentum": 0.99, "epsilon": 0.001, "center": true, "scale": true, "beta_initializer": {"class_name": "Zeros", "config": {"dtype": "float32"}}, "gamma_initializer": {"class_name": "Ones", "config": {"dtype": "float32"}}, "moving_mean_initializer": {"class_name": "Zeros", "config": {"dtype": "float32"}}, "moving_variance_initializer": {"class_name": "Ones", "config": {"dtype": "float32"}}, "beta_regularizer": null, "gamma_regularizer": null, "beta_constraint": null, "gamma_constraint": null}, "inbound_nodes": [[["res6a_branch1", 0, 0, {}]]]}, {"name": "add_194", "class_name": "Add", "config": {"name": "add_194", "trainable": true, "dtype": "float32"}, "inbound_nodes": [[["dropout_454", 0, 0, {}], ["bn6a_branch1", 0, 0, {}]]]}, {"name": "activation_930", "class_name": "Activation", "config": {"name": "activation_930", "trainable": true, "dtype": "float32", "activation": "relu"}, "inbound_nodes": [[["add_194", 0, 0, {}]]]}, {"name": "res7A_branch2a", "class_name": "Conv1D", "config": {"name": "res7A_branch2a", "trainable": true, "batch_input_shape": [null, null, 79, 512], "dtype": "float32", "filters": 512, "kernel_size": [1], "strides": [1], "padding": "same", "data_format": "channels_last", "dilation_rate": [1], "activation": "linear", "use_bias": true, "kernel_initializer": {"class_name": "VarianceScaling", "config": {"scale": 2.0, "mode": "fan_in", "distribution": "truncated_normal", "seed": 0, "dtype": "float32"}}, "bias_initializer": {"class_name": "Zeros", "config": {"dtype": "float32"}}, "kernel_regularizer": null, "bias_regularizer": null, "activity_regularizer": null, "kernel_constraint": null, "bias_constraint": null}, "inbound_nodes": [[["activation_930", 0, 0, {}]]]}, {"name": "bn7A_branch2a", "class_name": "BatchNormalization", "config": {"name": "bn7A_branch2a", "trainable": true, "dtype": "float32", "axis": [2], "momentum": 0.99, "epsilon": 0.001, "center": true, "scale": true, "beta_initializer": {"class_name": "Zeros", "config": {"dtype": "float32"}}, "gamma_initializer": {"class_name": "Ones", "config": {"dtype": "float32"}}, "moving_mean_initializer": {"class_name": "Zeros", "config": {"dtype": "float32"}}, "moving_variance_initializer": {"class_name": "Ones", "config": {"dtype": "float32"}}, "beta_regularizer": null, "gamma_regularizer": null, "beta_constraint": null, "gamma_constraint": null}, "inbound_nodes": [[["res7A_branch2a", 0, 0, {}]]]}, {"name": "activation_931", "class_name": "Activation", "config": {"name": "activation_931", "trainable": true, "dtype": "float32", "activation": "relu"}, "inbound_nodes": [[["bn7A_branch2a", 0, 0, {}]]]}, {"name": "dropout_455", "class_name": "Dropout", "config": {"name": "dropout_455", "trainable": true, "dtype": "float32", "rate": 0.25, "noise_shape": null, "seed": null}, "inbound_nodes": [[["activation_931", 0, 0, {}]]]}, {"name": "res7A_branch1", "class_name": "Conv1D", "config": {"name": "res7A_branch1", "trainable": true, "dtype": "float32", "filters": 512, "kernel_size": [3], "strides": [1], "padding": "same", "data_format": "channels_last", "dilation_rate": [1], "activation": "linear", "use_bias": true, "kernel_initializer": {"class_name": "VarianceScaling", "config": {"scale": 2.0, "mode": "fan_in", "distribution": "truncated_normal", "seed": 0, "dtype": "float32"}}, "bias_initializer": {"class_name": "Zeros", "config": {"dtype": "float32"}}, "kernel_regularizer": null, "bias_regularizer": null, "activity_regularizer": null, "kernel_constraint": null, "bias_constraint": null}, "inbound_nodes": [[["activation_930", 0, 0, {}]]]}, {"name": "bn7A_branch1", "class_name": "BatchNormalization", "config": {"name": "bn7A_branch1", "trainable": true, "dtype": "float32", "axis": [2], "momentum": 0.99, "epsilon": 0.001, "center": true, "scale": true, "beta_initializer": {"class_name": "Zeros", "config": {"dtype": "float32"}}, "gamma_initializer": {"class_name": "Ones", "config": {"dtype": "float32"}}, "moving_mean_initializer": {"class_name": "Zeros", "config": {"dtype": "float32"}}, "moving_variance_initializer": {"class_name": "Ones", "config": {"dtype": "float32"}}, "beta_regularizer": null, "gamma_regularizer": null, "beta_constraint": null, "gamma_constraint": null}, "inbound_nodes": [[["res7A_branch1", 0, 0, {}]]]}, {"name": "res7A_branch4sha", "class_name": "Conv1D", "config": {"name": "res7A_branch4sha", "trainable": true, "dtype": "float32", "filters": 512, "kernel_size": [3], "strides": [1], "padding": "same", "data_format": "channels_last", "dilation_rate": [1], "activation": "linear", "use_bias": true, "kernel_initializer": {"class_name": "VarianceScaling", "config": {"scale": 2.0, "mode": "fan_in", "distribution": "truncated_normal", "seed": 0, "dtype": "float32"}}, "bias_initializer": {"class_name": "Zeros", "config": {"dtype": "float32"}}, "kernel_regularizer": null, "bias_regularizer": null, "activity_regularizer": null, "kernel_constraint": null, "bias_constraint": null}, "inbound_nodes": [[["dropout_455", 0, 0, {}]]]}, {"name": "activation_933", "class_name": "Activation", "config": {"name": "activation_933", "trainable": true, "dtype": "float32", "activation": "relu"}, "inbound_nodes": [[["bn7A_branch1", 0, 0, {}]]]}, {"name": "bn7A_branch4sha", "class_name": "BatchNormalization", "config": {"name": "bn7A_branch4sha", "trainable": true, "dtype": "float32", "axis": [2], "momentum": 0.99, "epsilon": 0.001, "center": true, "scale": true, "beta_initializer": {"class_name": "Zeros", "config": {"dtype": "float32"}}, "gamma_initializer": {"class_name": "Ones", "config": {"dtype": "float32"}}, "moving_mean_initializer": {"class_name": "Zeros", "config": {"dtype": "float32"}}, "moving_variance_initializer": {"class_name": "Ones", "config": {"dtype": "float32"}}, "beta_regularizer": null, "gamma_regularizer": null, "beta_constraint": null, "gamma_constraint": null}, "inbound_nodes": [[["res7A_branch4sha", 0, 0, {}]]]}, {"name": "res7A_branch2sha", "class_name": "Conv1D", "config": {"name": "res7A_branch2sha", "trainable": true, "dtype": "float32", "filters": 512, "kernel_size": [3], "strides": [1], "padding": "same", "data_format": "channels_last", "dilation_rate": [1], "activation": "linear", "use_bias": true, "kernel_initializer": {"class_name": "VarianceScaling", "config": {"scale": 2.0, "mode": "fan_in", "distribution": "truncated_normal", "seed": 0, "dtype": "float32"}}, "bias_initializer": {"class_name": "Zeros", "config": {"dtype": "float32"}}, "kernel_regularizer": null, "bias_regularizer": null, "activity_regularizer": null, "kernel_constraint": null, "bias_constraint": null}, "inbound_nodes": [[["activation_933", 0, 0, {}]]]}, {"name": "activation_937", "class_name": "Activation", "config": {"name": "activation_937", "trainable": true, "dtype": "float32", "activation": "relu"}, "inbound_nodes": [[["bn7A_branch4sha", 0, 0, {}]]]}, {"name": "res7A_branch2b", "class_name": "Conv1D", "config": {"name": "res7A_branch2b", "trainable": true, "dtype": "float32", "filters": 512, "kernel_size": [3], "strides": [1], "padding": "same", "data_format": "channels_last", "dilation_rate": [1], "activation": "linear", "use_bias": true, "kernel_initializer": {"class_name": "VarianceScaling", "config": {"scale": 2.0, "mode": "fan_in", "distribution": "truncated_normal", "seed": 0, "dtype": "float32"}}, "bias_initializer": {"class_name": "Zeros", "config": {"dtype": "float32"}}, "kernel_regularizer": null, "bias_regularizer": null, "activity_regularizer": null, "kernel_constraint": null, "bias_constraint": null}, "inbound_nodes": [[["dropout_455", 0, 0, {}]]]}, {"name": "bn7A_branch2sha", "class_name": "BatchNormalization", "config": {"name": "bn7A_branch2sha", "trainable": true, "dtype": "float32", "axis": [2], "momentum": 0.99, "epsilon": 0.001, "center": true, "scale": true, "beta_initializer": {"class_name": "Zeros", "config": {"dtype": "float32"}}, "gamma_initializer": {"class_name": "Ones", "config": {"dtype": "float32"}}, "moving_mean_initializer": {"class_name": "Zeros", "config": {"dtype": "float32"}}, "moving_variance_initializer": {"class_name": "Ones", "config": {"dtype": "float32"}}, "beta_regularizer": null, "gamma_regularizer": null, "beta_constraint": null, "gamma_constraint": null}, "inbound_nodes": [[["res7A_branch2sha", 0, 0, {}]]]}, {"name": "dropout_458", "class_name": "Dropout", "config": {"name": "dropout_458", "trainable": true, "dtype": "float32", "rate": 0.15, "noise_shape": null, "seed": null}, "inbound_nodes": [[["activation_937", 0, 0, {}]]]}, {"name": "bn7A_branch2b", "class_name": "BatchNormalization", "config": {"name": "bn7A_branch2b", "trainable": true, "dtype": "float32", "axis": [2], "momentum": 0.99, "epsilon": 0.001, "center": true, "scale": true, "beta_initializer": {"class_name": "Zeros", "config": {"dtype": "float32"}}, "gamma_initializer": {"class_name": "Ones", "config": {"dtype": "float32"}}, "moving_mean_initializer": {"class_name": "Zeros", "config": {"dtype": "float32"}}, "moving_variance_initializer": {"class_name": "Ones", "config": {"dtype": "float32"}}, "beta_regularizer": null, "gamma_regularizer": null, "beta_constraint": null, "gamma_constraint": null}, "inbound_nodes": [[["res7A_branch2b", 0, 0, {}]]]}, {"name": "activation_934", "class_name": "Activation", "config": {"name": "activation_934", "trainable": true, "dtype": "float32", "activation": "relu"}, "inbound_nodes": [[["bn7A_branch2sha", 0, 0, {}]]]}, {"name": "res7A_branch4shb", "class_name": "Conv1D", "config": {"name": "res7A_branch4shb", "trainable": true, "dtype": "float32", "filters": 1024, "kernel_size": [3], "strides": [1], "padding": "same", "data_format": "channels_last", "dilation_rate": [1], "activation": "linear", "use_bias": true, "kernel_initializer": {"class_name": "VarianceScaling", "config": {"scale": 2.0, "mode": "fan_in", "distribution": "truncated_normal", "seed": 0, "dtype": "float32"}}, "bias_initializer": {"class_name": "Zeros", "config": {"dtype": "float32"}}, "kernel_regularizer": null, "bias_regularizer": null, "activity_regularizer": null, "kernel_constraint": null, "bias_constraint": null}, "inbound_nodes": [[["dropout_458", 0, 0, {}]]]}, {"name": "activation_932", "class_name": "Activation", "config": {"name": "activation_932", "trainable": true, "dtype": "float32", "activation": "relu"}, "inbound_nodes": [[["bn7A_branch2b", 0, 0, {}]]]}, {"name": "add_195", "class_name": "Add", "config": {"name": "add_195", "trainable": true, "dtype": "float32"}, "inbound_nodes": [[["activation_933", 0, 0, {}], ["activation_930", 0, 0, {}]]]}, {"name": "dropout_457", "class_name": "Dropout", "config": {"name": "dropout_457", "trainable": true, "dtype": "float32", "rate": 0.15, "noise_shape": null, "seed": null}, "inbound_nodes": [[["activation_934", 0, 0, {}]]]}, {"name": "bn7A_branch4shb", "class_name": "BatchNormalization", "config": {"name": "bn7A_branch4shb", "trainable": true, "dtype": "float32", "axis": [2], "momentum": 0.99, "epsilon": 0.001, "center": true, "scale": true, "beta_initializer": {"class_name": "Zeros", "config": {"dtype": "float32"}}, "gamma_initializer": {"class_name": "Ones", "config": {"dtype": "float32"}}, "moving_mean_initializer": {"class_name": "Zeros", "config": {"dtype": "float32"}}, "moving_variance_initializer": {"class_name": "Ones", "config": {"dtype": "float32"}}, "beta_regularizer": null, "gamma_regularizer": null, "beta_constraint": null, "gamma_constraint": null}, "inbound_nodes": [[["res7A_branch4shb", 0, 0, {}]]]}, {"name": "dropout_456", "class_name": "Dropout", "config": {"name": "dropout_456", "trainable": true, "dtype": "float32", "rate": 0.15, "noise_shape": null, "seed": null}, "inbound_nodes": [[["activation_932", 0, 0, {}]]]}, {"name": "res7A_branch3sha", "class_name": "Conv1D", "config": {"name": "res7A_branch3sha", "trainable": true, "dtype": "float32", "filters": 1024, "kernel_size": [3], "strides": [1], "padding": "same", "data_format": "channels_last", "dilation_rate": [1], "activation": "linear", "use_bias": true, "kernel_initializer": {"class_name": "VarianceScaling", "config": {"scale": 2.0, "mode": "fan_in", "distribution": "truncated_normal", "seed": 0, "dtype": "float32"}}, "bias_initializer": {"class_name": "Zeros", "config": {"dtype": "float32"}}, "kernel_regularizer": null, "bias_regularizer": null, "activity_regularizer": null, "kernel_constraint": null, "bias_constraint": null}, "inbound_nodes": [[["add_195", 0, 0, {}]]]}, {"name": "res7A_branch2shb", "class_name": "Conv1D", "config": {"name": "res7A_branch2shb", "trainable": true, "dtype": "float32", "filters": 1024, "kernel_size": [3], "strides": [1], "padding": "same", "data_format": "channels_last", "dilation_rate": [1], "activation": "linear", "use_bias": true, "kernel_initializer": {"class_name": "VarianceScaling", "config": {"scale": 2.0, "mode": "fan_in", "distribution": "truncated_normal", "seed": 0, "dtype": "float32"}}, "bias_initializer": {"class_name": "Zeros", "config": {"dtype": "float32"}}, "kernel_regularizer": null, "bias_regularizer": null, "activity_regularizer": null, "kernel_constraint": null, "bias_constraint": null}, "inbound_nodes": [[["dropout_457", 0, 0, {}]]]}, {"name": "activation_938", "class_name": "Activation", "config": {"name": "activation_938", "trainable": true, "dtype": "float32", "activation": "relu"}, "inbound_nodes": [[["bn7A_branch4shb", 0, 0, {}]]]}, {"name": "res7A_branch2c", "class_name": "Conv1D", "config": {"name": "res7A_branch2c", "trainable": true, "dtype": "float32", "filters": 1024, "kernel_size": [1], "strides": [1], "padding": "same", "data_format": "channels_last", "dilation_rate": [1], "activation": "linear", "use_bias": true, "kernel_initializer": {"class_name": "VarianceScaling", "config": {"scale": 2.0, "mode": "fan_in", "distribution": "truncated_normal", "seed": 0, "dtype": "float32"}}, "bias_initializer": {"class_name": "Zeros", "config": {"dtype": "float32"}}, "kernel_regularizer": null, "bias_regularizer": null, "activity_regularizer": null, "kernel_constraint": null, "bias_constraint": null}, "inbound_nodes": [[["dropout_456", 0, 0, {}]]]}, {"name": "bn7A_branch3sha", "class_name": "BatchNormalization", "config": {"name": "bn7A_branch3sha", "trainable": true, "dtype": "float32", "axis": [2], "momentum": 0.99, "epsilon": 0.001, "center": true, "scale": true, "beta_initializer": {"class_name": "Zeros", "config": {"dtype": "float32"}}, "gamma_initializer": {"class_name": "Ones", "config": {"dtype": "float32"}}, "moving_mean_initializer": {"class_name": "Zeros", "config": {"dtype": "float32"}}, "moving_variance_initializer": {"class_name": "Ones", "config": {"dtype": "float32"}}, "beta_regularizer": null, "gamma_regularizer": null, "beta_constraint": null, "gamma_constraint": null}, "inbound_nodes": [[["res7A_branch3sha", 0, 0, {}]]]}, {"name": "bn7A_branch2shb", "class_name": "BatchNormalization", "config": {"name": "bn7A_branch2shb", "trainable": true, "dtype": "float32", "axis": [2], "momentum": 0.99, "epsilon": 0.001, "center": true, "scale": true, "beta_initializer": {"class_name": "Zeros", "config": {"dtype": "float32"}}, "gamma_initializer": {"class_name": "Ones", "config": {"dtype": "float32"}}, "moving_mean_initializer": {"class_name": "Zeros", "config": {"dtype": "float32"}}, "moving_variance_initializer": {"class_name": "Ones", "config": {"dtype": "float32"}}, "beta_regularizer": null, "gamma_regularizer": null, "beta_constraint": null, "gamma_constraint": null}, "inbound_nodes": [[["res7A_branch2shb", 0, 0, {}]]]}, {"name": "bn7A_branch5sha", "class_name": "BatchNormalization", "config": {"name": "bn7A_branch5sha", "trainable": true, "dtype": "float32", "axis": [2], "momentum": 0.99, "epsilon": 0.001, "center": true, "scale": true, "beta_initializer": {"class_name": "Zeros", "config": {"dtype": "float32"}}, "gamma_initializer": {"class_name": "Ones", "config": {"dtype": "float32"}}, "moving_mean_initializer": {"class_name": "Zeros", "config": {"dtype": "float32"}}, "moving_variance_initializer": {"class_name": "Ones", "config": {"dtype": "float32"}}, "beta_regularizer": null, "gamma_regularizer": null, "beta_constraint": null, "gamma_constraint": null}, "inbound_nodes": [[["activation_938", 0, 0, {}]]]}, {"name": "bn7A_branch2c", "class_name": "BatchNormalization", "config": {"name": "bn7A_branch2c", "trainable": true, "dtype": "float32", "axis": [2], "momentum": 0.99, "epsilon": 0.001, "center": true, "scale": true, "beta_initializer": {"class_name": "Zeros", "config": {"dtype": "float32"}}, "gamma_initializer": {"class_name": "Ones", "config": {"dtype": "float32"}}, "moving_mean_initializer": {"class_name": "Zeros", "config": {"dtype": "float32"}}, "moving_variance_initializer": {"class_name": "Ones", "config": {"dtype": "float32"}}, "beta_regularizer": null, "gamma_regularizer": null, "beta_constraint": null, "gamma_constraint": null}, "inbound_nodes": [[["res7A_branch2c", 0, 0, {}]]]}, {"name": "activation_936", "class_name": "Activation", "config": {"name": "activation_936", "trainable": true, "dtype": "float32", "activation": "relu"}, "inbound_nodes": [[["bn7A_branch3sha", 0, 0, {}]]]}, {"name": "activation_935", "class_name": "Activation", "config": {"name": "activation_935", "trainable": true, "dtype": "float32", "activation": "relu"}, "inbound_nodes": [[["bn7A_branch2shb", 0, 0, {}]]]}, {"name": "activation_939", "class_name": "Activation", "config": {"name": "activation_939", "trainable": true, "dtype": "float32", "activation": "relu"}, "inbound_nodes": [[["bn7A_branch5sha", 0, 0, {}]]]}, {"name": "add_196", "class_name": "Add", "config": {"name": "add_196", "trainable": true, "dtype": "float32"}, "inbound_nodes": [[["bn7A_branch2c", 0, 0, {}], ["activation_936", 0, 0, {}], ["activation_935", 0, 0, {}], ["activation_938", 0, 0, {}], ["activation_939", 0, 0, {}]]]}, {"name": "activation_940", "class_name": "Activation", "config": {"name": "activation_940", "trainable": true, "dtype": "float32", "activation": "relu"}, "inbound_nodes": [[["add_196", 0, 0, {}]]]}, {"name": "res7a_branch2a", "class_name": "Conv1D", "config": {"name": "res7a_branch2a", "trainable": true, "batch_input_shape": [null, null, 79, 1024], "dtype": "float32", "filters": 512, "kernel_size": [3], "strides": [2], "padding": "same", "data_format": "channels_last", "dilation_rate": [1], "activation": "linear", "use_bias": true, "kernel_initializer": {"class_name": "VarianceScaling", "config": {"scale": 2.0, "mode": "fan_in", "distribution": "truncated_normal", "seed": 0, "dtype": "float32"}}, "bias_initializer": {"class_name": "Zeros", "config": {"dtype": "float32"}}, "kernel_regularizer": null, "bias_regularizer": null, "activity_regularizer": null, "kernel_constraint": null, "bias_constraint": null}, "inbound_nodes": [[["activation_940", 0, 0, {}]]]}, {"name": "bn7a_branch2a", "class_name": "BatchNormalization", "config": {"name": "bn7a_branch2a", "trainable": true, "dtype": "float32", "axis": [2], "momentum": 0.99, "epsilon": 0.001, "center": true, "scale": true, "beta_initializer": {"class_name": "Zeros", "config": {"dtype": "float32"}}, "gamma_initializer": {"class_name": "Ones", "config": {"dtype": "float32"}}, "moving_mean_initializer": {"class_name": "Zeros", "config": {"dtype": "float32"}}, "moving_variance_initializer": {"class_name": "Ones", "config": {"dtype": "float32"}}, "beta_regularizer": null, "gamma_regularizer": null, "beta_constraint": null, "gamma_constraint": null}, "inbound_nodes": [[["res7a_branch2a", 0, 0, {}]]]}, {"name": "activation_941", "class_name": "Activation", "config": {"name": "activation_941", "trainable": true, "dtype": "float32", "activation": "relu"}, "inbound_nodes": [[["bn7a_branch2a", 0, 0, {}]]]}, {"name": "dropout_459", "class_name": "Dropout", "config": {"name": "dropout_459", "trainable": true, "dtype": "float32", "rate": 0.3, "noise_shape": null, "seed": null}, "inbound_nodes": [[["activation_941", 0, 0, {}]]]}, {"name": "res7a_branch2b", "class_name": "Conv1D", "config": {"name": "res7a_branch2b", "trainable": true, "dtype": "float32", "filters": 512, "kernel_size": [3], "strides": [1], "padding": "same", "data_format": "channels_last", "dilation_rate": [1], "activation": "linear", "use_bias": true, "kernel_initializer": {"class_name": "VarianceScaling", "config": {"scale": 2.0, "mode": "fan_in", "distribution": "truncated_normal", "seed": 0, "dtype": "float32"}}, "bias_initializer": {"class_name": "Zeros", "config": {"dtype": "float32"}}, "kernel_regularizer": null, "bias_regularizer": null, "activity_regularizer": null, "kernel_constraint": null, "bias_constraint": null}, "inbound_nodes": [[["dropout_459", 0, 0, {}]]]}, {"name": "activation_942", "class_name": "Activation", "config": {"name": "activation_942", "trainable": true, "dtype": "float32", "activation": "relu"}, "inbound_nodes": [[["res7a_branch2b", 0, 0, {}]]]}, {"name": "dropout_460", "class_name": "Dropout", "config": {"name": "dropout_460", "trainable": true, "dtype": "float32", "rate": 0.3, "noise_shape": null, "seed": null}, "inbound_nodes": [[["activation_942", 0, 0, {}]]]}, {"name": "res7a_branch2c", "class_name": "Conv1D", "config": {"name": "res7a_branch2c", "trainable": true, "dtype": "float32", "filters": 1024, "kernel_size": [1], "strides": [1], "padding": "same", "data_format": "channels_last", "dilation_rate": [1], "activation": "linear", "use_bias": true, "kernel_initializer": {"class_name": "VarianceScaling", "config": {"scale": 2.0, "mode": "fan_in", "distribution": "truncated_normal", "seed": 0, "dtype": "float32"}}, "bias_initializer": {"class_name": "Zeros", "config": {"dtype": "float32"}}, "kernel_regularizer": null, "bias_regularizer": null, "activity_regularizer": null, "kernel_constraint": null, "bias_constraint": null}, "inbound_nodes": [[["dropout_460", 0, 0, {}]]]}, {"name": "bn7a_branch2c", "class_name": "BatchNormalization", "config": {"name": "bn7a_branch2c", "trainable": true, "dtype": "float32", "axis": [2], "momentum": 0.99, "epsilon": 0.001, "center": true, "scale": true, "beta_initializer": {"class_name": "Zeros", "config": {"dtype": "float32"}}, "gamma_initializer": {"class_name": "Ones", "config": {"dtype": "float32"}}, "moving_mean_initializer": {"class_name": "Zeros", "config": {"dtype": "float32"}}, "moving_variance_initializer": {"class_name": "Ones", "config": {"dtype": "float32"}}, "beta_regularizer": null, "gamma_regularizer": null, "beta_constraint": null, "gamma_constraint": null}, "inbound_nodes": [[["res7a_branch2c", 0, 0, {}]]]}, {"name": "activation_943", "class_name": "Activation", "config": {"name": "activation_943", "trainable": true, "dtype": "float32", "activation": "relu"}, "inbound_nodes": [[["bn7a_branch2c", 0, 0, {}]]]}, {"name": "res7a_branch1", "class_name": "Conv1D", "config": {"name": "res7a_branch1", "trainable": true, "dtype": "float32", "filters": 1024, "kernel_size": [1], "strides": [2], "padding": "same", "data_format": "channels_last", "dilation_rate": [1], "activation": "linear", "use_bias": true, "kernel_initializer": {"class_name": "VarianceScaling", "config": {"scale": 2.0, "mode": "fan_in", "distribution": "truncated_normal", "seed": 0, "dtype": "float32"}}, "bias_initializer": {"class_name": "Zeros", "config": {"dtype": "float32"}}, "kernel_regularizer": null, "bias_regularizer": null, "activity_regularizer": null, "kernel_constraint": null, "bias_constraint": null}, "inbound_nodes": [[["activation_940", 0, 0, {}]]]}, {"name": "dropout_461", "class_name": "Dropout", "config": {"name": "dropout_461", "trainable": true, "dtype": "float32", "rate": 0.3, "noise_shape": null, "seed": null}, "inbound_nodes": [[["activation_943", 0, 0, {}]]]}, {"name": "bn7a_branch1", "class_name": "BatchNormalization", "config": {"name": "bn7a_branch1", "trainable": true, "dtype": "float32", "axis": [2], "momentum": 0.99, "epsilon": 0.001, "center": true, "scale": true, "beta_initializer": {"class_name": "Zeros", "config": {"dtype": "float32"}}, "gamma_initializer": {"class_name": "Ones", "config": {"dtype": "float32"}}, "moving_mean_initializer": {"class_name": "Zeros", "config": {"dtype": "float32"}}, "moving_variance_initializer": {"class_name": "Ones", "config": {"dtype": "float32"}}, "beta_regularizer": null, "gamma_regularizer": null, "beta_constraint": null, "gamma_constraint": null}, "inbound_nodes": [[["res7a_branch1", 0, 0, {}]]]}, {"name": "add_197", "class_name": "Add", "config": {"name": "add_197", "trainable": true, "dtype": "float32"}, "inbound_nodes": [[["dropout_461", 0, 0, {}], ["bn7a_branch1", 0, 0, {}]]]}, {"name": "activation_944", "class_name": "Activation", "config": {"name": "activation_944", "trainable": true, "dtype": "float32", "activation": "relu"}, "inbound_nodes": [[["add_197", 0, 0, {}]]]}, {"name": "lstm_10", "class_name": "LSTM", "config": {"name": "lstm_10", "trainable": true, "dtype": "float32", "return_sequences": false, "return_state": false, "go_backwards": false, "stateful": false, "unroll": false, "time_major": false, "units": 256, "activation": "tanh", "recurrent_activation": "hard_sigmoid", "use_bias": true, "kernel_initializer": {"class_name": "GlorotUniform", "config": {"seed": null, "dtype": "float32"}}, "recurrent_initializer": {"class_name": "Orthogonal", "config": {"gain": 1.0, "seed": null, "dtype": "float32"}}, "bias_initializer": {"class_name": "Zeros", "config": {"dtype": "float32"}}, "unit_forget_bias": true, "kernel_regularizer": null, "recurrent_regularizer": null, "bias_regularizer": null, "activity_regularizer": null, "kernel_constraint": null, "recurrent_constraint": null, "bias_constraint": null, "dropout": 0.0, "recurrent_dropout": 0.0, "implementation": 1}, "inbound_nodes": [[["activation_944", 0, 0, {}]]]}, {"name": "batch_normalization_10", "class_name": "BatchNormalization", "config": {"name": "batch_normalization_10", "trainable": true, "dtype": "float32", "axis": [1], "momentum": 0.99, "epsilon": 0.001, "center": true, "scale": true, "beta_initializer": {"class_name": "Zeros", "config": {"dtype": "float32"}}, "gamma_initializer": {"class_name": "Ones", "config": {"dtype": "float32"}}, "moving_mean_initializer": {"class_name": "Zeros", "config": {"dtype": "float32"}}, "moving_variance_initializer": {"class_name": "Ones", "config": {"dtype": "float32"}}, "beta_regularizer": null, "gamma_regularizer": null, "beta_constraint": null, "gamma_constraint": null}, "inbound_nodes": [[["lstm_10", 0, 0, {}]]]}, {"name": "activation_945", "class_name": "Activation", "config": {"name": "activation_945", "trainable": true, "dtype": "float32", "activation": "relu"}, "inbound_nodes": [[["batch_normalization_10", 0, 0, {}]]]}, {"name": "fc9", "class_name": "Dense", "config": {"name": "fc9", "trainable": true, "dtype": "float32", "units": 9, "activation": "sigmoid", "use_bias": true, "kernel_initializer": {"class_name": "GlorotUniform", "config": {"seed": null, "dtype": "float32"}}, "bias_initializer": {"class_name": "Zeros", "config": {"dtype": "float32"}}, "kernel_regularizer": null, "bias_regularizer": null, "activity_regularizer": null, "kernel_constraint": null, "bias_constraint": null}, "inbound_nodes": [[["activation_945", 0, 0, {}]]]}], "input_layers": [["input_11", 0, 0]], "output_layers": [["fc9", 0, 0]]}, "keras_version": "2.2.4-tf", "backend": "tensorflow"}