{"class_name": "Model", "config": {"name": "ResNet_Inc_LSTM", "layers": [{"name": "input_7", "class_name": "InputLayer", "config": {"batch_input_shape": [null, 2500, 12], "dtype": "float32", "sparse": false, "ragged": false, "name": "input_7"}, "inbound_nodes": []}, {"name": "conv1conv1d", "class_name": "Conv1D", "config": {"name": "conv1conv1d", "trainable": true, "dtype": "float32", "filters": 8, "kernel_size": [19], "strides": [2], "padding": "same", "data_format": "channels_last", "dilation_rate": [1], "activation": "linear", "use_bias": true, "kernel_initializer": {"class_name": "VarianceScaling", "config": {"scale": 2.0, "mode": "fan_in", "distribution": "truncated_normal", "seed": 0, "dtype": "float32"}}, "bias_initializer": {"class_name": "Zeros", "config": {"dtype": "float32"}}, "kernel_regularizer": null, "bias_regularizer": null, "activity_regularizer": null, "kernel_constraint": null, "bias_constraint": null}, "inbound_nodes": [[["input_7", 0, 0, {}]]]}, {"name": "conv1conv1dbn", "class_name": "BatchNormalization", "config": {"name": "conv1conv1dbn", "trainable": true, "dtype": "float32", "axis": [2], "momentum": 0.99, "epsilon": 0.001, "center": true, "scale": true, "beta_initializer": {"class_name": "Zeros", "config": {"dtype": "float32"}}, "gamma_initializer": {"class_name": "Ones", "config": {"dtype": "float32"}}, "moving_mean_initializer": {"class_name": "Zeros", "config": {"dtype": "float32"}}, "moving_variance_initializer": {"class_name": "Ones", "config": {"dtype": "float32"}}, "beta_regularizer": null, "gamma_regularizer": null, "beta_constraint": null, "gamma_constraint": null}, "inbound_nodes": [[["conv1conv1d", 0, 0, {}]]]}, {"name": "conv1conv1dact", "class_name": "Activation", "config": {"name": "conv1conv1dact", "trainable": true, "dtype": "float32", "activation": "relu"}, "inbound_nodes": [[["conv1conv1dbn", 0, 0, {}]]]}, {"name": "conv2conv1d", "class_name": "Conv1D", "config": {"name": "conv2conv1d", "trainable": true, "dtype": "float32", "filters": 8, "kernel_size": [19], "strides": [1], "padding": "same", "data_format": "channels_last", "dilation_rate": [1], "activation": "linear", "use_bias": true, "kernel_initializer": {"class_name": "VarianceScaling", "config": {"scale": 2.0, "mode": "fan_in", "distribution": "truncated_normal", "seed": 0, "dtype": "float32"}}, "bias_initializer": {"class_name": "Zeros", "config": {"dtype": "float32"}}, "kernel_regularizer": null, "bias_regularizer": null, "activity_regularizer": null, "kernel_constraint": null, "bias_constraint": null}, "inbound_nodes": [[["conv1conv1dact", 0, 0, {}]]]}, {"name": "conv2conv1dbn", "class_name": "BatchNormalization", "config": {"name": "conv2conv1dbn", "trainable": true, "dtype": "float32", "axis": [2], "momentum": 0.99, "epsilon": 0.001, "center": true, "scale": true, "beta_initializer": {"class_name": "Zeros", "config": {"dtype": "float32"}}, "gamma_initializer": {"class_name": "Ones", "config": {"dtype": "float32"}}, "moving_mean_initializer": {"class_name": "Zeros", "config": {"dtype": "float32"}}, "moving_variance_initializer": {"class_name": "Ones", "config": {"dtype": "float32"}}, "beta_regularizer": null, "gamma_regularizer": null, "beta_constraint": null, "gamma_constraint": null}, "inbound_nodes": [[["conv2conv1d", 0, 0, {}]]]}, {"name": "conv2conv1dact", "class_name": "Activation", "config": {"name": "conv2conv1dact", "trainable": true, "dtype": "float32", "activation": "relu"}, "inbound_nodes": [[["conv2conv1dbn", 0, 0, {}]]]}, {"name": "conv3conv1d", "class_name": "Conv1D", "config": {"name": "conv3conv1d", "trainable": true, "dtype": "float32", "filters": 16, "kernel_size": [19], "strides": [1], "padding": "same", "data_format": "channels_last", "dilation_rate": [1], "activation": "linear", "use_bias": true, "kernel_initializer": {"class_name": "VarianceScaling", "config": {"scale": 2.0, "mode": "fan_in", "distribution": "truncated_normal", "seed": 0, "dtype": "float32"}}, "bias_initializer": {"class_name": "Zeros", "config": {"dtype": "float32"}}, "kernel_regularizer": null, "bias_regularizer": null, "activity_regularizer": null, "kernel_constraint": null, "bias_constraint": null}, "inbound_nodes": [[["conv2conv1dact", 0, 0, {}]]]}, {"name": "conv3conv1dbn", "class_name": "BatchNormalization", "config": {"name": "conv3conv1dbn", "trainable": true, "dtype": "float32", "axis": [2], "momentum": 0.99, "epsilon": 0.001, "center": true, "scale": true, "beta_initializer": {"class_name": "Zeros", "config": {"dtype": "float32"}}, "gamma_initializer": {"class_name": "Ones", "config": {"dtype": "float32"}}, "moving_mean_initializer": {"class_name": "Zeros", "config": {"dtype": "float32"}}, "moving_variance_initializer": {"class_name": "Ones", "config": {"dtype": "float32"}}, "beta_regularizer": null, "gamma_regularizer": null, "beta_constraint": null, "gamma_constraint": null}, "inbound_nodes": [[["conv3conv1d", 0, 0, {}]]]}, {"name": "conv3conv1dact", "class_name": "Activation", "config": {"name": "conv3conv1dact", "trainable": true, "dtype": "float32", "activation": "relu"}, "inbound_nodes": [[["conv3conv1dbn", 0, 0, {}]]]}, {"name": "stem_br_12conv1d", "class_name": "Conv1D", "config": {"name": "stem_br_12conv1d", "trainable": true, "dtype": "float32", "filters": 16, "kernel_size": [19], "strides": [1], "padding": "same", "data_format": "channels_last", "dilation_rate": [1], "activation": "linear", "use_bias": true, "kernel_initializer": {"class_name": "VarianceScaling", "config": {"scale": 2.0, "mode": "fan_in", "distribution": "truncated_normal", "seed": 0, "dtype": "float32"}}, "bias_initializer": {"class_name": "Zeros", "config": {"dtype": "float32"}}, "kernel_regularizer": null, "bias_regularizer": null, "activity_regularizer": null, "kernel_constraint": null, "bias_constraint": null}, "inbound_nodes": [[["conv3conv1dact", 0, 0, {}]]]}, {"name": "stem_br_12conv1dbn", "class_name": "BatchNormalization", "config": {"name": "stem_br_12conv1dbn", "trainable": true, "dtype": "float32", "axis": [2], "momentum": 0.99, "epsilon": 0.001, "center": true, "scale": true, "beta_initializer": {"class_name": "Zeros", "config": {"dtype": "float32"}}, "gamma_initializer": {"class_name": "Ones", "config": {"dtype": "float32"}}, "moving_mean_initializer": {"class_name": "Zeros", "config": {"dtype": "float32"}}, "moving_variance_initializer": {"class_name": "Ones", "config": {"dtype": "float32"}}, "beta_regularizer": null, "gamma_regularizer": null, "beta_constraint": null, "gamma_constraint": null}, "inbound_nodes": [[["stem_br_12conv1d", 0, 0, {}]]]}, {"name": "stem_br_11_maxpool_1d", "class_name": "MaxPooling1D", "config": {"name": "stem_br_11_maxpool_1d", "trainable": true, "dtype": "float32", "strides": [1], "pool_size": [3], "padding": "same", "data_format": "channels_last"}, "inbound_nodes": [[["conv3conv1dact", 0, 0, {}]]]}, {"name": "stem_br_12conv1dact", "class_name": "Activation", "config": {"name": "stem_br_12conv1dact", "trainable": true, "dtype": "float32", "activation": "relu"}, "inbound_nodes": [[["stem_br_12conv1dbn", 0, 0, {}]]]}, {"name": "stem_concat_1", "class_name": "Concatenate", "config": {"name": "stem_concat_1", "trainable": true, "dtype": "float32", "axis": -1}, "inbound_nodes": [[["stem_br_11_maxpool_1d", 0, 0, {}], ["stem_br_12conv1dact", 0, 0, {}]]]}, {"name": "conv1", "class_name": "Conv1D", "config": {"name": "conv1", "trainable": true, "dtype": "float32", "filters": 16, "kernel_size": [13], "strides": [1], "padding": "same", "data_format": "channels_last", "dilation_rate": [1], "activation": "linear", "use_bias": true, "kernel_initializer": {"class_name": "VarianceScaling", "config": {"scale": 2.0, "mode": "fan_in", "distribution": "truncated_normal", "seed": 0, "dtype": "float32"}}, "bias_initializer": {"class_name": "Zeros", "config": {"dtype": "float32"}}, "kernel_regularizer": null, "bias_regularizer": null, "activity_regularizer": null, "kernel_constraint": null, "bias_constraint": null}, "inbound_nodes": [[["stem_concat_1", 0, 0, {}]]]}, {"name": "bn_conv1", "class_name": "BatchNormalization", "config": {"name": "bn_conv1", "trainable": true, "dtype": "float32", "axis": [2], "momentum": 0.99, "epsilon": 0.001, "center": true, "scale": true, "beta_initializer": {"class_name": "Zeros", "config": {"dtype": "float32"}}, "gamma_initializer": {"class_name": "Ones", "config": {"dtype": "float32"}}, "moving_mean_initializer": {"class_name": "Zeros", "config": {"dtype": "float32"}}, "moving_variance_initializer": {"class_name": "Ones", "config": {"dtype": "float32"}}, "beta_regularizer": null, "gamma_regularizer": null, "beta_constraint": null, "gamma_constraint": null}, "inbound_nodes": [[["conv1", 0, 0, {}]]]}, {"name": "activation_432", "class_name": "Activation", "config": {"name": "activation_432", "trainable": true, "dtype": "float32", "activation": "relu"}, "inbound_nodes": [[["bn_conv1", 0, 0, {}]]]}, {"name": "stem_br_12_maxpool_1d", "class_name": "MaxPooling1D", "config": {"name": "stem_br_12_maxpool_1d", "trainable": true, "dtype": "float32", "strides": [1], "pool_size": [3], "padding": "same", "data_format": "channels_last"}, "inbound_nodes": [[["activation_432", 0, 0, {}]]]}, {"name": "res2A_branch2a", "class_name": "Conv1D", "config": {"name": "res2A_branch2a", "trainable": true, "batch_input_shape": [null, null, 1250, 16], "dtype": "float32", "filters": 16, "kernel_size": [1], "strides": [1], "padding": "same", "data_format": "channels_last", "dilation_rate": [1], "activation": "linear", "use_bias": true, "kernel_initializer": {"class_name": "VarianceScaling", "config": {"scale": 2.0, "mode": "fan_in", "distribution": "truncated_normal", "seed": 0, "dtype": "float32"}}, "bias_initializer": {"class_name": "Zeros", "config": {"dtype": "float32"}}, "kernel_regularizer": null, "bias_regularizer": null, "activity_regularizer": null, "kernel_constraint": null, "bias_constraint": null}, "inbound_nodes": [[["stem_br_12_maxpool_1d", 0, 0, {}]]]}, {"name": "bn2A_branch2a", "class_name": "BatchNormalization", "config": {"name": "bn2A_branch2a", "trainable": true, "dtype": "float32", "axis": [2], "momentum": 0.99, "epsilon": 0.001, "center": true, "scale": true, "beta_initializer": {"class_name": "Zeros", "config": {"dtype": "float32"}}, "gamma_initializer": {"class_name": "Ones", "config": {"dtype": "float32"}}, "moving_mean_initializer": {"class_name": "Zeros", "config": {"dtype": "float32"}}, "moving_variance_initializer": {"class_name": "Ones", "config": {"dtype": "float32"}}, "beta_regularizer": null, "gamma_regularizer": null, "beta_constraint": null, "gamma_constraint": null}, "inbound_nodes": [[["res2A_branch2a", 0, 0, {}]]]}, {"name": "activation_433", "class_name": "Activation", "config": {"name": "activation_433", "trainable": true, "dtype": "float32", "activation": "relu"}, "inbound_nodes": [[["bn2A_branch2a", 0, 0, {}]]]}, {"name": "dropout_210", "class_name": "Dropout", "config": {"name": "dropout_210", "trainable": true, "dtype": "float32", "rate": 0.25, "noise_shape": null, "seed": null}, "inbound_nodes": [[["activation_433", 0, 0, {}]]]}, {"name": "res2A_branch1", "class_name": "Conv1D", "config": {"name": "res2A_branch1", "trainable": true, "dtype": "float32", "filters": 16, "kernel_size": [13], "strides": [1], "padding": "same", "data_format": "channels_last", "dilation_rate": [1], "activation": "linear", "use_bias": true, "kernel_initializer": {"class_name": "VarianceScaling", "config": {"scale": 2.0, "mode": "fan_in", "distribution": "truncated_normal", "seed": 0, "dtype": "float32"}}, "bias_initializer": {"class_name": "Zeros", "config": {"dtype": "float32"}}, "kernel_regularizer": null, "bias_regularizer": null, "activity_regularizer": null, "kernel_constraint": null, "bias_constraint": null}, "inbound_nodes": [[["stem_br_12_maxpool_1d", 0, 0, {}]]]}, {"name": "bn2A_branch1", "class_name": "BatchNormalization", "config": {"name": "bn2A_branch1", "trainable": true, "dtype": "float32", "axis": [2], "momentum": 0.99, "epsilon": 0.001, "center": true, "scale": true, "beta_initializer": {"class_name": "Zeros", "config": {"dtype": "float32"}}, "gamma_initializer": {"class_name": "Ones", "config": {"dtype": "float32"}}, "moving_mean_initializer": {"class_name": "Zeros", "config": {"dtype": "float32"}}, "moving_variance_initializer": {"class_name": "Ones", "config": {"dtype": "float32"}}, "beta_regularizer": null, "gamma_regularizer": null, "beta_constraint": null, "gamma_constraint": null}, "inbound_nodes": [[["res2A_branch1", 0, 0, {}]]]}, {"name": "res2A_branch4sha", "class_name": "Conv1D", "config": {"name": "res2A_branch4sha", "trainable": true, "dtype": "float32", "filters": 16, "kernel_size": [13], "strides": [1], "padding": "same", "data_format": "channels_last", "dilation_rate": [1], "activation": "linear", "use_bias": true, "kernel_initializer": {"class_name": "VarianceScaling", "config": {"scale": 2.0, "mode": "fan_in", "distribution": "truncated_normal", "seed": 0, "dtype": "float32"}}, "bias_initializer": {"class_name": "Zeros", "config": {"dtype": "float32"}}, "kernel_regularizer": null, "bias_regularizer": null, "activity_regularizer": null, "kernel_constraint": null, "bias_constraint": null}, "inbound_nodes": [[["dropout_210", 0, 0, {}]]]}, {"name": "activation_435", "class_name": "Activation", "config": {"name": "activation_435", "trainable": true, "dtype": "float32", "activation": "relu"}, "inbound_nodes": [[["bn2A_branch1", 0, 0, {}]]]}, {"name": "bn2A_branch4sha", "class_name": "BatchNormalization", "config": {"name": "bn2A_branch4sha", "trainable": true, "dtype": "float32", "axis": [2], "momentum": 0.99, "epsilon": 0.001, "center": true, "scale": true, "beta_initializer": {"class_name": "Zeros", "config": {"dtype": "float32"}}, "gamma_initializer": {"class_name": "Ones", "config": {"dtype": "float32"}}, "moving_mean_initializer": {"class_name": "Zeros", "config": {"dtype": "float32"}}, "moving_variance_initializer": {"class_name": "Ones", "config": {"dtype": "float32"}}, "beta_regularizer": null, "gamma_regularizer": null, "beta_constraint": null, "gamma_constraint": null}, "inbound_nodes": [[["res2A_branch4sha", 0, 0, {}]]]}, {"name": "res2A_branch2sha", "class_name": "Conv1D", "config": {"name": "res2A_branch2sha", "trainable": true, "dtype": "float32", "filters": 16, "kernel_size": [13], "strides": [1], "padding": "same", "data_format": "channels_last", "dilation_rate": [1], "activation": "linear", "use_bias": true, "kernel_initializer": {"class_name": "VarianceScaling", "config": {"scale": 2.0, "mode": "fan_in", "distribution": "truncated_normal", "seed": 0, "dtype": "float32"}}, "bias_initializer": {"class_name": "Zeros", "config": {"dtype": "float32"}}, "kernel_regularizer": null, "bias_regularizer": null, "activity_regularizer": null, "kernel_constraint": null, "bias_constraint": null}, "inbound_nodes": [[["activation_435", 0, 0, {}]]]}, {"name": "activation_439", "class_name": "Activation", "config": {"name": "activation_439", "trainable": true, "dtype": "float32", "activation": "relu"}, "inbound_nodes": [[["bn2A_branch4sha", 0, 0, {}]]]}, {"name": "res2A_branch2b", "class_name": "Conv1D", "config": {"name": "res2A_branch2b", "trainable": true, "dtype": "float32", "filters": 16, "kernel_size": [13], "strides": [1], "padding": "same", "data_format": "channels_last", "dilation_rate": [1], "activation": "linear", "use_bias": true, "kernel_initializer": {"class_name": "VarianceScaling", "config": {"scale": 2.0, "mode": "fan_in", "distribution": "truncated_normal", "seed": 0, "dtype": "float32"}}, "bias_initializer": {"class_name": "Zeros", "config": {"dtype": "float32"}}, "kernel_regularizer": null, "bias_regularizer": null, "activity_regularizer": null, "kernel_constraint": null, "bias_constraint": null}, "inbound_nodes": [[["dropout_210", 0, 0, {}]]]}, {"name": "bn2A_branch2sha", "class_name": "BatchNormalization", "config": {"name": "bn2A_branch2sha", "trainable": true, "dtype": "float32", "axis": [2], "momentum": 0.99, "epsilon": 0.001, "center": true, "scale": true, "beta_initializer": {"class_name": "Zeros", "config": {"dtype": "float32"}}, "gamma_initializer": {"class_name": "Ones", "config": {"dtype": "float32"}}, "moving_mean_initializer": {"class_name": "Zeros", "config": {"dtype": "float32"}}, "moving_variance_initializer": {"class_name": "Ones", "config": {"dtype": "float32"}}, "beta_regularizer": null, "gamma_regularizer": null, "beta_constraint": null, "gamma_constraint": null}, "inbound_nodes": [[["res2A_branch2sha", 0, 0, {}]]]}, {"name": "dropout_213", "class_name": "Dropout", "config": {"name": "dropout_213", "trainable": true, "dtype": "float32", "rate": 0.15, "noise_shape": null, "seed": null}, "inbound_nodes": [[["activation_439", 0, 0, {}]]]}, {"name": "bn2A_branch2b", "class_name": "BatchNormalization", "config": {"name": "bn2A_branch2b", "trainable": true, "dtype": "float32", "axis": [2], "momentum": 0.99, "epsilon": 0.001, "center": true, "scale": true, "beta_initializer": {"class_name": "Zeros", "config": {"dtype": "float32"}}, "gamma_initializer": {"class_name": "Ones", "config": {"dtype": "float32"}}, "moving_mean_initializer": {"class_name": "Zeros", "config": {"dtype": "float32"}}, "moving_variance_initializer": {"class_name": "Ones", "config": {"dtype": "float32"}}, "beta_regularizer": null, "gamma_regularizer": null, "beta_constraint": null, "gamma_constraint": null}, "inbound_nodes": [[["res2A_branch2b", 0, 0, {}]]]}, {"name": "activation_436", "class_name": "Activation", "config": {"name": "activation_436", "trainable": true, "dtype": "float32", "activation": "relu"}, "inbound_nodes": [[["bn2A_branch2sha", 0, 0, {}]]]}, {"name": "res2A_branch4shb", "class_name": "Conv1D", "config": {"name": "res2A_branch4shb", "trainable": true, "dtype": "float32", "filters": 32, "kernel_size": [13], "strides": [1], "padding": "same", "data_format": "channels_last", "dilation_rate": [1], "activation": "linear", "use_bias": true, "kernel_initializer": {"class_name": "VarianceScaling", "config": {"scale": 2.0, "mode": "fan_in", "distribution": "truncated_normal", "seed": 0, "dtype": "float32"}}, "bias_initializer": {"class_name": "Zeros", "config": {"dtype": "float32"}}, "kernel_regularizer": null, "bias_regularizer": null, "activity_regularizer": null, "kernel_constraint": null, "bias_constraint": null}, "inbound_nodes": [[["dropout_213", 0, 0, {}]]]}, {"name": "activation_434", "class_name": "Activation", "config": {"name": "activation_434", "trainable": true, "dtype": "float32", "activation": "relu"}, "inbound_nodes": [[["bn2A_branch2b", 0, 0, {}]]]}, {"name": "add_90", "class_name": "Add", "config": {"name": "add_90", "trainable": true, "dtype": "float32"}, "inbound_nodes": [[["activation_435", 0, 0, {}], ["stem_br_12_maxpool_1d", 0, 0, {}]]]}, {"name": "dropout_212", "class_name": "Dropout", "config": {"name": "dropout_212", "trainable": true, "dtype": "float32", "rate": 0.15, "noise_shape": null, "seed": null}, "inbound_nodes": [[["activation_436", 0, 0, {}]]]}, {"name": "bn2A_branch4shb", "class_name": "BatchNormalization", "config": {"name": "bn2A_branch4shb", "trainable": true, "dtype": "float32", "axis": [2], "momentum": 0.99, "epsilon": 0.001, "center": true, "scale": true, "beta_initializer": {"class_name": "Zeros", "config": {"dtype": "float32"}}, "gamma_initializer": {"class_name": "Ones", "config": {"dtype": "float32"}}, "moving_mean_initializer": {"class_name": "Zeros", "config": {"dtype": "float32"}}, "moving_variance_initializer": {"class_name": "Ones", "config": {"dtype": "float32"}}, "beta_regularizer": null, "gamma_regularizer": null, "beta_constraint": null, "gamma_constraint": null}, "inbound_nodes": [[["res2A_branch4shb", 0, 0, {}]]]}, {"name": "dropout_211", "class_name": "Dropout", "config": {"name": "dropout_211", "trainable": true, "dtype": "float32", "rate": 0.15, "noise_shape": null, "seed": null}, "inbound_nodes": [[["activation_434", 0, 0, {}]]]}, {"name": "res2A_branch3sha", "class_name": "Conv1D", "config": {"name": "res2A_branch3sha", "trainable": true, "dtype": "float32", "filters": 32, "kernel_size": [13], "strides": [1], "padding": "same", "data_format": "channels_last", "dilation_rate": [1], "activation": "linear", "use_bias": true, "kernel_initializer": {"class_name": "VarianceScaling", "config": {"scale": 2.0, "mode": "fan_in", "distribution": "truncated_normal", "seed": 0, "dtype": "float32"}}, "bias_initializer": {"class_name": "Zeros", "config": {"dtype": "float32"}}, "kernel_regularizer": null, "bias_regularizer": null, "activity_regularizer": null, "kernel_constraint": null, "bias_constraint": null}, "inbound_nodes": [[["add_90", 0, 0, {}]]]}, {"name": "res2A_branch2shb", "class_name": "Conv1D", "config": {"name": "res2A_branch2shb", "trainable": true, "dtype": "float32", "filters": 32, "kernel_size": [13], "strides": [1], "padding": "same", "data_format": "channels_last", "dilation_rate": [1], "activation": "linear", "use_bias": true, "kernel_initializer": {"class_name": "VarianceScaling", "config": {"scale": 2.0, "mode": "fan_in", "distribution": "truncated_normal", "seed": 0, "dtype": "float32"}}, "bias_initializer": {"class_name": "Zeros", "config": {"dtype": "float32"}}, "kernel_regularizer": null, "bias_regularizer": null, "activity_regularizer": null, "kernel_constraint": null, "bias_constraint": null}, "inbound_nodes": [[["dropout_212", 0, 0, {}]]]}, {"name": "activation_440", "class_name": "Activation", "config": {"name": "activation_440", "trainable": true, "dtype": "float32", "activation": "relu"}, "inbound_nodes": [[["bn2A_branch4shb", 0, 0, {}]]]}, {"name": "res2A_branch2c", "class_name": "Conv1D", "config": {"name": "res2A_branch2c", "trainable": true, "dtype": "float32", "filters": 32, "kernel_size": [1], "strides": [1], "padding": "same", "data_format": "channels_last", "dilation_rate": [1], "activation": "linear", "use_bias": true, "kernel_initializer": {"class_name": "VarianceScaling", "config": {"scale": 2.0, "mode": "fan_in", "distribution": "truncated_normal", "seed": 0, "dtype": "float32"}}, "bias_initializer": {"class_name": "Zeros", "config": {"dtype": "float32"}}, "kernel_regularizer": null, "bias_regularizer": null, "activity_regularizer": null, "kernel_constraint": null, "bias_constraint": null}, "inbound_nodes": [[["dropout_211", 0, 0, {}]]]}, {"name": "bn2A_branch3sha", "class_name": "BatchNormalization", "config": {"name": "bn2A_branch3sha", "trainable": true, "dtype": "float32", "axis": [2], "momentum": 0.99, "epsilon": 0.001, "center": true, "scale": true, "beta_initializer": {"class_name": "Zeros", "config": {"dtype": "float32"}}, "gamma_initializer": {"class_name": "Ones", "config": {"dtype": "float32"}}, "moving_mean_initializer": {"class_name": "Zeros", "config": {"dtype": "float32"}}, "moving_variance_initializer": {"class_name": "Ones", "config": {"dtype": "float32"}}, "beta_regularizer": null, "gamma_regularizer": null, "beta_constraint": null, "gamma_constraint": null}, "inbound_nodes": [[["res2A_branch3sha", 0, 0, {}]]]}, {"name": "bn2A_branch2shb", "class_name": "BatchNormalization", "config": {"name": "bn2A_branch2shb", "trainable": true, "dtype": "float32", "axis": [2], "momentum": 0.99, "epsilon": 0.001, "center": true, "scale": true, "beta_initializer": {"class_name": "Zeros", "config": {"dtype": "float32"}}, "gamma_initializer": {"class_name": "Ones", "config": {"dtype": "float32"}}, "moving_mean_initializer": {"class_name": "Zeros", "config": {"dtype": "float32"}}, "moving_variance_initializer": {"class_name": "Ones", "config": {"dtype": "float32"}}, "beta_regularizer": null, "gamma_regularizer": null, "beta_constraint": null, "gamma_constraint": null}, "inbound_nodes": [[["res2A_branch2shb", 0, 0, {}]]]}, {"name": "bn2A_branch5sha", "class_name": "BatchNormalization", "config": {"name": "bn2A_branch5sha", "trainable": true, "dtype": "float32", "axis": [2], "momentum": 0.99, "epsilon": 0.001, "center": true, "scale": true, "beta_initializer": {"class_name": "Zeros", "config": {"dtype": "float32"}}, "gamma_initializer": {"class_name": "Ones", "config": {"dtype": "float32"}}, "moving_mean_initializer": {"class_name": "Zeros", "config": {"dtype": "float32"}}, "moving_variance_initializer": {"class_name": "Ones", "config": {"dtype": "float32"}}, "beta_regularizer": null, "gamma_regularizer": null, "beta_constraint": null, "gamma_constraint": null}, "inbound_nodes": [[["activation_440", 0, 0, {}]]]}, {"name": "bn2A_branch2c", "class_name": "BatchNormalization", "config": {"name": "bn2A_branch2c", "trainable": true, "dtype": "float32", "axis": [2], "momentum": 0.99, "epsilon": 0.001, "center": true, "scale": true, "beta_initializer": {"class_name": "Zeros", "config": {"dtype": "float32"}}, "gamma_initializer": {"class_name": "Ones", "config": {"dtype": "float32"}}, "moving_mean_initializer": {"class_name": "Zeros", "config": {"dtype": "float32"}}, "moving_variance_initializer": {"class_name": "Ones", "config": {"dtype": "float32"}}, "beta_regularizer": null, "gamma_regularizer": null, "beta_constraint": null, "gamma_constraint": null}, "inbound_nodes": [[["res2A_branch2c", 0, 0, {}]]]}, {"name": "activation_438", "class_name": "Activation", "config": {"name": "activation_438", "trainable": true, "dtype": "float32", "activation": "relu"}, "inbound_nodes": [[["bn2A_branch3sha", 0, 0, {}]]]}, {"name": "activation_437", "class_name": "Activation", "config": {"name": "activation_437", "trainable": true, "dtype": "float32", "activation": "relu"}, "inbound_nodes": [[["bn2A_branch2shb", 0, 0, {}]]]}, {"name": "activation_441", "class_name": "Activation", "config": {"name": "activation_441", "trainable": true, "dtype": "float32", "activation": "relu"}, "inbound_nodes": [[["bn2A_branch5sha", 0, 0, {}]]]}, {"name": "add_91", "class_name": "Add", "config": {"name": "add_91", "trainable": true, "dtype": "float32"}, "inbound_nodes": [[["bn2A_branch2c", 0, 0, {}], ["activation_438", 0, 0, {}], ["activation_437", 0, 0, {}], ["activation_440", 0, 0, {}], ["activation_441", 0, 0, {}]]]}, {"name": "activation_442", "class_name": "Activation", "config": {"name": "activation_442", "trainable": true, "dtype": "float32", "activation": "relu"}, "inbound_nodes": [[["add_91", 0, 0, {}]]]}, {"name": "res2a_branch2a", "class_name": "Conv1D", "config": {"name": "res2a_branch2a", "trainable": true, "batch_input_shape": [null, null, 1250, 32], "dtype": "float32", "filters": 16, "kernel_size": [13], "strides": [2], "padding": "same", "data_format": "channels_last", "dilation_rate": [1], "activation": "linear", "use_bias": true, "kernel_initializer": {"class_name": "VarianceScaling", "config": {"scale": 2.0, "mode": "fan_in", "distribution": "truncated_normal", "seed": 0, "dtype": "float32"}}, "bias_initializer": {"class_name": "Zeros", "config": {"dtype": "float32"}}, "kernel_regularizer": null, "bias_regularizer": null, "activity_regularizer": null, "kernel_constraint": null, "bias_constraint": null}, "inbound_nodes": [[["activation_442", 0, 0, {}]]]}, {"name": "bn2a_branch2a", "class_name": "BatchNormalization", "config": {"name": "bn2a_branch2a", "trainable": true, "dtype": "float32", "axis": [2], "momentum": 0.99, "epsilon": 0.001, "center": true, "scale": true, "beta_initializer": {"class_name": "Zeros", "config": {"dtype": "float32"}}, "gamma_initializer": {"class_name": "Ones", "config": {"dtype": "float32"}}, "moving_mean_initializer": {"class_name": "Zeros", "config": {"dtype": "float32"}}, "moving_variance_initializer": {"class_name": "Ones", "config": {"dtype": "float32"}}, "beta_regularizer": null, "gamma_regularizer": null, "beta_constraint": null, "gamma_constraint": null}, "inbound_nodes": [[["res2a_branch2a", 0, 0, {}]]]}, {"name": "activation_443", "class_name": "Activation", "config": {"name": "activation_443", "trainable": true, "dtype": "float32", "activation": "relu"}, "inbound_nodes": [[["bn2a_branch2a", 0, 0, {}]]]}, {"name": "dropout_214", "class_name": "Dropout", "config": {"name": "dropout_214", "trainable": true, "dtype": "float32", "rate": 0.3, "noise_shape": null, "seed": null}, "inbound_nodes": [[["activation_443", 0, 0, {}]]]}, {"name": "res2a_branch2b", "class_name": "Conv1D", "config": {"name": "res2a_branch2b", "trainable": true, "dtype": "float32", "filters": 16, "kernel_size": [13], "strides": [1], "padding": "same", "data_format": "channels_last", "dilation_rate": [1], "activation": "linear", "use_bias": true, "kernel_initializer": {"class_name": "VarianceScaling", "config": {"scale": 2.0, "mode": "fan_in", "distribution": "truncated_normal", "seed": 0, "dtype": "float32"}}, "bias_initializer": {"class_name": "Zeros", "config": {"dtype": "float32"}}, "kernel_regularizer": null, "bias_regularizer": null, "activity_regularizer": null, "kernel_constraint": null, "bias_constraint": null}, "inbound_nodes": [[["dropout_214", 0, 0, {}]]]}, {"name": "activation_444", "class_name": "Activation", "config": {"name": "activation_444", "trainable": true, "dtype": "float32", "activation": "relu"}, "inbound_nodes": [[["res2a_branch2b", 0, 0, {}]]]}, {"name": "dropout_215", "class_name": "Dropout", "config": {"name": "dropout_215", "trainable": true, "dtype": "float32", "rate": 0.3, "noise_shape": null, "seed": null}, "inbound_nodes": [[["activation_444", 0, 0, {}]]]}, {"name": "res2a_branch2c", "class_name": "Conv1D", "config": {"name": "res2a_branch2c", "trainable": true, "dtype": "float32", "filters": 32, "kernel_size": [1], "strides": [1], "padding": "same", "data_format": "channels_last", "dilation_rate": [1], "activation": "linear", "use_bias": true, "kernel_initializer": {"class_name": "VarianceScaling", "config": {"scale": 2.0, "mode": "fan_in", "distribution": "truncated_normal", "seed": 0, "dtype": "float32"}}, "bias_initializer": {"class_name": "Zeros", "config": {"dtype": "float32"}}, "kernel_regularizer": null, "bias_regularizer": null, "activity_regularizer": null, "kernel_constraint": null, "bias_constraint": null}, "inbound_nodes": [[["dropout_215", 0, 0, {}]]]}, {"name": "bn2a_branch2c", "class_name": "BatchNormalization", "config": {"name": "bn2a_branch2c", "trainable": true, "dtype": "float32", "axis": [2], "momentum": 0.99, "epsilon": 0.001, "center": true, "scale": true, "beta_initializer": {"class_name": "Zeros", "config": {"dtype": "float32"}}, "gamma_initializer": {"class_name": "Ones", "config": {"dtype": "float32"}}, "moving_mean_initializer": {"class_name": "Zeros", "config": {"dtype": "float32"}}, "moving_variance_initializer": {"class_name": "Ones", "config": {"dtype": "float32"}}, "beta_regularizer": null, "gamma_regularizer": null, "beta_constraint": null, "gamma_constraint": null}, "inbound_nodes": [[["res2a_branch2c", 0, 0, {}]]]}, {"name": "activation_445", "class_name": "Activation", "config": {"name": "activation_445", "trainable": true, "dtype": "float32", "activation": "relu"}, "inbound_nodes": [[["bn2a_branch2c", 0, 0, {}]]]}, {"name": "res2a_branch1", "class_name": "Conv1D", "config": {"name": "res2a_branch1", "trainable": true, "dtype": "float32", "filters": 32, "kernel_size": [1], "strides": [2], "padding": "same", "data_format": "channels_last", "dilation_rate": [1], "activation": "linear", "use_bias": true, "kernel_initializer": {"class_name": "VarianceScaling", "config": {"scale": 2.0, "mode": "fan_in", "distribution": "truncated_normal", "seed": 0, "dtype": "float32"}}, "bias_initializer": {"class_name": "Zeros", "config": {"dtype": "float32"}}, "kernel_regularizer": null, "bias_regularizer": null, "activity_regularizer": null, "kernel_constraint": null, "bias_constraint": null}, "inbound_nodes": [[["activation_442", 0, 0, {}]]]}, {"name": "dropout_216", "class_name": "Dropout", "config": {"name": "dropout_216", "trainable": true, "dtype": "float32", "rate": 0.3, "noise_shape": null, "seed": null}, "inbound_nodes": [[["activation_445", 0, 0, {}]]]}, {"name": "bn2a_branch1", "class_name": "BatchNormalization", "config": {"name": "bn2a_branch1", "trainable": true, "dtype": "float32", "axis": [2], "momentum": 0.99, "epsilon": 0.001, "center": true, "scale": true, "beta_initializer": {"class_name": "Zeros", "config": {"dtype": "float32"}}, "gamma_initializer": {"class_name": "Ones", "config": {"dtype": "float32"}}, "moving_mean_initializer": {"class_name": "Zeros", "config": {"dtype": "float32"}}, "moving_variance_initializer": {"class_name": "Ones", "config": {"dtype": "float32"}}, "beta_regularizer": null, "gamma_regularizer": null, "beta_constraint": null, "gamma_constraint": null}, "inbound_nodes": [[["res2a_branch1", 0, 0, {}]]]}, {"name": "add_92", "class_name": "Add", "config": {"name": "add_92", "trainable": true, "dtype": "float32"}, "inbound_nodes": [[["dropout_216", 0, 0, {}], ["bn2a_branch1", 0, 0, {}]]]}, {"name": "activation_446", "class_name": "Activation", "config": {"name": "activation_446", "trainable": true, "dtype": "float32", "activation": "relu"}, "inbound_nodes": [[["add_92", 0, 0, {}]]]}, {"name": "res3A_branch2a", "class_name": "Conv1D", "config": {"name": "res3A_branch2a", "trainable": true, "batch_input_shape": [null, null, 625, 32], "dtype": "float32", "filters": 32, "kernel_size": [1], "strides": [1], "padding": "same", "data_format": "channels_last", "dilation_rate": [1], "activation": "linear", "use_bias": true, "kernel_initializer": {"class_name": "VarianceScaling", "config": {"scale": 2.0, "mode": "fan_in", "distribution": "truncated_normal", "seed": 0, "dtype": "float32"}}, "bias_initializer": {"class_name": "Zeros", "config": {"dtype": "float32"}}, "kernel_regularizer": null, "bias_regularizer": null, "activity_regularizer": null, "kernel_constraint": null, "bias_constraint": null}, "inbound_nodes": [[["activation_446", 0, 0, {}]]]}, {"name": "bn3A_branch2a", "class_name": "BatchNormalization", "config": {"name": "bn3A_branch2a", "trainable": true, "dtype": "float32", "axis": [2], "momentum": 0.99, "epsilon": 0.001, "center": true, "scale": true, "beta_initializer": {"class_name": "Zeros", "config": {"dtype": "float32"}}, "gamma_initializer": {"class_name": "Ones", "config": {"dtype": "float32"}}, "moving_mean_initializer": {"class_name": "Zeros", "config": {"dtype": "float32"}}, "moving_variance_initializer": {"class_name": "Ones", "config": {"dtype": "float32"}}, "beta_regularizer": null, "gamma_regularizer": null, "beta_constraint": null, "gamma_constraint": null}, "inbound_nodes": [[["res3A_branch2a", 0, 0, {}]]]}, {"name": "activation_447", "class_name": "Activation", "config": {"name": "activation_447", "trainable": true, "dtype": "float32", "activation": "relu"}, "inbound_nodes": [[["bn3A_branch2a", 0, 0, {}]]]}, {"name": "dropout_217", "class_name": "Dropout", "config": {"name": "dropout_217", "trainable": true, "dtype": "float32", "rate": 0.25, "noise_shape": null, "seed": null}, "inbound_nodes": [[["activation_447", 0, 0, {}]]]}, {"name": "res3A_branch1", "class_name": "Conv1D", "config": {"name": "res3A_branch1", "trainable": true, "dtype": "float32", "filters": 32, "kernel_size": [9], "strides": [1], "padding": "same", "data_format": "channels_last", "dilation_rate": [1], "activation": "linear", "use_bias": true, "kernel_initializer": {"class_name": "VarianceScaling", "config": {"scale": 2.0, "mode": "fan_in", "distribution": "truncated_normal", "seed": 0, "dtype": "float32"}}, "bias_initializer": {"class_name": "Zeros", "config": {"dtype": "float32"}}, "kernel_regularizer": null, "bias_regularizer": null, "activity_regularizer": null, "kernel_constraint": null, "bias_constraint": null}, "inbound_nodes": [[["activation_446", 0, 0, {}]]]}, {"name": "bn3A_branch1", "class_name": "BatchNormalization", "config": {"name": "bn3A_branch1", "trainable": true, "dtype": "float32", "axis": [2], "momentum": 0.99, "epsilon": 0.001, "center": true, "scale": true, "beta_initializer": {"class_name": "Zeros", "config": {"dtype": "float32"}}, "gamma_initializer": {"class_name": "Ones", "config": {"dtype": "float32"}}, "moving_mean_initializer": {"class_name": "Zeros", "config": {"dtype": "float32"}}, "moving_variance_initializer": {"class_name": "Ones", "config": {"dtype": "float32"}}, "beta_regularizer": null, "gamma_regularizer": null, "beta_constraint": null, "gamma_constraint": null}, "inbound_nodes": [[["res3A_branch1", 0, 0, {}]]]}, {"name": "res3A_branch4sha", "class_name": "Conv1D", "config": {"name": "res3A_branch4sha", "trainable": true, "dtype": "float32", "filters": 32, "kernel_size": [9], "strides": [1], "padding": "same", "data_format": "channels_last", "dilation_rate": [1], "activation": "linear", "use_bias": true, "kernel_initializer": {"class_name": "VarianceScaling", "config": {"scale": 2.0, "mode": "fan_in", "distribution": "truncated_normal", "seed": 0, "dtype": "float32"}}, "bias_initializer": {"class_name": "Zeros", "config": {"dtype": "float32"}}, "kernel_regularizer": null, "bias_regularizer": null, "activity_regularizer": null, "kernel_constraint": null, "bias_constraint": null}, "inbound_nodes": [[["dropout_217", 0, 0, {}]]]}, {"name": "activation_449", "class_name": "Activation", "config": {"name": "activation_449", "trainable": true, "dtype": "float32", "activation": "relu"}, "inbound_nodes": [[["bn3A_branch1", 0, 0, {}]]]}, {"name": "bn3A_branch4sha", "class_name": "BatchNormalization", "config": {"name": "bn3A_branch4sha", "trainable": true, "dtype": "float32", "axis": [2], "momentum": 0.99, "epsilon": 0.001, "center": true, "scale": true, "beta_initializer": {"class_name": "Zeros", "config": {"dtype": "float32"}}, "gamma_initializer": {"class_name": "Ones", "config": {"dtype": "float32"}}, "moving_mean_initializer": {"class_name": "Zeros", "config": {"dtype": "float32"}}, "moving_variance_initializer": {"class_name": "Ones", "config": {"dtype": "float32"}}, "beta_regularizer": null, "gamma_regularizer": null, "beta_constraint": null, "gamma_constraint": null}, "inbound_nodes": [[["res3A_branch4sha", 0, 0, {}]]]}, {"name": "res3A_branch2sha", "class_name": "Conv1D", "config": {"name": "res3A_branch2sha", "trainable": true, "dtype": "float32", "filters": 32, "kernel_size": [9], "strides": [1], "padding": "same", "data_format": "channels_last", "dilation_rate": [1], "activation": "linear", "use_bias": true, "kernel_initializer": {"class_name": "VarianceScaling", "config": {"scale": 2.0, "mode": "fan_in", "distribution": "truncated_normal", "seed": 0, "dtype": "float32"}}, "bias_initializer": {"class_name": "Zeros", "config": {"dtype": "float32"}}, "kernel_regularizer": null, "bias_regularizer": null, "activity_regularizer": null, "kernel_constraint": null, "bias_constraint": null}, "inbound_nodes": [[["activation_449", 0, 0, {}]]]}, {"name": "activation_453", "class_name": "Activation", "config": {"name": "activation_453", "trainable": true, "dtype": "float32", "activation": "relu"}, "inbound_nodes": [[["bn3A_branch4sha", 0, 0, {}]]]}, {"name": "res3A_branch2b", "class_name": "Conv1D", "config": {"name": "res3A_branch2b", "trainable": true, "dtype": "float32", "filters": 32, "kernel_size": [9], "strides": [1], "padding": "same", "data_format": "channels_last", "dilation_rate": [1], "activation": "linear", "use_bias": true, "kernel_initializer": {"class_name": "VarianceScaling", "config": {"scale": 2.0, "mode": "fan_in", "distribution": "truncated_normal", "seed": 0, "dtype": "float32"}}, "bias_initializer": {"class_name": "Zeros", "config": {"dtype": "float32"}}, "kernel_regularizer": null, "bias_regularizer": null, "activity_regularizer": null, "kernel_constraint": null, "bias_constraint": null}, "inbound_nodes": [[["dropout_217", 0, 0, {}]]]}, {"name": "bn3A_branch2sha", "class_name": "BatchNormalization", "config": {"name": "bn3A_branch2sha", "trainable": true, "dtype": "float32", "axis": [2], "momentum": 0.99, "epsilon": 0.001, "center": true, "scale": true, "beta_initializer": {"class_name": "Zeros", "config": {"dtype": "float32"}}, "gamma_initializer": {"class_name": "Ones", "config": {"dtype": "float32"}}, "moving_mean_initializer": {"class_name": "Zeros", "config": {"dtype": "float32"}}, "moving_variance_initializer": {"class_name": "Ones", "config": {"dtype": "float32"}}, "beta_regularizer": null, "gamma_regularizer": null, "beta_constraint": null, "gamma_constraint": null}, "inbound_nodes": [[["res3A_branch2sha", 0, 0, {}]]]}, {"name": "dropout_220", "class_name": "Dropout", "config": {"name": "dropout_220", "trainable": true, "dtype": "float32", "rate": 0.15, "noise_shape": null, "seed": null}, "inbound_nodes": [[["activation_453", 0, 0, {}]]]}, {"name": "bn3A_branch2b", "class_name": "BatchNormalization", "config": {"name": "bn3A_branch2b", "trainable": true, "dtype": "float32", "axis": [2], "momentum": 0.99, "epsilon": 0.001, "center": true, "scale": true, "beta_initializer": {"class_name": "Zeros", "config": {"dtype": "float32"}}, "gamma_initializer": {"class_name": "Ones", "config": {"dtype": "float32"}}, "moving_mean_initializer": {"class_name": "Zeros", "config": {"dtype": "float32"}}, "moving_variance_initializer": {"class_name": "Ones", "config": {"dtype": "float32"}}, "beta_regularizer": null, "gamma_regularizer": null, "beta_constraint": null, "gamma_constraint": null}, "inbound_nodes": [[["res3A_branch2b", 0, 0, {}]]]}, {"name": "activation_450", "class_name": "Activation", "config": {"name": "activation_450", "trainable": true, "dtype": "float32", "activation": "relu"}, "inbound_nodes": [[["bn3A_branch2sha", 0, 0, {}]]]}, {"name": "res3A_branch4shb", "class_name": "Conv1D", "config": {"name": "res3A_branch4shb", "trainable": true, "dtype": "float32", "filters": 64, "kernel_size": [9], "strides": [1], "padding": "same", "data_format": "channels_last", "dilation_rate": [1], "activation": "linear", "use_bias": true, "kernel_initializer": {"class_name": "VarianceScaling", "config": {"scale": 2.0, "mode": "fan_in", "distribution": "truncated_normal", "seed": 0, "dtype": "float32"}}, "bias_initializer": {"class_name": "Zeros", "config": {"dtype": "float32"}}, "kernel_regularizer": null, "bias_regularizer": null, "activity_regularizer": null, "kernel_constraint": null, "bias_constraint": null}, "inbound_nodes": [[["dropout_220", 0, 0, {}]]]}, {"name": "activation_448", "class_name": "Activation", "config": {"name": "activation_448", "trainable": true, "dtype": "float32", "activation": "relu"}, "inbound_nodes": [[["bn3A_branch2b", 0, 0, {}]]]}, {"name": "add_93", "class_name": "Add", "config": {"name": "add_93", "trainable": true, "dtype": "float32"}, "inbound_nodes": [[["activation_449", 0, 0, {}], ["activation_446", 0, 0, {}]]]}, {"name": "dropout_219", "class_name": "Dropout", "config": {"name": "dropout_219", "trainable": true, "dtype": "float32", "rate": 0.15, "noise_shape": null, "seed": null}, "inbound_nodes": [[["activation_450", 0, 0, {}]]]}, {"name": "bn3A_branch4shb", "class_name": "BatchNormalization", "config": {"name": "bn3A_branch4shb", "trainable": true, "dtype": "float32", "axis": [2], "momentum": 0.99, "epsilon": 0.001, "center": true, "scale": true, "beta_initializer": {"class_name": "Zeros", "config": {"dtype": "float32"}}, "gamma_initializer": {"class_name": "Ones", "config": {"dtype": "float32"}}, "moving_mean_initializer": {"class_name": "Zeros", "config": {"dtype": "float32"}}, "moving_variance_initializer": {"class_name": "Ones", "config": {"dtype": "float32"}}, "beta_regularizer": null, "gamma_regularizer": null, "beta_constraint": null, "gamma_constraint": null}, "inbound_nodes": [[["res3A_branch4shb", 0, 0, {}]]]}, {"name": "dropout_218", "class_name": "Dropout", "config": {"name": "dropout_218", "trainable": true, "dtype": "float32", "rate": 0.15, "noise_shape": null, "seed": null}, "inbound_nodes": [[["activation_448", 0, 0, {}]]]}, {"name": "res3A_branch3sha", "class_name": "Conv1D", "config": {"name": "res3A_branch3sha", "trainable": true, "dtype": "float32", "filters": 64, "kernel_size": [9], "strides": [1], "padding": "same", "data_format": "channels_last", "dilation_rate": [1], "activation": "linear", "use_bias": true, "kernel_initializer": {"class_name": "VarianceScaling", "config": {"scale": 2.0, "mode": "fan_in", "distribution": "truncated_normal", "seed": 0, "dtype": "float32"}}, "bias_initializer": {"class_name": "Zeros", "config": {"dtype": "float32"}}, "kernel_regularizer": null, "bias_regularizer": null, "activity_regularizer": null, "kernel_constraint": null, "bias_constraint": null}, "inbound_nodes": [[["add_93", 0, 0, {}]]]}, {"name": "res3A_branch2shb", "class_name": "Conv1D", "config": {"name": "res3A_branch2shb", "trainable": true, "dtype": "float32", "filters": 64, "kernel_size": [9], "strides": [1], "padding": "same", "data_format": "channels_last", "dilation_rate": [1], "activation": "linear", "use_bias": true, "kernel_initializer": {"class_name": "VarianceScaling", "config": {"scale": 2.0, "mode": "fan_in", "distribution": "truncated_normal", "seed": 0, "dtype": "float32"}}, "bias_initializer": {"class_name": "Zeros", "config": {"dtype": "float32"}}, "kernel_regularizer": null, "bias_regularizer": null, "activity_regularizer": null, "kernel_constraint": null, "bias_constraint": null}, "inbound_nodes": [[["dropout_219", 0, 0, {}]]]}, {"name": "activation_454", "class_name": "Activation", "config": {"name": "activation_454", "trainable": true, "dtype": "float32", "activation": "relu"}, "inbound_nodes": [[["bn3A_branch4shb", 0, 0, {}]]]}, {"name": "res3A_branch2c", "class_name": "Conv1D", "config": {"name": "res3A_branch2c", "trainable": true, "dtype": "float32", "filters": 64, "kernel_size": [1], "strides": [1], "padding": "same", "data_format": "channels_last", "dilation_rate": [1], "activation": "linear", "use_bias": true, "kernel_initializer": {"class_name": "VarianceScaling", "config": {"scale": 2.0, "mode": "fan_in", "distribution": "truncated_normal", "seed": 0, "dtype": "float32"}}, "bias_initializer": {"class_name": "Zeros", "config": {"dtype": "float32"}}, "kernel_regularizer": null, "bias_regularizer": null, "activity_regularizer": null, "kernel_constraint": null, "bias_constraint": null}, "inbound_nodes": [[["dropout_218", 0, 0, {}]]]}, {"name": "bn3A_branch3sha", "class_name": "BatchNormalization", "config": {"name": "bn3A_branch3sha", "trainable": true, "dtype": "float32", "axis": [2], "momentum": 0.99, "epsilon": 0.001, "center": true, "scale": true, "beta_initializer": {"class_name": "Zeros", "config": {"dtype": "float32"}}, "gamma_initializer": {"class_name": "Ones", "config": {"dtype": "float32"}}, "moving_mean_initializer": {"class_name": "Zeros", "config": {"dtype": "float32"}}, "moving_variance_initializer": {"class_name": "Ones", "config": {"dtype": "float32"}}, "beta_regularizer": null, "gamma_regularizer": null, "beta_constraint": null, "gamma_constraint": null}, "inbound_nodes": [[["res3A_branch3sha", 0, 0, {}]]]}, {"name": "bn3A_branch2shb", "class_name": "BatchNormalization", "config": {"name": "bn3A_branch2shb", "trainable": true, "dtype": "float32", "axis": [2], "momentum": 0.99, "epsilon": 0.001, "center": true, "scale": true, "beta_initializer": {"class_name": "Zeros", "config": {"dtype": "float32"}}, "gamma_initializer": {"class_name": "Ones", "config": {"dtype": "float32"}}, "moving_mean_initializer": {"class_name": "Zeros", "config": {"dtype": "float32"}}, "moving_variance_initializer": {"class_name": "Ones", "config": {"dtype": "float32"}}, "beta_regularizer": null, "gamma_regularizer": null, "beta_constraint": null, "gamma_constraint": null}, "inbound_nodes": [[["res3A_branch2shb", 0, 0, {}]]]}, {"name": "bn3A_branch5sha", "class_name": "BatchNormalization", "config": {"name": "bn3A_branch5sha", "trainable": true, "dtype": "float32", "axis": [2], "momentum": 0.99, "epsilon": 0.001, "center": true, "scale": true, "beta_initializer": {"class_name": "Zeros", "config": {"dtype": "float32"}}, "gamma_initializer": {"class_name": "Ones", "config": {"dtype": "float32"}}, "moving_mean_initializer": {"class_name": "Zeros", "config": {"dtype": "float32"}}, "moving_variance_initializer": {"class_name": "Ones", "config": {"dtype": "float32"}}, "beta_regularizer": null, "gamma_regularizer": null, "beta_constraint": null, "gamma_constraint": null}, "inbound_nodes": [[["activation_454", 0, 0, {}]]]}, {"name": "bn3A_branch2c", "class_name": "BatchNormalization", "config": {"name": "bn3A_branch2c", "trainable": true, "dtype": "float32", "axis": [2], "momentum": 0.99, "epsilon": 0.001, "center": true, "scale": true, "beta_initializer": {"class_name": "Zeros", "config": {"dtype": "float32"}}, "gamma_initializer": {"class_name": "Ones", "config": {"dtype": "float32"}}, "moving_mean_initializer": {"class_name": "Zeros", "config": {"dtype": "float32"}}, "moving_variance_initializer": {"class_name": "Ones", "config": {"dtype": "float32"}}, "beta_regularizer": null, "gamma_regularizer": null, "beta_constraint": null, "gamma_constraint": null}, "inbound_nodes": [[["res3A_branch2c", 0, 0, {}]]]}, {"name": "activation_452", "class_name": "Activation", "config": {"name": "activation_452", "trainable": true, "dtype": "float32", "activation": "relu"}, "inbound_nodes": [[["bn3A_branch3sha", 0, 0, {}]]]}, {"name": "activation_451", "class_name": "Activation", "config": {"name": "activation_451", "trainable": true, "dtype": "float32", "activation": "relu"}, "inbound_nodes": [[["bn3A_branch2shb", 0, 0, {}]]]}, {"name": "activation_455", "class_name": "Activation", "config": {"name": "activation_455", "trainable": true, "dtype": "float32", "activation": "relu"}, "inbound_nodes": [[["bn3A_branch5sha", 0, 0, {}]]]}, {"name": "add_94", "class_name": "Add", "config": {"name": "add_94", "trainable": true, "dtype": "float32"}, "inbound_nodes": [[["bn3A_branch2c", 0, 0, {}], ["activation_452", 0, 0, {}], ["activation_451", 0, 0, {}], ["activation_454", 0, 0, {}], ["activation_455", 0, 0, {}]]]}, {"name": "activation_456", "class_name": "Activation", "config": {"name": "activation_456", "trainable": true, "dtype": "float32", "activation": "relu"}, "inbound_nodes": [[["add_94", 0, 0, {}]]]}, {"name": "res3a_branch2a", "class_name": "Conv1D", "config": {"name": "res3a_branch2a", "trainable": true, "batch_input_shape": [null, null, 625, 64], "dtype": "float32", "filters": 32, "kernel_size": [9], "strides": [2], "padding": "same", "data_format": "channels_last", "dilation_rate": [1], "activation": "linear", "use_bias": true, "kernel_initializer": {"class_name": "VarianceScaling", "config": {"scale": 2.0, "mode": "fan_in", "distribution": "truncated_normal", "seed": 0, "dtype": "float32"}}, "bias_initializer": {"class_name": "Zeros", "config": {"dtype": "float32"}}, "kernel_regularizer": null, "bias_regularizer": null, "activity_regularizer": null, "kernel_constraint": null, "bias_constraint": null}, "inbound_nodes": [[["activation_456", 0, 0, {}]]]}, {"name": "bn3a_branch2a", "class_name": "BatchNormalization", "config": {"name": "bn3a_branch2a", "trainable": true, "dtype": "float32", "axis": [2], "momentum": 0.99, "epsilon": 0.001, "center": true, "scale": true, "beta_initializer": {"class_name": "Zeros", "config": {"dtype": "float32"}}, "gamma_initializer": {"class_name": "Ones", "config": {"dtype": "float32"}}, "moving_mean_initializer": {"class_name": "Zeros", "config": {"dtype": "float32"}}, "moving_variance_initializer": {"class_name": "Ones", "config": {"dtype": "float32"}}, "beta_regularizer": null, "gamma_regularizer": null, "beta_constraint": null, "gamma_constraint": null}, "inbound_nodes": [[["res3a_branch2a", 0, 0, {}]]]}, {"name": "activation_457", "class_name": "Activation", "config": {"name": "activation_457", "trainable": true, "dtype": "float32", "activation": "relu"}, "inbound_nodes": [[["bn3a_branch2a", 0, 0, {}]]]}, {"name": "dropout_221", "class_name": "Dropout", "config": {"name": "dropout_221", "trainable": true, "dtype": "float32", "rate": 0.3, "noise_shape": null, "seed": null}, "inbound_nodes": [[["activation_457", 0, 0, {}]]]}, {"name": "res3a_branch2b", "class_name": "Conv1D", "config": {"name": "res3a_branch2b", "trainable": true, "dtype": "float32", "filters": 32, "kernel_size": [9], "strides": [1], "padding": "same", "data_format": "channels_last", "dilation_rate": [1], "activation": "linear", "use_bias": true, "kernel_initializer": {"class_name": "VarianceScaling", "config": {"scale": 2.0, "mode": "fan_in", "distribution": "truncated_normal", "seed": 0, "dtype": "float32"}}, "bias_initializer": {"class_name": "Zeros", "config": {"dtype": "float32"}}, "kernel_regularizer": null, "bias_regularizer": null, "activity_regularizer": null, "kernel_constraint": null, "bias_constraint": null}, "inbound_nodes": [[["dropout_221", 0, 0, {}]]]}, {"name": "activation_458", "class_name": "Activation", "config": {"name": "activation_458", "trainable": true, "dtype": "float32", "activation": "relu"}, "inbound_nodes": [[["res3a_branch2b", 0, 0, {}]]]}, {"name": "dropout_222", "class_name": "Dropout", "config": {"name": "dropout_222", "trainable": true, "dtype": "float32", "rate": 0.3, "noise_shape": null, "seed": null}, "inbound_nodes": [[["activation_458", 0, 0, {}]]]}, {"name": "res3a_branch2c", "class_name": "Conv1D", "config": {"name": "res3a_branch2c", "trainable": true, "dtype": "float32", "filters": 64, "kernel_size": [1], "strides": [1], "padding": "same", "data_format": "channels_last", "dilation_rate": [1], "activation": "linear", "use_bias": true, "kernel_initializer": {"class_name": "VarianceScaling", "config": {"scale": 2.0, "mode": "fan_in", "distribution": "truncated_normal", "seed": 0, "dtype": "float32"}}, "bias_initializer": {"class_name": "Zeros", "config": {"dtype": "float32"}}, "kernel_regularizer": null, "bias_regularizer": null, "activity_regularizer": null, "kernel_constraint": null, "bias_constraint": null}, "inbound_nodes": [[["dropout_222", 0, 0, {}]]]}, {"name": "bn3a_branch2c", "class_name": "BatchNormalization", "config": {"name": "bn3a_branch2c", "trainable": true, "dtype": "float32", "axis": [2], "momentum": 0.99, "epsilon": 0.001, "center": true, "scale": true, "beta_initializer": {"class_name": "Zeros", "config": {"dtype": "float32"}}, "gamma_initializer": {"class_name": "Ones", "config": {"dtype": "float32"}}, "moving_mean_initializer": {"class_name": "Zeros", "config": {"dtype": "float32"}}, "moving_variance_initializer": {"class_name": "Ones", "config": {"dtype": "float32"}}, "beta_regularizer": null, "gamma_regularizer": null, "beta_constraint": null, "gamma_constraint": null}, "inbound_nodes": [[["res3a_branch2c", 0, 0, {}]]]}, {"name": "activation_459", "class_name": "Activation", "config": {"name": "activation_459", "trainable": true, "dtype": "float32", "activation": "relu"}, "inbound_nodes": [[["bn3a_branch2c", 0, 0, {}]]]}, {"name": "res3a_branch1", "class_name": "Conv1D", "config": {"name": "res3a_branch1", "trainable": true, "dtype": "float32", "filters": 64, "kernel_size": [1], "strides": [2], "padding": "same", "data_format": "channels_last", "dilation_rate": [1], "activation": "linear", "use_bias": true, "kernel_initializer": {"class_name": "VarianceScaling", "config": {"scale": 2.0, "mode": "fan_in", "distribution": "truncated_normal", "seed": 0, "dtype": "float32"}}, "bias_initializer": {"class_name": "Zeros", "config": {"dtype": "float32"}}, "kernel_regularizer": null, "bias_regularizer": null, "activity_regularizer": null, "kernel_constraint": null, "bias_constraint": null}, "inbound_nodes": [[["activation_456", 0, 0, {}]]]}, {"name": "dropout_223", "class_name": "Dropout", "config": {"name": "dropout_223", "trainable": true, "dtype": "float32", "rate": 0.3, "noise_shape": null, "seed": null}, "inbound_nodes": [[["activation_459", 0, 0, {}]]]}, {"name": "bn3a_branch1", "class_name": "BatchNormalization", "config": {"name": "bn3a_branch1", "trainable": true, "dtype": "float32", "axis": [2], "momentum": 0.99, "epsilon": 0.001, "center": true, "scale": true, "beta_initializer": {"class_name": "Zeros", "config": {"dtype": "float32"}}, "gamma_initializer": {"class_name": "Ones", "config": {"dtype": "float32"}}, "moving_mean_initializer": {"class_name": "Zeros", "config": {"dtype": "float32"}}, "moving_variance_initializer": {"class_name": "Ones", "config": {"dtype": "float32"}}, "beta_regularizer": null, "gamma_regularizer": null, "beta_constraint": null, "gamma_constraint": null}, "inbound_nodes": [[["res3a_branch1", 0, 0, {}]]]}, {"name": "add_95", "class_name": "Add", "config": {"name": "add_95", "trainable": true, "dtype": "float32"}, "inbound_nodes": [[["dropout_223", 0, 0, {}], ["bn3a_branch1", 0, 0, {}]]]}, {"name": "activation_460", "class_name": "Activation", "config": {"name": "activation_460", "trainable": true, "dtype": "float32", "activation": "relu"}, "inbound_nodes": [[["add_95", 0, 0, {}]]]}, {"name": "res4A_branch2a", "class_name": "Conv1D", "config": {"name": "res4A_branch2a", "trainable": true, "batch_input_shape": [null, null, 313, 64], "dtype": "float32", "filters": 64, "kernel_size": [1], "strides": [1], "padding": "same", "data_format": "channels_last", "dilation_rate": [1], "activation": "linear", "use_bias": true, "kernel_initializer": {"class_name": "VarianceScaling", "config": {"scale": 2.0, "mode": "fan_in", "distribution": "truncated_normal", "seed": 0, "dtype": "float32"}}, "bias_initializer": {"class_name": "Zeros", "config": {"dtype": "float32"}}, "kernel_regularizer": null, "bias_regularizer": null, "activity_regularizer": null, "kernel_constraint": null, "bias_constraint": null}, "inbound_nodes": [[["activation_460", 0, 0, {}]]]}, {"name": "bn4A_branch2a", "class_name": "BatchNormalization", "config": {"name": "bn4A_branch2a", "trainable": true, "dtype": "float32", "axis": [2], "momentum": 0.99, "epsilon": 0.001, "center": true, "scale": true, "beta_initializer": {"class_name": "Zeros", "config": {"dtype": "float32"}}, "gamma_initializer": {"class_name": "Ones", "config": {"dtype": "float32"}}, "moving_mean_initializer": {"class_name": "Zeros", "config": {"dtype": "float32"}}, "moving_variance_initializer": {"class_name": "Ones", "config": {"dtype": "float32"}}, "beta_regularizer": null, "gamma_regularizer": null, "beta_constraint": null, "gamma_constraint": null}, "inbound_nodes": [[["res4A_branch2a", 0, 0, {}]]]}, {"name": "activation_461", "class_name": "Activation", "config": {"name": "activation_461", "trainable": true, "dtype": "float32", "activation": "relu"}, "inbound_nodes": [[["bn4A_branch2a", 0, 0, {}]]]}, {"name": "dropout_224", "class_name": "Dropout", "config": {"name": "dropout_224", "trainable": true, "dtype": "float32", "rate": 0.25, "noise_shape": null, "seed": null}, "inbound_nodes": [[["activation_461", 0, 0, {}]]]}, {"name": "res4A_branch1", "class_name": "Conv1D", "config": {"name": "res4A_branch1", "trainable": true, "dtype": "float32", "filters": 64, "kernel_size": [7], "strides": [1], "padding": "same", "data_format": "channels_last", "dilation_rate": [1], "activation": "linear", "use_bias": true, "kernel_initializer": {"class_name": "VarianceScaling", "config": {"scale": 2.0, "mode": "fan_in", "distribution": "truncated_normal", "seed": 0, "dtype": "float32"}}, "bias_initializer": {"class_name": "Zeros", "config": {"dtype": "float32"}}, "kernel_regularizer": null, "bias_regularizer": null, "activity_regularizer": null, "kernel_constraint": null, "bias_constraint": null}, "inbound_nodes": [[["activation_460", 0, 0, {}]]]}, {"name": "bn4A_branch1", "class_name": "BatchNormalization", "config": {"name": "bn4A_branch1", "trainable": true, "dtype": "float32", "axis": [2], "momentum": 0.99, "epsilon": 0.001, "center": true, "scale": true, "beta_initializer": {"class_name": "Zeros", "config": {"dtype": "float32"}}, "gamma_initializer": {"class_name": "Ones", "config": {"dtype": "float32"}}, "moving_mean_initializer": {"class_name": "Zeros", "config": {"dtype": "float32"}}, "moving_variance_initializer": {"class_name": "Ones", "config": {"dtype": "float32"}}, "beta_regularizer": null, "gamma_regularizer": null, "beta_constraint": null, "gamma_constraint": null}, "inbound_nodes": [[["res4A_branch1", 0, 0, {}]]]}, {"name": "res4A_branch4sha", "class_name": "Conv1D", "config": {"name": "res4A_branch4sha", "trainable": true, "dtype": "float32", "filters": 64, "kernel_size": [7], "strides": [1], "padding": "same", "data_format": "channels_last", "dilation_rate": [1], "activation": "linear", "use_bias": true, "kernel_initializer": {"class_name": "VarianceScaling", "config": {"scale": 2.0, "mode": "fan_in", "distribution": "truncated_normal", "seed": 0, "dtype": "float32"}}, "bias_initializer": {"class_name": "Zeros", "config": {"dtype": "float32"}}, "kernel_regularizer": null, "bias_regularizer": null, "activity_regularizer": null, "kernel_constraint": null, "bias_constraint": null}, "inbound_nodes": [[["dropout_224", 0, 0, {}]]]}, {"name": "activation_463", "class_name": "Activation", "config": {"name": "activation_463", "trainable": true, "dtype": "float32", "activation": "relu"}, "inbound_nodes": [[["bn4A_branch1", 0, 0, {}]]]}, {"name": "bn4A_branch4sha", "class_name": "BatchNormalization", "config": {"name": "bn4A_branch4sha", "trainable": true, "dtype": "float32", "axis": [2], "momentum": 0.99, "epsilon": 0.001, "center": true, "scale": true, "beta_initializer": {"class_name": "Zeros", "config": {"dtype": "float32"}}, "gamma_initializer": {"class_name": "Ones", "config": {"dtype": "float32"}}, "moving_mean_initializer": {"class_name": "Zeros", "config": {"dtype": "float32"}}, "moving_variance_initializer": {"class_name": "Ones", "config": {"dtype": "float32"}}, "beta_regularizer": null, "gamma_regularizer": null, "beta_constraint": null, "gamma_constraint": null}, "inbound_nodes": [[["res4A_branch4sha", 0, 0, {}]]]}, {"name": "res4A_branch2sha", "class_name": "Conv1D", "config": {"name": "res4A_branch2sha", "trainable": true, "dtype": "float32", "filters": 64, "kernel_size": [7], "strides": [1], "padding": "same", "data_format": "channels_last", "dilation_rate": [1], "activation": "linear", "use_bias": true, "kernel_initializer": {"class_name": "VarianceScaling", "config": {"scale": 2.0, "mode": "fan_in", "distribution": "truncated_normal", "seed": 0, "dtype": "float32"}}, "bias_initializer": {"class_name": "Zeros", "config": {"dtype": "float32"}}, "kernel_regularizer": null, "bias_regularizer": null, "activity_regularizer": null, "kernel_constraint": null, "bias_constraint": null}, "inbound_nodes": [[["activation_463", 0, 0, {}]]]}, {"name": "activation_467", "class_name": "Activation", "config": {"name": "activation_467", "trainable": true, "dtype": "float32", "activation": "relu"}, "inbound_nodes": [[["bn4A_branch4sha", 0, 0, {}]]]}, {"name": "res4A_branch2b", "class_name": "Conv1D", "config": {"name": "res4A_branch2b", "trainable": true, "dtype": "float32", "filters": 64, "kernel_size": [7], "strides": [1], "padding": "same", "data_format": "channels_last", "dilation_rate": [1], "activation": "linear", "use_bias": true, "kernel_initializer": {"class_name": "VarianceScaling", "config": {"scale": 2.0, "mode": "fan_in", "distribution": "truncated_normal", "seed": 0, "dtype": "float32"}}, "bias_initializer": {"class_name": "Zeros", "config": {"dtype": "float32"}}, "kernel_regularizer": null, "bias_regularizer": null, "activity_regularizer": null, "kernel_constraint": null, "bias_constraint": null}, "inbound_nodes": [[["dropout_224", 0, 0, {}]]]}, {"name": "bn4A_branch2sha", "class_name": "BatchNormalization", "config": {"name": "bn4A_branch2sha", "trainable": true, "dtype": "float32", "axis": [2], "momentum": 0.99, "epsilon": 0.001, "center": true, "scale": true, "beta_initializer": {"class_name": "Zeros", "config": {"dtype": "float32"}}, "gamma_initializer": {"class_name": "Ones", "config": {"dtype": "float32"}}, "moving_mean_initializer": {"class_name": "Zeros", "config": {"dtype": "float32"}}, "moving_variance_initializer": {"class_name": "Ones", "config": {"dtype": "float32"}}, "beta_regularizer": null, "gamma_regularizer": null, "beta_constraint": null, "gamma_constraint": null}, "inbound_nodes": [[["res4A_branch2sha", 0, 0, {}]]]}, {"name": "dropout_227", "class_name": "Dropout", "config": {"name": "dropout_227", "trainable": true, "dtype": "float32", "rate": 0.15, "noise_shape": null, "seed": null}, "inbound_nodes": [[["activation_467", 0, 0, {}]]]}, {"name": "bn4A_branch2b", "class_name": "BatchNormalization", "config": {"name": "bn4A_branch2b", "trainable": true, "dtype": "float32", "axis": [2], "momentum": 0.99, "epsilon": 0.001, "center": true, "scale": true, "beta_initializer": {"class_name": "Zeros", "config": {"dtype": "float32"}}, "gamma_initializer": {"class_name": "Ones", "config": {"dtype": "float32"}}, "moving_mean_initializer": {"class_name": "Zeros", "config": {"dtype": "float32"}}, "moving_variance_initializer": {"class_name": "Ones", "config": {"dtype": "float32"}}, "beta_regularizer": null, "gamma_regularizer": null, "beta_constraint": null, "gamma_constraint": null}, "inbound_nodes": [[["res4A_branch2b", 0, 0, {}]]]}, {"name": "activation_464", "class_name": "Activation", "config": {"name": "activation_464", "trainable": true, "dtype": "float32", "activation": "relu"}, "inbound_nodes": [[["bn4A_branch2sha", 0, 0, {}]]]}, {"name": "res4A_branch4shb", "class_name": "Conv1D", "config": {"name": "res4A_branch4shb", "trainable": true, "dtype": "float32", "filters": 128, "kernel_size": [7], "strides": [1], "padding": "same", "data_format": "channels_last", "dilation_rate": [1], "activation": "linear", "use_bias": true, "kernel_initializer": {"class_name": "VarianceScaling", "config": {"scale": 2.0, "mode": "fan_in", "distribution": "truncated_normal", "seed": 0, "dtype": "float32"}}, "bias_initializer": {"class_name": "Zeros", "config": {"dtype": "float32"}}, "kernel_regularizer": null, "bias_regularizer": null, "activity_regularizer": null, "kernel_constraint": null, "bias_constraint": null}, "inbound_nodes": [[["dropout_227", 0, 0, {}]]]}, {"name": "activation_462", "class_name": "Activation", "config": {"name": "activation_462", "trainable": true, "dtype": "float32", "activation": "relu"}, "inbound_nodes": [[["bn4A_branch2b", 0, 0, {}]]]}, {"name": "add_96", "class_name": "Add", "config": {"name": "add_96", "trainable": true, "dtype": "float32"}, "inbound_nodes": [[["activation_463", 0, 0, {}], ["activation_460", 0, 0, {}]]]}, {"name": "dropout_226", "class_name": "Dropout", "config": {"name": "dropout_226", "trainable": true, "dtype": "float32", "rate": 0.15, "noise_shape": null, "seed": null}, "inbound_nodes": [[["activation_464", 0, 0, {}]]]}, {"name": "bn4A_branch4shb", "class_name": "BatchNormalization", "config": {"name": "bn4A_branch4shb", "trainable": true, "dtype": "float32", "axis": [2], "momentum": 0.99, "epsilon": 0.001, "center": true, "scale": true, "beta_initializer": {"class_name": "Zeros", "config": {"dtype": "float32"}}, "gamma_initializer": {"class_name": "Ones", "config": {"dtype": "float32"}}, "moving_mean_initializer": {"class_name": "Zeros", "config": {"dtype": "float32"}}, "moving_variance_initializer": {"class_name": "Ones", "config": {"dtype": "float32"}}, "beta_regularizer": null, "gamma_regularizer": null, "beta_constraint": null, "gamma_constraint": null}, "inbound_nodes": [[["res4A_branch4shb", 0, 0, {}]]]}, {"name": "dropout_225", "class_name": "Dropout", "config": {"name": "dropout_225", "trainable": true, "dtype": "float32", "rate": 0.15, "noise_shape": null, "seed": null}, "inbound_nodes": [[["activation_462", 0, 0, {}]]]}, {"name": "res4A_branch3sha", "class_name": "Conv1D", "config": {"name": "res4A_branch3sha", "trainable": true, "dtype": "float32", "filters": 128, "kernel_size": [7], "strides": [1], "padding": "same", "data_format": "channels_last", "dilation_rate": [1], "activation": "linear", "use_bias": true, "kernel_initializer": {"class_name": "VarianceScaling", "config": {"scale": 2.0, "mode": "fan_in", "distribution": "truncated_normal", "seed": 0, "dtype": "float32"}}, "bias_initializer": {"class_name": "Zeros", "config": {"dtype": "float32"}}, "kernel_regularizer": null, "bias_regularizer": null, "activity_regularizer": null, "kernel_constraint": null, "bias_constraint": null}, "inbound_nodes": [[["add_96", 0, 0, {}]]]}, {"name": "res4A_branch2shb", "class_name": "Conv1D", "config": {"name": "res4A_branch2shb", "trainable": true, "dtype": "float32", "filters": 128, "kernel_size": [7], "strides": [1], "padding": "same", "data_format": "channels_last", "dilation_rate": [1], "activation": "linear", "use_bias": true, "kernel_initializer": {"class_name": "VarianceScaling", "config": {"scale": 2.0, "mode": "fan_in", "distribution": "truncated_normal", "seed": 0, "dtype": "float32"}}, "bias_initializer": {"class_name": "Zeros", "config": {"dtype": "float32"}}, "kernel_regularizer": null, "bias_regularizer": null, "activity_regularizer": null, "kernel_constraint": null, "bias_constraint": null}, "inbound_nodes": [[["dropout_226", 0, 0, {}]]]}, {"name": "activation_468", "class_name": "Activation", "config": {"name": "activation_468", "trainable": true, "dtype": "float32", "activation": "relu"}, "inbound_nodes": [[["bn4A_branch4shb", 0, 0, {}]]]}, {"name": "res4A_branch2c", "class_name": "Conv1D", "config": {"name": "res4A_branch2c", "trainable": true, "dtype": "float32", "filters": 128, "kernel_size": [1], "strides": [1], "padding": "same", "data_format": "channels_last", "dilation_rate": [1], "activation": "linear", "use_bias": true, "kernel_initializer": {"class_name": "VarianceScaling", "config": {"scale": 2.0, "mode": "fan_in", "distribution": "truncated_normal", "seed": 0, "dtype": "float32"}}, "bias_initializer": {"class_name": "Zeros", "config": {"dtype": "float32"}}, "kernel_regularizer": null, "bias_regularizer": null, "activity_regularizer": null, "kernel_constraint": null, "bias_constraint": null}, "inbound_nodes": [[["dropout_225", 0, 0, {}]]]}, {"name": "bn4A_branch3sha", "class_name": "BatchNormalization", "config": {"name": "bn4A_branch3sha", "trainable": true, "dtype": "float32", "axis": [2], "momentum": 0.99, "epsilon": 0.001, "center": true, "scale": true, "beta_initializer": {"class_name": "Zeros", "config": {"dtype": "float32"}}, "gamma_initializer": {"class_name": "Ones", "config": {"dtype": "float32"}}, "moving_mean_initializer": {"class_name": "Zeros", "config": {"dtype": "float32"}}, "moving_variance_initializer": {"class_name": "Ones", "config": {"dtype": "float32"}}, "beta_regularizer": null, "gamma_regularizer": null, "beta_constraint": null, "gamma_constraint": null}, "inbound_nodes": [[["res4A_branch3sha", 0, 0, {}]]]}, {"name": "bn4A_branch2shb", "class_name": "BatchNormalization", "config": {"name": "bn4A_branch2shb", "trainable": true, "dtype": "float32", "axis": [2], "momentum": 0.99, "epsilon": 0.001, "center": true, "scale": true, "beta_initializer": {"class_name": "Zeros", "config": {"dtype": "float32"}}, "gamma_initializer": {"class_name": "Ones", "config": {"dtype": "float32"}}, "moving_mean_initializer": {"class_name": "Zeros", "config": {"dtype": "float32"}}, "moving_variance_initializer": {"class_name": "Ones", "config": {"dtype": "float32"}}, "beta_regularizer": null, "gamma_regularizer": null, "beta_constraint": null, "gamma_constraint": null}, "inbound_nodes": [[["res4A_branch2shb", 0, 0, {}]]]}, {"name": "bn4A_branch5sha", "class_name": "BatchNormalization", "config": {"name": "bn4A_branch5sha", "trainable": true, "dtype": "float32", "axis": [2], "momentum": 0.99, "epsilon": 0.001, "center": true, "scale": true, "beta_initializer": {"class_name": "Zeros", "config": {"dtype": "float32"}}, "gamma_initializer": {"class_name": "Ones", "config": {"dtype": "float32"}}, "moving_mean_initializer": {"class_name": "Zeros", "config": {"dtype": "float32"}}, "moving_variance_initializer": {"class_name": "Ones", "config": {"dtype": "float32"}}, "beta_regularizer": null, "gamma_regularizer": null, "beta_constraint": null, "gamma_constraint": null}, "inbound_nodes": [[["activation_468", 0, 0, {}]]]}, {"name": "bn4A_branch2c", "class_name": "BatchNormalization", "config": {"name": "bn4A_branch2c", "trainable": true, "dtype": "float32", "axis": [2], "momentum": 0.99, "epsilon": 0.001, "center": true, "scale": true, "beta_initializer": {"class_name": "Zeros", "config": {"dtype": "float32"}}, "gamma_initializer": {"class_name": "Ones", "config": {"dtype": "float32"}}, "moving_mean_initializer": {"class_name": "Zeros", "config": {"dtype": "float32"}}, "moving_variance_initializer": {"class_name": "Ones", "config": {"dtype": "float32"}}, "beta_regularizer": null, "gamma_regularizer": null, "beta_constraint": null, "gamma_constraint": null}, "inbound_nodes": [[["res4A_branch2c", 0, 0, {}]]]}, {"name": "activation_466", "class_name": "Activation", "config": {"name": "activation_466", "trainable": true, "dtype": "float32", "activation": "relu"}, "inbound_nodes": [[["bn4A_branch3sha", 0, 0, {}]]]}, {"name": "activation_465", "class_name": "Activation", "config": {"name": "activation_465", "trainable": true, "dtype": "float32", "activation": "relu"}, "inbound_nodes": [[["bn4A_branch2shb", 0, 0, {}]]]}, {"name": "activation_469", "class_name": "Activation", "config": {"name": "activation_469", "trainable": true, "dtype": "float32", "activation": "relu"}, "inbound_nodes": [[["bn4A_branch5sha", 0, 0, {}]]]}, {"name": "add_97", "class_name": "Add", "config": {"name": "add_97", "trainable": true, "dtype": "float32"}, "inbound_nodes": [[["bn4A_branch2c", 0, 0, {}], ["activation_466", 0, 0, {}], ["activation_465", 0, 0, {}], ["activation_468", 0, 0, {}], ["activation_469", 0, 0, {}]]]}, {"name": "activation_470", "class_name": "Activation", "config": {"name": "activation_470", "trainable": true, "dtype": "float32", "activation": "relu"}, "inbound_nodes": [[["add_97", 0, 0, {}]]]}, {"name": "res4a_branch2a", "class_name": "Conv1D", "config": {"name": "res4a_branch2a", "trainable": true, "batch_input_shape": [null, null, 313, 128], "dtype": "float32", "filters": 64, "kernel_size": [7], "strides": [2], "padding": "same", "data_format": "channels_last", "dilation_rate": [1], "activation": "linear", "use_bias": true, "kernel_initializer": {"class_name": "VarianceScaling", "config": {"scale": 2.0, "mode": "fan_in", "distribution": "truncated_normal", "seed": 0, "dtype": "float32"}}, "bias_initializer": {"class_name": "Zeros", "config": {"dtype": "float32"}}, "kernel_regularizer": null, "bias_regularizer": null, "activity_regularizer": null, "kernel_constraint": null, "bias_constraint": null}, "inbound_nodes": [[["activation_470", 0, 0, {}]]]}, {"name": "bn4a_branch2a", "class_name": "BatchNormalization", "config": {"name": "bn4a_branch2a", "trainable": true, "dtype": "float32", "axis": [2], "momentum": 0.99, "epsilon": 0.001, "center": true, "scale": true, "beta_initializer": {"class_name": "Zeros", "config": {"dtype": "float32"}}, "gamma_initializer": {"class_name": "Ones", "config": {"dtype": "float32"}}, "moving_mean_initializer": {"class_name": "Zeros", "config": {"dtype": "float32"}}, "moving_variance_initializer": {"class_name": "Ones", "config": {"dtype": "float32"}}, "beta_regularizer": null, "gamma_regularizer": null, "beta_constraint": null, "gamma_constraint": null}, "inbound_nodes": [[["res4a_branch2a", 0, 0, {}]]]}, {"name": "activation_471", "class_name": "Activation", "config": {"name": "activation_471", "trainable": true, "dtype": "float32", "activation": "relu"}, "inbound_nodes": [[["bn4a_branch2a", 0, 0, {}]]]}, {"name": "dropout_228", "class_name": "Dropout", "config": {"name": "dropout_228", "trainable": true, "dtype": "float32", "rate": 0.3, "noise_shape": null, "seed": null}, "inbound_nodes": [[["activation_471", 0, 0, {}]]]}, {"name": "res4a_branch2b", "class_name": "Conv1D", "config": {"name": "res4a_branch2b", "trainable": true, "dtype": "float32", "filters": 64, "kernel_size": [7], "strides": [1], "padding": "same", "data_format": "channels_last", "dilation_rate": [1], "activation": "linear", "use_bias": true, "kernel_initializer": {"class_name": "VarianceScaling", "config": {"scale": 2.0, "mode": "fan_in", "distribution": "truncated_normal", "seed": 0, "dtype": "float32"}}, "bias_initializer": {"class_name": "Zeros", "config": {"dtype": "float32"}}, "kernel_regularizer": null, "bias_regularizer": null, "activity_regularizer": null, "kernel_constraint": null, "bias_constraint": null}, "inbound_nodes": [[["dropout_228", 0, 0, {}]]]}, {"name": "activation_472", "class_name": "Activation", "config": {"name": "activation_472", "trainable": true, "dtype": "float32", "activation": "relu"}, "inbound_nodes": [[["res4a_branch2b", 0, 0, {}]]]}, {"name": "dropout_229", "class_name": "Dropout", "config": {"name": "dropout_229", "trainable": true, "dtype": "float32", "rate": 0.3, "noise_shape": null, "seed": null}, "inbound_nodes": [[["activation_472", 0, 0, {}]]]}, {"name": "res4a_branch2c", "class_name": "Conv1D", "config": {"name": "res4a_branch2c", "trainable": true, "dtype": "float32", "filters": 128, "kernel_size": [1], "strides": [1], "padding": "same", "data_format": "channels_last", "dilation_rate": [1], "activation": "linear", "use_bias": true, "kernel_initializer": {"class_name": "VarianceScaling", "config": {"scale": 2.0, "mode": "fan_in", "distribution": "truncated_normal", "seed": 0, "dtype": "float32"}}, "bias_initializer": {"class_name": "Zeros", "config": {"dtype": "float32"}}, "kernel_regularizer": null, "bias_regularizer": null, "activity_regularizer": null, "kernel_constraint": null, "bias_constraint": null}, "inbound_nodes": [[["dropout_229", 0, 0, {}]]]}, {"name": "bn4a_branch2c", "class_name": "BatchNormalization", "config": {"name": "bn4a_branch2c", "trainable": true, "dtype": "float32", "axis": [2], "momentum": 0.99, "epsilon": 0.001, "center": true, "scale": true, "beta_initializer": {"class_name": "Zeros", "config": {"dtype": "float32"}}, "gamma_initializer": {"class_name": "Ones", "config": {"dtype": "float32"}}, "moving_mean_initializer": {"class_name": "Zeros", "config": {"dtype": "float32"}}, "moving_variance_initializer": {"class_name": "Ones", "config": {"dtype": "float32"}}, "beta_regularizer": null, "gamma_regularizer": null, "beta_constraint": null, "gamma_constraint": null}, "inbound_nodes": [[["res4a_branch2c", 0, 0, {}]]]}, {"name": "activation_473", "class_name": "Activation", "config": {"name": "activation_473", "trainable": true, "dtype": "float32", "activation": "relu"}, "inbound_nodes": [[["bn4a_branch2c", 0, 0, {}]]]}, {"name": "res4a_branch1", "class_name": "Conv1D", "config": {"name": "res4a_branch1", "trainable": true, "dtype": "float32", "filters": 128, "kernel_size": [1], "strides": [2], "padding": "same", "data_format": "channels_last", "dilation_rate": [1], "activation": "linear", "use_bias": true, "kernel_initializer": {"class_name": "VarianceScaling", "config": {"scale": 2.0, "mode": "fan_in", "distribution": "truncated_normal", "seed": 0, "dtype": "float32"}}, "bias_initializer": {"class_name": "Zeros", "config": {"dtype": "float32"}}, "kernel_regularizer": null, "bias_regularizer": null, "activity_regularizer": null, "kernel_constraint": null, "bias_constraint": null}, "inbound_nodes": [[["activation_470", 0, 0, {}]]]}, {"name": "dropout_230", "class_name": "Dropout", "config": {"name": "dropout_230", "trainable": true, "dtype": "float32", "rate": 0.3, "noise_shape": null, "seed": null}, "inbound_nodes": [[["activation_473", 0, 0, {}]]]}, {"name": "bn4a_branch1", "class_name": "BatchNormalization", "config": {"name": "bn4a_branch1", "trainable": true, "dtype": "float32", "axis": [2], "momentum": 0.99, "epsilon": 0.001, "center": true, "scale": true, "beta_initializer": {"class_name": "Zeros", "config": {"dtype": "float32"}}, "gamma_initializer": {"class_name": "Ones", "config": {"dtype": "float32"}}, "moving_mean_initializer": {"class_name": "Zeros", "config": {"dtype": "float32"}}, "moving_variance_initializer": {"class_name": "Ones", "config": {"dtype": "float32"}}, "beta_regularizer": null, "gamma_regularizer": null, "beta_constraint": null, "gamma_constraint": null}, "inbound_nodes": [[["res4a_branch1", 0, 0, {}]]]}, {"name": "add_98", "class_name": "Add", "config": {"name": "add_98", "trainable": true, "dtype": "float32"}, "inbound_nodes": [[["dropout_230", 0, 0, {}], ["bn4a_branch1", 0, 0, {}]]]}, {"name": "activation_474", "class_name": "Activation", "config": {"name": "activation_474", "trainable": true, "dtype": "float32", "activation": "relu"}, "inbound_nodes": [[["add_98", 0, 0, {}]]]}, {"name": "res5A_branch2a", "class_name": "Conv1D", "config": {"name": "res5A_branch2a", "trainable": true, "batch_input_shape": [null, null, 157, 128], "dtype": "float32", "filters": 128, "kernel_size": [1], "strides": [1], "padding": "same", "data_format": "channels_last", "dilation_rate": [1], "activation": "linear", "use_bias": true, "kernel_initializer": {"class_name": "VarianceScaling", "config": {"scale": 2.0, "mode": "fan_in", "distribution": "truncated_normal", "seed": 0, "dtype": "float32"}}, "bias_initializer": {"class_name": "Zeros", "config": {"dtype": "float32"}}, "kernel_regularizer": null, "bias_regularizer": null, "activity_regularizer": null, "kernel_constraint": null, "bias_constraint": null}, "inbound_nodes": [[["activation_474", 0, 0, {}]]]}, {"name": "bn5A_branch2a", "class_name": "BatchNormalization", "config": {"name": "bn5A_branch2a", "trainable": true, "dtype": "float32", "axis": [2], "momentum": 0.99, "epsilon": 0.001, "center": true, "scale": true, "beta_initializer": {"class_name": "Zeros", "config": {"dtype": "float32"}}, "gamma_initializer": {"class_name": "Ones", "config": {"dtype": "float32"}}, "moving_mean_initializer": {"class_name": "Zeros", "config": {"dtype": "float32"}}, "moving_variance_initializer": {"class_name": "Ones", "config": {"dtype": "float32"}}, "beta_regularizer": null, "gamma_regularizer": null, "beta_constraint": null, "gamma_constraint": null}, "inbound_nodes": [[["res5A_branch2a", 0, 0, {}]]]}, {"name": "activation_475", "class_name": "Activation", "config": {"name": "activation_475", "trainable": true, "dtype": "float32", "activation": "relu"}, "inbound_nodes": [[["bn5A_branch2a", 0, 0, {}]]]}, {"name": "dropout_231", "class_name": "Dropout", "config": {"name": "dropout_231", "trainable": true, "dtype": "float32", "rate": 0.25, "noise_shape": null, "seed": null}, "inbound_nodes": [[["activation_475", 0, 0, {}]]]}, {"name": "res5A_branch1", "class_name": "Conv1D", "config": {"name": "res5A_branch1", "trainable": true, "dtype": "float32", "filters": 128, "kernel_size": [5], "strides": [1], "padding": "same", "data_format": "channels_last", "dilation_rate": [1], "activation": "linear", "use_bias": true, "kernel_initializer": {"class_name": "VarianceScaling", "config": {"scale": 2.0, "mode": "fan_in", "distribution": "truncated_normal", "seed": 0, "dtype": "float32"}}, "bias_initializer": {"class_name": "Zeros", "config": {"dtype": "float32"}}, "kernel_regularizer": null, "bias_regularizer": null, "activity_regularizer": null, "kernel_constraint": null, "bias_constraint": null}, "inbound_nodes": [[["activation_474", 0, 0, {}]]]}, {"name": "bn5A_branch1", "class_name": "BatchNormalization", "config": {"name": "bn5A_branch1", "trainable": true, "dtype": "float32", "axis": [2], "momentum": 0.99, "epsilon": 0.001, "center": true, "scale": true, "beta_initializer": {"class_name": "Zeros", "config": {"dtype": "float32"}}, "gamma_initializer": {"class_name": "Ones", "config": {"dtype": "float32"}}, "moving_mean_initializer": {"class_name": "Zeros", "config": {"dtype": "float32"}}, "moving_variance_initializer": {"class_name": "Ones", "config": {"dtype": "float32"}}, "beta_regularizer": null, "gamma_regularizer": null, "beta_constraint": null, "gamma_constraint": null}, "inbound_nodes": [[["res5A_branch1", 0, 0, {}]]]}, {"name": "res5A_branch4sha", "class_name": "Conv1D", "config": {"name": "res5A_branch4sha", "trainable": true, "dtype": "float32", "filters": 128, "kernel_size": [5], "strides": [1], "padding": "same", "data_format": "channels_last", "dilation_rate": [1], "activation": "linear", "use_bias": true, "kernel_initializer": {"class_name": "VarianceScaling", "config": {"scale": 2.0, "mode": "fan_in", "distribution": "truncated_normal", "seed": 0, "dtype": "float32"}}, "bias_initializer": {"class_name": "Zeros", "config": {"dtype": "float32"}}, "kernel_regularizer": null, "bias_regularizer": null, "activity_regularizer": null, "kernel_constraint": null, "bias_constraint": null}, "inbound_nodes": [[["dropout_231", 0, 0, {}]]]}, {"name": "activation_477", "class_name": "Activation", "config": {"name": "activation_477", "trainable": true, "dtype": "float32", "activation": "relu"}, "inbound_nodes": [[["bn5A_branch1", 0, 0, {}]]]}, {"name": "bn5A_branch4sha", "class_name": "BatchNormalization", "config": {"name": "bn5A_branch4sha", "trainable": true, "dtype": "float32", "axis": [2], "momentum": 0.99, "epsilon": 0.001, "center": true, "scale": true, "beta_initializer": {"class_name": "Zeros", "config": {"dtype": "float32"}}, "gamma_initializer": {"class_name": "Ones", "config": {"dtype": "float32"}}, "moving_mean_initializer": {"class_name": "Zeros", "config": {"dtype": "float32"}}, "moving_variance_initializer": {"class_name": "Ones", "config": {"dtype": "float32"}}, "beta_regularizer": null, "gamma_regularizer": null, "beta_constraint": null, "gamma_constraint": null}, "inbound_nodes": [[["res5A_branch4sha", 0, 0, {}]]]}, {"name": "res5A_branch2sha", "class_name": "Conv1D", "config": {"name": "res5A_branch2sha", "trainable": true, "dtype": "float32", "filters": 128, "kernel_size": [5], "strides": [1], "padding": "same", "data_format": "channels_last", "dilation_rate": [1], "activation": "linear", "use_bias": true, "kernel_initializer": {"class_name": "VarianceScaling", "config": {"scale": 2.0, "mode": "fan_in", "distribution": "truncated_normal", "seed": 0, "dtype": "float32"}}, "bias_initializer": {"class_name": "Zeros", "config": {"dtype": "float32"}}, "kernel_regularizer": null, "bias_regularizer": null, "activity_regularizer": null, "kernel_constraint": null, "bias_constraint": null}, "inbound_nodes": [[["activation_477", 0, 0, {}]]]}, {"name": "activation_481", "class_name": "Activation", "config": {"name": "activation_481", "trainable": true, "dtype": "float32", "activation": "relu"}, "inbound_nodes": [[["bn5A_branch4sha", 0, 0, {}]]]}, {"name": "res5A_branch2b", "class_name": "Conv1D", "config": {"name": "res5A_branch2b", "trainable": true, "dtype": "float32", "filters": 128, "kernel_size": [5], "strides": [1], "padding": "same", "data_format": "channels_last", "dilation_rate": [1], "activation": "linear", "use_bias": true, "kernel_initializer": {"class_name": "VarianceScaling", "config": {"scale": 2.0, "mode": "fan_in", "distribution": "truncated_normal", "seed": 0, "dtype": "float32"}}, "bias_initializer": {"class_name": "Zeros", "config": {"dtype": "float32"}}, "kernel_regularizer": null, "bias_regularizer": null, "activity_regularizer": null, "kernel_constraint": null, "bias_constraint": null}, "inbound_nodes": [[["dropout_231", 0, 0, {}]]]}, {"name": "bn5A_branch2sha", "class_name": "BatchNormalization", "config": {"name": "bn5A_branch2sha", "trainable": true, "dtype": "float32", "axis": [2], "momentum": 0.99, "epsilon": 0.001, "center": true, "scale": true, "beta_initializer": {"class_name": "Zeros", "config": {"dtype": "float32"}}, "gamma_initializer": {"class_name": "Ones", "config": {"dtype": "float32"}}, "moving_mean_initializer": {"class_name": "Zeros", "config": {"dtype": "float32"}}, "moving_variance_initializer": {"class_name": "Ones", "config": {"dtype": "float32"}}, "beta_regularizer": null, "gamma_regularizer": null, "beta_constraint": null, "gamma_constraint": null}, "inbound_nodes": [[["res5A_branch2sha", 0, 0, {}]]]}, {"name": "dropout_234", "class_name": "Dropout", "config": {"name": "dropout_234", "trainable": true, "dtype": "float32", "rate": 0.15, "noise_shape": null, "seed": null}, "inbound_nodes": [[["activation_481", 0, 0, {}]]]}, {"name": "bn5A_branch2b", "class_name": "BatchNormalization", "config": {"name": "bn5A_branch2b", "trainable": true, "dtype": "float32", "axis": [2], "momentum": 0.99, "epsilon": 0.001, "center": true, "scale": true, "beta_initializer": {"class_name": "Zeros", "config": {"dtype": "float32"}}, "gamma_initializer": {"class_name": "Ones", "config": {"dtype": "float32"}}, "moving_mean_initializer": {"class_name": "Zeros", "config": {"dtype": "float32"}}, "moving_variance_initializer": {"class_name": "Ones", "config": {"dtype": "float32"}}, "beta_regularizer": null, "gamma_regularizer": null, "beta_constraint": null, "gamma_constraint": null}, "inbound_nodes": [[["res5A_branch2b", 0, 0, {}]]]}, {"name": "activation_478", "class_name": "Activation", "config": {"name": "activation_478", "trainable": true, "dtype": "float32", "activation": "relu"}, "inbound_nodes": [[["bn5A_branch2sha", 0, 0, {}]]]}, {"name": "res5A_branch4shb", "class_name": "Conv1D", "config": {"name": "res5A_branch4shb", "trainable": true, "dtype": "float32", "filters": 256, "kernel_size": [5], "strides": [1], "padding": "same", "data_format": "channels_last", "dilation_rate": [1], "activation": "linear", "use_bias": true, "kernel_initializer": {"class_name": "VarianceScaling", "config": {"scale": 2.0, "mode": "fan_in", "distribution": "truncated_normal", "seed": 0, "dtype": "float32"}}, "bias_initializer": {"class_name": "Zeros", "config": {"dtype": "float32"}}, "kernel_regularizer": null, "bias_regularizer": null, "activity_regularizer": null, "kernel_constraint": null, "bias_constraint": null}, "inbound_nodes": [[["dropout_234", 0, 0, {}]]]}, {"name": "activation_476", "class_name": "Activation", "config": {"name": "activation_476", "trainable": true, "dtype": "float32", "activation": "relu"}, "inbound_nodes": [[["bn5A_branch2b", 0, 0, {}]]]}, {"name": "add_99", "class_name": "Add", "config": {"name": "add_99", "trainable": true, "dtype": "float32"}, "inbound_nodes": [[["activation_477", 0, 0, {}], ["activation_474", 0, 0, {}]]]}, {"name": "dropout_233", "class_name": "Dropout", "config": {"name": "dropout_233", "trainable": true, "dtype": "float32", "rate": 0.15, "noise_shape": null, "seed": null}, "inbound_nodes": [[["activation_478", 0, 0, {}]]]}, {"name": "bn5A_branch4shb", "class_name": "BatchNormalization", "config": {"name": "bn5A_branch4shb", "trainable": true, "dtype": "float32", "axis": [2], "momentum": 0.99, "epsilon": 0.001, "center": true, "scale": true, "beta_initializer": {"class_name": "Zeros", "config": {"dtype": "float32"}}, "gamma_initializer": {"class_name": "Ones", "config": {"dtype": "float32"}}, "moving_mean_initializer": {"class_name": "Zeros", "config": {"dtype": "float32"}}, "moving_variance_initializer": {"class_name": "Ones", "config": {"dtype": "float32"}}, "beta_regularizer": null, "gamma_regularizer": null, "beta_constraint": null, "gamma_constraint": null}, "inbound_nodes": [[["res5A_branch4shb", 0, 0, {}]]]}, {"name": "dropout_232", "class_name": "Dropout", "config": {"name": "dropout_232", "trainable": true, "dtype": "float32", "rate": 0.15, "noise_shape": null, "seed": null}, "inbound_nodes": [[["activation_476", 0, 0, {}]]]}, {"name": "res5A_branch3sha", "class_name": "Conv1D", "config": {"name": "res5A_branch3sha", "trainable": true, "dtype": "float32", "filters": 256, "kernel_size": [5], "strides": [1], "padding": "same", "data_format": "channels_last", "dilation_rate": [1], "activation": "linear", "use_bias": true, "kernel_initializer": {"class_name": "VarianceScaling", "config": {"scale": 2.0, "mode": "fan_in", "distribution": "truncated_normal", "seed": 0, "dtype": "float32"}}, "bias_initializer": {"class_name": "Zeros", "config": {"dtype": "float32"}}, "kernel_regularizer": null, "bias_regularizer": null, "activity_regularizer": null, "kernel_constraint": null, "bias_constraint": null}, "inbound_nodes": [[["add_99", 0, 0, {}]]]}, {"name": "res5A_branch2shb", "class_name": "Conv1D", "config": {"name": "res5A_branch2shb", "trainable": true, "dtype": "float32", "filters": 256, "kernel_size": [5], "strides": [1], "padding": "same", "data_format": "channels_last", "dilation_rate": [1], "activation": "linear", "use_bias": true, "kernel_initializer": {"class_name": "VarianceScaling", "config": {"scale": 2.0, "mode": "fan_in", "distribution": "truncated_normal", "seed": 0, "dtype": "float32"}}, "bias_initializer": {"class_name": "Zeros", "config": {"dtype": "float32"}}, "kernel_regularizer": null, "bias_regularizer": null, "activity_regularizer": null, "kernel_constraint": null, "bias_constraint": null}, "inbound_nodes": [[["dropout_233", 0, 0, {}]]]}, {"name": "activation_482", "class_name": "Activation", "config": {"name": "activation_482", "trainable": true, "dtype": "float32", "activation": "relu"}, "inbound_nodes": [[["bn5A_branch4shb", 0, 0, {}]]]}, {"name": "res5A_branch2c", "class_name": "Conv1D", "config": {"name": "res5A_branch2c", "trainable": true, "dtype": "float32", "filters": 256, "kernel_size": [1], "strides": [1], "padding": "same", "data_format": "channels_last", "dilation_rate": [1], "activation": "linear", "use_bias": true, "kernel_initializer": {"class_name": "VarianceScaling", "config": {"scale": 2.0, "mode": "fan_in", "distribution": "truncated_normal", "seed": 0, "dtype": "float32"}}, "bias_initializer": {"class_name": "Zeros", "config": {"dtype": "float32"}}, "kernel_regularizer": null, "bias_regularizer": null, "activity_regularizer": null, "kernel_constraint": null, "bias_constraint": null}, "inbound_nodes": [[["dropout_232", 0, 0, {}]]]}, {"name": "bn5A_branch3sha", "class_name": "BatchNormalization", "config": {"name": "bn5A_branch3sha", "trainable": true, "dtype": "float32", "axis": [2], "momentum": 0.99, "epsilon": 0.001, "center": true, "scale": true, "beta_initializer": {"class_name": "Zeros", "config": {"dtype": "float32"}}, "gamma_initializer": {"class_name": "Ones", "config": {"dtype": "float32"}}, "moving_mean_initializer": {"class_name": "Zeros", "config": {"dtype": "float32"}}, "moving_variance_initializer": {"class_name": "Ones", "config": {"dtype": "float32"}}, "beta_regularizer": null, "gamma_regularizer": null, "beta_constraint": null, "gamma_constraint": null}, "inbound_nodes": [[["res5A_branch3sha", 0, 0, {}]]]}, {"name": "bn5A_branch2shb", "class_name": "BatchNormalization", "config": {"name": "bn5A_branch2shb", "trainable": true, "dtype": "float32", "axis": [2], "momentum": 0.99, "epsilon": 0.001, "center": true, "scale": true, "beta_initializer": {"class_name": "Zeros", "config": {"dtype": "float32"}}, "gamma_initializer": {"class_name": "Ones", "config": {"dtype": "float32"}}, "moving_mean_initializer": {"class_name": "Zeros", "config": {"dtype": "float32"}}, "moving_variance_initializer": {"class_name": "Ones", "config": {"dtype": "float32"}}, "beta_regularizer": null, "gamma_regularizer": null, "beta_constraint": null, "gamma_constraint": null}, "inbound_nodes": [[["res5A_branch2shb", 0, 0, {}]]]}, {"name": "bn5A_branch5sha", "class_name": "BatchNormalization", "config": {"name": "bn5A_branch5sha", "trainable": true, "dtype": "float32", "axis": [2], "momentum": 0.99, "epsilon": 0.001, "center": true, "scale": true, "beta_initializer": {"class_name": "Zeros", "config": {"dtype": "float32"}}, "gamma_initializer": {"class_name": "Ones", "config": {"dtype": "float32"}}, "moving_mean_initializer": {"class_name": "Zeros", "config": {"dtype": "float32"}}, "moving_variance_initializer": {"class_name": "Ones", "config": {"dtype": "float32"}}, "beta_regularizer": null, "gamma_regularizer": null, "beta_constraint": null, "gamma_constraint": null}, "inbound_nodes": [[["activation_482", 0, 0, {}]]]}, {"name": "bn5A_branch2c", "class_name": "BatchNormalization", "config": {"name": "bn5A_branch2c", "trainable": true, "dtype": "float32", "axis": [2], "momentum": 0.99, "epsilon": 0.001, "center": true, "scale": true, "beta_initializer": {"class_name": "Zeros", "config": {"dtype": "float32"}}, "gamma_initializer": {"class_name": "Ones", "config": {"dtype": "float32"}}, "moving_mean_initializer": {"class_name": "Zeros", "config": {"dtype": "float32"}}, "moving_variance_initializer": {"class_name": "Ones", "config": {"dtype": "float32"}}, "beta_regularizer": null, "gamma_regularizer": null, "beta_constraint": null, "gamma_constraint": null}, "inbound_nodes": [[["res5A_branch2c", 0, 0, {}]]]}, {"name": "activation_480", "class_name": "Activation", "config": {"name": "activation_480", "trainable": true, "dtype": "float32", "activation": "relu"}, "inbound_nodes": [[["bn5A_branch3sha", 0, 0, {}]]]}, {"name": "activation_479", "class_name": "Activation", "config": {"name": "activation_479", "trainable": true, "dtype": "float32", "activation": "relu"}, "inbound_nodes": [[["bn5A_branch2shb", 0, 0, {}]]]}, {"name": "activation_483", "class_name": "Activation", "config": {"name": "activation_483", "trainable": true, "dtype": "float32", "activation": "relu"}, "inbound_nodes": [[["bn5A_branch5sha", 0, 0, {}]]]}, {"name": "add_100", "class_name": "Add", "config": {"name": "add_100", "trainable": true, "dtype": "float32"}, "inbound_nodes": [[["bn5A_branch2c", 0, 0, {}], ["activation_480", 0, 0, {}], ["activation_479", 0, 0, {}], ["activation_482", 0, 0, {}], ["activation_483", 0, 0, {}]]]}, {"name": "activation_484", "class_name": "Activation", "config": {"name": "activation_484", "trainable": true, "dtype": "float32", "activation": "relu"}, "inbound_nodes": [[["add_100", 0, 0, {}]]]}, {"name": "res5a_branch2a", "class_name": "Conv1D", "config": {"name": "res5a_branch2a", "trainable": true, "batch_input_shape": [null, null, 157, 256], "dtype": "float32", "filters": 128, "kernel_size": [5], "strides": [2], "padding": "same", "data_format": "channels_last", "dilation_rate": [1], "activation": "linear", "use_bias": true, "kernel_initializer": {"class_name": "VarianceScaling", "config": {"scale": 2.0, "mode": "fan_in", "distribution": "truncated_normal", "seed": 0, "dtype": "float32"}}, "bias_initializer": {"class_name": "Zeros", "config": {"dtype": "float32"}}, "kernel_regularizer": null, "bias_regularizer": null, "activity_regularizer": null, "kernel_constraint": null, "bias_constraint": null}, "inbound_nodes": [[["activation_484", 0, 0, {}]]]}, {"name": "bn5a_branch2a", "class_name": "BatchNormalization", "config": {"name": "bn5a_branch2a", "trainable": true, "dtype": "float32", "axis": [2], "momentum": 0.99, "epsilon": 0.001, "center": true, "scale": true, "beta_initializer": {"class_name": "Zeros", "config": {"dtype": "float32"}}, "gamma_initializer": {"class_name": "Ones", "config": {"dtype": "float32"}}, "moving_mean_initializer": {"class_name": "Zeros", "config": {"dtype": "float32"}}, "moving_variance_initializer": {"class_name": "Ones", "config": {"dtype": "float32"}}, "beta_regularizer": null, "gamma_regularizer": null, "beta_constraint": null, "gamma_constraint": null}, "inbound_nodes": [[["res5a_branch2a", 0, 0, {}]]]}, {"name": "activation_485", "class_name": "Activation", "config": {"name": "activation_485", "trainable": true, "dtype": "float32", "activation": "relu"}, "inbound_nodes": [[["bn5a_branch2a", 0, 0, {}]]]}, {"name": "dropout_235", "class_name": "Dropout", "config": {"name": "dropout_235", "trainable": true, "dtype": "float32", "rate": 0.3, "noise_shape": null, "seed": null}, "inbound_nodes": [[["activation_485", 0, 0, {}]]]}, {"name": "res5a_branch2b", "class_name": "Conv1D", "config": {"name": "res5a_branch2b", "trainable": true, "dtype": "float32", "filters": 128, "kernel_size": [5], "strides": [1], "padding": "same", "data_format": "channels_last", "dilation_rate": [1], "activation": "linear", "use_bias": true, "kernel_initializer": {"class_name": "VarianceScaling", "config": {"scale": 2.0, "mode": "fan_in", "distribution": "truncated_normal", "seed": 0, "dtype": "float32"}}, "bias_initializer": {"class_name": "Zeros", "config": {"dtype": "float32"}}, "kernel_regularizer": null, "bias_regularizer": null, "activity_regularizer": null, "kernel_constraint": null, "bias_constraint": null}, "inbound_nodes": [[["dropout_235", 0, 0, {}]]]}, {"name": "activation_486", "class_name": "Activation", "config": {"name": "activation_486", "trainable": true, "dtype": "float32", "activation": "relu"}, "inbound_nodes": [[["res5a_branch2b", 0, 0, {}]]]}, {"name": "dropout_236", "class_name": "Dropout", "config": {"name": "dropout_236", "trainable": true, "dtype": "float32", "rate": 0.3, "noise_shape": null, "seed": null}, "inbound_nodes": [[["activation_486", 0, 0, {}]]]}, {"name": "res5a_branch2c", "class_name": "Conv1D", "config": {"name": "res5a_branch2c", "trainable": true, "dtype": "float32", "filters": 256, "kernel_size": [1], "strides": [1], "padding": "same", "data_format": "channels_last", "dilation_rate": [1], "activation": "linear", "use_bias": true, "kernel_initializer": {"class_name": "VarianceScaling", "config": {"scale": 2.0, "mode": "fan_in", "distribution": "truncated_normal", "seed": 0, "dtype": "float32"}}, "bias_initializer": {"class_name": "Zeros", "config": {"dtype": "float32"}}, "kernel_regularizer": null, "bias_regularizer": null, "activity_regularizer": null, "kernel_constraint": null, "bias_constraint": null}, "inbound_nodes": [[["dropout_236", 0, 0, {}]]]}, {"name": "bn5a_branch2c", "class_name": "BatchNormalization", "config": {"name": "bn5a_branch2c", "trainable": true, "dtype": "float32", "axis": [2], "momentum": 0.99, "epsilon": 0.001, "center": true, "scale": true, "beta_initializer": {"class_name": "Zeros", "config": {"dtype": "float32"}}, "gamma_initializer": {"class_name": "Ones", "config": {"dtype": "float32"}}, "moving_mean_initializer": {"class_name": "Zeros", "config": {"dtype": "float32"}}, "moving_variance_initializer": {"class_name": "Ones", "config": {"dtype": "float32"}}, "beta_regularizer": null, "gamma_regularizer": null, "beta_constraint": null, "gamma_constraint": null}, "inbound_nodes": [[["res5a_branch2c", 0, 0, {}]]]}, {"name": "activation_487", "class_name": "Activation", "config": {"name": "activation_487", "trainable": true, "dtype": "float32", "activation": "relu"}, "inbound_nodes": [[["bn5a_branch2c", 0, 0, {}]]]}, {"name": "res5a_branch1", "class_name": "Conv1D", "config": {"name": "res5a_branch1", "trainable": true, "dtype": "float32", "filters": 256, "kernel_size": [1], "strides": [2], "padding": "same", "data_format": "channels_last", "dilation_rate": [1], "activation": "linear", "use_bias": true, "kernel_initializer": {"class_name": "VarianceScaling", "config": {"scale": 2.0, "mode": "fan_in", "distribution": "truncated_normal", "seed": 0, "dtype": "float32"}}, "bias_initializer": {"class_name": "Zeros", "config": {"dtype": "float32"}}, "kernel_regularizer": null, "bias_regularizer": null, "activity_regularizer": null, "kernel_constraint": null, "bias_constraint": null}, "inbound_nodes": [[["activation_484", 0, 0, {}]]]}, {"name": "dropout_237", "class_name": "Dropout", "config": {"name": "dropout_237", "trainable": true, "dtype": "float32", "rate": 0.3, "noise_shape": null, "seed": null}, "inbound_nodes": [[["activation_487", 0, 0, {}]]]}, {"name": "bn5a_branch1", "class_name": "BatchNormalization", "config": {"name": "bn5a_branch1", "trainable": true, "dtype": "float32", "axis": [2], "momentum": 0.99, "epsilon": 0.001, "center": true, "scale": true, "beta_initializer": {"class_name": "Zeros", "config": {"dtype": "float32"}}, "gamma_initializer": {"class_name": "Ones", "config": {"dtype": "float32"}}, "moving_mean_initializer": {"class_name": "Zeros", "config": {"dtype": "float32"}}, "moving_variance_initializer": {"class_name": "Ones", "config": {"dtype": "float32"}}, "beta_regularizer": null, "gamma_regularizer": null, "beta_constraint": null, "gamma_constraint": null}, "inbound_nodes": [[["res5a_branch1", 0, 0, {}]]]}, {"name": "add_101", "class_name": "Add", "config": {"name": "add_101", "trainable": true, "dtype": "float32"}, "inbound_nodes": [[["dropout_237", 0, 0, {}], ["bn5a_branch1", 0, 0, {}]]]}, {"name": "activation_488", "class_name": "Activation", "config": {"name": "activation_488", "trainable": true, "dtype": "float32", "activation": "relu"}, "inbound_nodes": [[["add_101", 0, 0, {}]]]}, {"name": "res6A_branch2a", "class_name": "Conv1D", "config": {"name": "res6A_branch2a", "trainable": true, "batch_input_shape": [null, null, 79, 256], "dtype": "float32", "filters": 256, "kernel_size": [1], "strides": [1], "padding": "same", "data_format": "channels_last", "dilation_rate": [1], "activation": "linear", "use_bias": true, "kernel_initializer": {"class_name": "VarianceScaling", "config": {"scale": 2.0, "mode": "fan_in", "distribution": "truncated_normal", "seed": 0, "dtype": "float32"}}, "bias_initializer": {"class_name": "Zeros", "config": {"dtype": "float32"}}, "kernel_regularizer": null, "bias_regularizer": null, "activity_regularizer": null, "kernel_constraint": null, "bias_constraint": null}, "inbound_nodes": [[["activation_488", 0, 0, {}]]]}, {"name": "bn6A_branch2a", "class_name": "BatchNormalization", "config": {"name": "bn6A_branch2a", "trainable": true, "dtype": "float32", "axis": [2], "momentum": 0.99, "epsilon": 0.001, "center": true, "scale": true, "beta_initializer": {"class_name": "Zeros", "config": {"dtype": "float32"}}, "gamma_initializer": {"class_name": "Ones", "config": {"dtype": "float32"}}, "moving_mean_initializer": {"class_name": "Zeros", "config": {"dtype": "float32"}}, "moving_variance_initializer": {"class_name": "Ones", "config": {"dtype": "float32"}}, "beta_regularizer": null, "gamma_regularizer": null, "beta_constraint": null, "gamma_constraint": null}, "inbound_nodes": [[["res6A_branch2a", 0, 0, {}]]]}, {"name": "activation_489", "class_name": "Activation", "config": {"name": "activation_489", "trainable": true, "dtype": "float32", "activation": "relu"}, "inbound_nodes": [[["bn6A_branch2a", 0, 0, {}]]]}, {"name": "dropout_238", "class_name": "Dropout", "config": {"name": "dropout_238", "trainable": true, "dtype": "float32", "rate": 0.25, "noise_shape": null, "seed": null}, "inbound_nodes": [[["activation_489", 0, 0, {}]]]}, {"name": "res6A_branch1", "class_name": "Conv1D", "config": {"name": "res6A_branch1", "trainable": true, "dtype": "float32", "filters": 256, "kernel_size": [3], "strides": [1], "padding": "same", "data_format": "channels_last", "dilation_rate": [1], "activation": "linear", "use_bias": true, "kernel_initializer": {"class_name": "VarianceScaling", "config": {"scale": 2.0, "mode": "fan_in", "distribution": "truncated_normal", "seed": 0, "dtype": "float32"}}, "bias_initializer": {"class_name": "Zeros", "config": {"dtype": "float32"}}, "kernel_regularizer": null, "bias_regularizer": null, "activity_regularizer": null, "kernel_constraint": null, "bias_constraint": null}, "inbound_nodes": [[["activation_488", 0, 0, {}]]]}, {"name": "bn6A_branch1", "class_name": "BatchNormalization", "config": {"name": "bn6A_branch1", "trainable": true, "dtype": "float32", "axis": [2], "momentum": 0.99, "epsilon": 0.001, "center": true, "scale": true, "beta_initializer": {"class_name": "Zeros", "config": {"dtype": "float32"}}, "gamma_initializer": {"class_name": "Ones", "config": {"dtype": "float32"}}, "moving_mean_initializer": {"class_name": "Zeros", "config": {"dtype": "float32"}}, "moving_variance_initializer": {"class_name": "Ones", "config": {"dtype": "float32"}}, "beta_regularizer": null, "gamma_regularizer": null, "beta_constraint": null, "gamma_constraint": null}, "inbound_nodes": [[["res6A_branch1", 0, 0, {}]]]}, {"name": "res6A_branch4sha", "class_name": "Conv1D", "config": {"name": "res6A_branch4sha", "trainable": true, "dtype": "float32", "filters": 256, "kernel_size": [3], "strides": [1], "padding": "same", "data_format": "channels_last", "dilation_rate": [1], "activation": "linear", "use_bias": true, "kernel_initializer": {"class_name": "VarianceScaling", "config": {"scale": 2.0, "mode": "fan_in", "distribution": "truncated_normal", "seed": 0, "dtype": "float32"}}, "bias_initializer": {"class_name": "Zeros", "config": {"dtype": "float32"}}, "kernel_regularizer": null, "bias_regularizer": null, "activity_regularizer": null, "kernel_constraint": null, "bias_constraint": null}, "inbound_nodes": [[["dropout_238", 0, 0, {}]]]}, {"name": "activation_491", "class_name": "Activation", "config": {"name": "activation_491", "trainable": true, "dtype": "float32", "activation": "relu"}, "inbound_nodes": [[["bn6A_branch1", 0, 0, {}]]]}, {"name": "bn6A_branch4sha", "class_name": "BatchNormalization", "config": {"name": "bn6A_branch4sha", "trainable": true, "dtype": "float32", "axis": [2], "momentum": 0.99, "epsilon": 0.001, "center": true, "scale": true, "beta_initializer": {"class_name": "Zeros", "config": {"dtype": "float32"}}, "gamma_initializer": {"class_name": "Ones", "config": {"dtype": "float32"}}, "moving_mean_initializer": {"class_name": "Zeros", "config": {"dtype": "float32"}}, "moving_variance_initializer": {"class_name": "Ones", "config": {"dtype": "float32"}}, "beta_regularizer": null, "gamma_regularizer": null, "beta_constraint": null, "gamma_constraint": null}, "inbound_nodes": [[["res6A_branch4sha", 0, 0, {}]]]}, {"name": "res6A_branch2sha", "class_name": "Conv1D", "config": {"name": "res6A_branch2sha", "trainable": true, "dtype": "float32", "filters": 256, "kernel_size": [3], "strides": [1], "padding": "same", "data_format": "channels_last", "dilation_rate": [1], "activation": "linear", "use_bias": true, "kernel_initializer": {"class_name": "VarianceScaling", "config": {"scale": 2.0, "mode": "fan_in", "distribution": "truncated_normal", "seed": 0, "dtype": "float32"}}, "bias_initializer": {"class_name": "Zeros", "config": {"dtype": "float32"}}, "kernel_regularizer": null, "bias_regularizer": null, "activity_regularizer": null, "kernel_constraint": null, "bias_constraint": null}, "inbound_nodes": [[["activation_491", 0, 0, {}]]]}, {"name": "activation_495", "class_name": "Activation", "config": {"name": "activation_495", "trainable": true, "dtype": "float32", "activation": "relu"}, "inbound_nodes": [[["bn6A_branch4sha", 0, 0, {}]]]}, {"name": "res6A_branch2b", "class_name": "Conv1D", "config": {"name": "res6A_branch2b", "trainable": true, "dtype": "float32", "filters": 256, "kernel_size": [3], "strides": [1], "padding": "same", "data_format": "channels_last", "dilation_rate": [1], "activation": "linear", "use_bias": true, "kernel_initializer": {"class_name": "VarianceScaling", "config": {"scale": 2.0, "mode": "fan_in", "distribution": "truncated_normal", "seed": 0, "dtype": "float32"}}, "bias_initializer": {"class_name": "Zeros", "config": {"dtype": "float32"}}, "kernel_regularizer": null, "bias_regularizer": null, "activity_regularizer": null, "kernel_constraint": null, "bias_constraint": null}, "inbound_nodes": [[["dropout_238", 0, 0, {}]]]}, {"name": "bn6A_branch2sha", "class_name": "BatchNormalization", "config": {"name": "bn6A_branch2sha", "trainable": true, "dtype": "float32", "axis": [2], "momentum": 0.99, "epsilon": 0.001, "center": true, "scale": true, "beta_initializer": {"class_name": "Zeros", "config": {"dtype": "float32"}}, "gamma_initializer": {"class_name": "Ones", "config": {"dtype": "float32"}}, "moving_mean_initializer": {"class_name": "Zeros", "config": {"dtype": "float32"}}, "moving_variance_initializer": {"class_name": "Ones", "config": {"dtype": "float32"}}, "beta_regularizer": null, "gamma_regularizer": null, "beta_constraint": null, "gamma_constraint": null}, "inbound_nodes": [[["res6A_branch2sha", 0, 0, {}]]]}, {"name": "dropout_241", "class_name": "Dropout", "config": {"name": "dropout_241", "trainable": true, "dtype": "float32", "rate": 0.15, "noise_shape": null, "seed": null}, "inbound_nodes": [[["activation_495", 0, 0, {}]]]}, {"name": "bn6A_branch2b", "class_name": "BatchNormalization", "config": {"name": "bn6A_branch2b", "trainable": true, "dtype": "float32", "axis": [2], "momentum": 0.99, "epsilon": 0.001, "center": true, "scale": true, "beta_initializer": {"class_name": "Zeros", "config": {"dtype": "float32"}}, "gamma_initializer": {"class_name": "Ones", "config": {"dtype": "float32"}}, "moving_mean_initializer": {"class_name": "Zeros", "config": {"dtype": "float32"}}, "moving_variance_initializer": {"class_name": "Ones", "config": {"dtype": "float32"}}, "beta_regularizer": null, "gamma_regularizer": null, "beta_constraint": null, "gamma_constraint": null}, "inbound_nodes": [[["res6A_branch2b", 0, 0, {}]]]}, {"name": "activation_492", "class_name": "Activation", "config": {"name": "activation_492", "trainable": true, "dtype": "float32", "activation": "relu"}, "inbound_nodes": [[["bn6A_branch2sha", 0, 0, {}]]]}, {"name": "res6A_branch4shb", "class_name": "Conv1D", "config": {"name": "res6A_branch4shb", "trainable": true, "dtype": "float32", "filters": 512, "kernel_size": [3], "strides": [1], "padding": "same", "data_format": "channels_last", "dilation_rate": [1], "activation": "linear", "use_bias": true, "kernel_initializer": {"class_name": "VarianceScaling", "config": {"scale": 2.0, "mode": "fan_in", "distribution": "truncated_normal", "seed": 0, "dtype": "float32"}}, "bias_initializer": {"class_name": "Zeros", "config": {"dtype": "float32"}}, "kernel_regularizer": null, "bias_regularizer": null, "activity_regularizer": null, "kernel_constraint": null, "bias_constraint": null}, "inbound_nodes": [[["dropout_241", 0, 0, {}]]]}, {"name": "activation_490", "class_name": "Activation", "config": {"name": "activation_490", "trainable": true, "dtype": "float32", "activation": "relu"}, "inbound_nodes": [[["bn6A_branch2b", 0, 0, {}]]]}, {"name": "add_102", "class_name": "Add", "config": {"name": "add_102", "trainable": true, "dtype": "float32"}, "inbound_nodes": [[["activation_491", 0, 0, {}], ["activation_488", 0, 0, {}]]]}, {"name": "dropout_240", "class_name": "Dropout", "config": {"name": "dropout_240", "trainable": true, "dtype": "float32", "rate": 0.15, "noise_shape": null, "seed": null}, "inbound_nodes": [[["activation_492", 0, 0, {}]]]}, {"name": "bn6A_branch4shb", "class_name": "BatchNormalization", "config": {"name": "bn6A_branch4shb", "trainable": true, "dtype": "float32", "axis": [2], "momentum": 0.99, "epsilon": 0.001, "center": true, "scale": true, "beta_initializer": {"class_name": "Zeros", "config": {"dtype": "float32"}}, "gamma_initializer": {"class_name": "Ones", "config": {"dtype": "float32"}}, "moving_mean_initializer": {"class_name": "Zeros", "config": {"dtype": "float32"}}, "moving_variance_initializer": {"class_name": "Ones", "config": {"dtype": "float32"}}, "beta_regularizer": null, "gamma_regularizer": null, "beta_constraint": null, "gamma_constraint": null}, "inbound_nodes": [[["res6A_branch4shb", 0, 0, {}]]]}, {"name": "dropout_239", "class_name": "Dropout", "config": {"name": "dropout_239", "trainable": true, "dtype": "float32", "rate": 0.15, "noise_shape": null, "seed": null}, "inbound_nodes": [[["activation_490", 0, 0, {}]]]}, {"name": "res6A_branch3sha", "class_name": "Conv1D", "config": {"name": "res6A_branch3sha", "trainable": true, "dtype": "float32", "filters": 512, "kernel_size": [3], "strides": [1], "padding": "same", "data_format": "channels_last", "dilation_rate": [1], "activation": "linear", "use_bias": true, "kernel_initializer": {"class_name": "VarianceScaling", "config": {"scale": 2.0, "mode": "fan_in", "distribution": "truncated_normal", "seed": 0, "dtype": "float32"}}, "bias_initializer": {"class_name": "Zeros", "config": {"dtype": "float32"}}, "kernel_regularizer": null, "bias_regularizer": null, "activity_regularizer": null, "kernel_constraint": null, "bias_constraint": null}, "inbound_nodes": [[["add_102", 0, 0, {}]]]}, {"name": "res6A_branch2shb", "class_name": "Conv1D", "config": {"name": "res6A_branch2shb", "trainable": true, "dtype": "float32", "filters": 512, "kernel_size": [3], "strides": [1], "padding": "same", "data_format": "channels_last", "dilation_rate": [1], "activation": "linear", "use_bias": true, "kernel_initializer": {"class_name": "VarianceScaling", "config": {"scale": 2.0, "mode": "fan_in", "distribution": "truncated_normal", "seed": 0, "dtype": "float32"}}, "bias_initializer": {"class_name": "Zeros", "config": {"dtype": "float32"}}, "kernel_regularizer": null, "bias_regularizer": null, "activity_regularizer": null, "kernel_constraint": null, "bias_constraint": null}, "inbound_nodes": [[["dropout_240", 0, 0, {}]]]}, {"name": "activation_496", "class_name": "Activation", "config": {"name": "activation_496", "trainable": true, "dtype": "float32", "activation": "relu"}, "inbound_nodes": [[["bn6A_branch4shb", 0, 0, {}]]]}, {"name": "res6A_branch2c", "class_name": "Conv1D", "config": {"name": "res6A_branch2c", "trainable": true, "dtype": "float32", "filters": 512, "kernel_size": [1], "strides": [1], "padding": "same", "data_format": "channels_last", "dilation_rate": [1], "activation": "linear", "use_bias": true, "kernel_initializer": {"class_name": "VarianceScaling", "config": {"scale": 2.0, "mode": "fan_in", "distribution": "truncated_normal", "seed": 0, "dtype": "float32"}}, "bias_initializer": {"class_name": "Zeros", "config": {"dtype": "float32"}}, "kernel_regularizer": null, "bias_regularizer": null, "activity_regularizer": null, "kernel_constraint": null, "bias_constraint": null}, "inbound_nodes": [[["dropout_239", 0, 0, {}]]]}, {"name": "bn6A_branch3sha", "class_name": "BatchNormalization", "config": {"name": "bn6A_branch3sha", "trainable": true, "dtype": "float32", "axis": [2], "momentum": 0.99, "epsilon": 0.001, "center": true, "scale": true, "beta_initializer": {"class_name": "Zeros", "config": {"dtype": "float32"}}, "gamma_initializer": {"class_name": "Ones", "config": {"dtype": "float32"}}, "moving_mean_initializer": {"class_name": "Zeros", "config": {"dtype": "float32"}}, "moving_variance_initializer": {"class_name": "Ones", "config": {"dtype": "float32"}}, "beta_regularizer": null, "gamma_regularizer": null, "beta_constraint": null, "gamma_constraint": null}, "inbound_nodes": [[["res6A_branch3sha", 0, 0, {}]]]}, {"name": "bn6A_branch2shb", "class_name": "BatchNormalization", "config": {"name": "bn6A_branch2shb", "trainable": true, "dtype": "float32", "axis": [2], "momentum": 0.99, "epsilon": 0.001, "center": true, "scale": true, "beta_initializer": {"class_name": "Zeros", "config": {"dtype": "float32"}}, "gamma_initializer": {"class_name": "Ones", "config": {"dtype": "float32"}}, "moving_mean_initializer": {"class_name": "Zeros", "config": {"dtype": "float32"}}, "moving_variance_initializer": {"class_name": "Ones", "config": {"dtype": "float32"}}, "beta_regularizer": null, "gamma_regularizer": null, "beta_constraint": null, "gamma_constraint": null}, "inbound_nodes": [[["res6A_branch2shb", 0, 0, {}]]]}, {"name": "bn6A_branch5sha", "class_name": "BatchNormalization", "config": {"name": "bn6A_branch5sha", "trainable": true, "dtype": "float32", "axis": [2], "momentum": 0.99, "epsilon": 0.001, "center": true, "scale": true, "beta_initializer": {"class_name": "Zeros", "config": {"dtype": "float32"}}, "gamma_initializer": {"class_name": "Ones", "config": {"dtype": "float32"}}, "moving_mean_initializer": {"class_name": "Zeros", "config": {"dtype": "float32"}}, "moving_variance_initializer": {"class_name": "Ones", "config": {"dtype": "float32"}}, "beta_regularizer": null, "gamma_regularizer": null, "beta_constraint": null, "gamma_constraint": null}, "inbound_nodes": [[["activation_496", 0, 0, {}]]]}, {"name": "bn6A_branch2c", "class_name": "BatchNormalization", "config": {"name": "bn6A_branch2c", "trainable": true, "dtype": "float32", "axis": [2], "momentum": 0.99, "epsilon": 0.001, "center": true, "scale": true, "beta_initializer": {"class_name": "Zeros", "config": {"dtype": "float32"}}, "gamma_initializer": {"class_name": "Ones", "config": {"dtype": "float32"}}, "moving_mean_initializer": {"class_name": "Zeros", "config": {"dtype": "float32"}}, "moving_variance_initializer": {"class_name": "Ones", "config": {"dtype": "float32"}}, "beta_regularizer": null, "gamma_regularizer": null, "beta_constraint": null, "gamma_constraint": null}, "inbound_nodes": [[["res6A_branch2c", 0, 0, {}]]]}, {"name": "activation_494", "class_name": "Activation", "config": {"name": "activation_494", "trainable": true, "dtype": "float32", "activation": "relu"}, "inbound_nodes": [[["bn6A_branch3sha", 0, 0, {}]]]}, {"name": "activation_493", "class_name": "Activation", "config": {"name": "activation_493", "trainable": true, "dtype": "float32", "activation": "relu"}, "inbound_nodes": [[["bn6A_branch2shb", 0, 0, {}]]]}, {"name": "activation_497", "class_name": "Activation", "config": {"name": "activation_497", "trainable": true, "dtype": "float32", "activation": "relu"}, "inbound_nodes": [[["bn6A_branch5sha", 0, 0, {}]]]}, {"name": "add_103", "class_name": "Add", "config": {"name": "add_103", "trainable": true, "dtype": "float32"}, "inbound_nodes": [[["bn6A_branch2c", 0, 0, {}], ["activation_494", 0, 0, {}], ["activation_493", 0, 0, {}], ["activation_496", 0, 0, {}], ["activation_497", 0, 0, {}]]]}, {"name": "activation_498", "class_name": "Activation", "config": {"name": "activation_498", "trainable": true, "dtype": "float32", "activation": "relu"}, "inbound_nodes": [[["add_103", 0, 0, {}]]]}, {"name": "res6a_branch2a", "class_name": "Conv1D", "config": {"name": "res6a_branch2a", "trainable": true, "batch_input_shape": [null, null, 79, 512], "dtype": "float32", "filters": 256, "kernel_size": [3], "strides": [2], "padding": "same", "data_format": "channels_last", "dilation_rate": [1], "activation": "linear", "use_bias": true, "kernel_initializer": {"class_name": "VarianceScaling", "config": {"scale": 2.0, "mode": "fan_in", "distribution": "truncated_normal", "seed": 0, "dtype": "float32"}}, "bias_initializer": {"class_name": "Zeros", "config": {"dtype": "float32"}}, "kernel_regularizer": null, "bias_regularizer": null, "activity_regularizer": null, "kernel_constraint": null, "bias_constraint": null}, "inbound_nodes": [[["activation_498", 0, 0, {}]]]}, {"name": "bn6a_branch2a", "class_name": "BatchNormalization", "config": {"name": "bn6a_branch2a", "trainable": true, "dtype": "float32", "axis": [2], "momentum": 0.99, "epsilon": 0.001, "center": true, "scale": true, "beta_initializer": {"class_name": "Zeros", "config": {"dtype": "float32"}}, "gamma_initializer": {"class_name": "Ones", "config": {"dtype": "float32"}}, "moving_mean_initializer": {"class_name": "Zeros", "config": {"dtype": "float32"}}, "moving_variance_initializer": {"class_name": "Ones", "config": {"dtype": "float32"}}, "beta_regularizer": null, "gamma_regularizer": null, "beta_constraint": null, "gamma_constraint": null}, "inbound_nodes": [[["res6a_branch2a", 0, 0, {}]]]}, {"name": "activation_499", "class_name": "Activation", "config": {"name": "activation_499", "trainable": true, "dtype": "float32", "activation": "relu"}, "inbound_nodes": [[["bn6a_branch2a", 0, 0, {}]]]}, {"name": "dropout_242", "class_name": "Dropout", "config": {"name": "dropout_242", "trainable": true, "dtype": "float32", "rate": 0.3, "noise_shape": null, "seed": null}, "inbound_nodes": [[["activation_499", 0, 0, {}]]]}, {"name": "res6a_branch2b", "class_name": "Conv1D", "config": {"name": "res6a_branch2b", "trainable": true, "dtype": "float32", "filters": 256, "kernel_size": [3], "strides": [1], "padding": "same", "data_format": "channels_last", "dilation_rate": [1], "activation": "linear", "use_bias": true, "kernel_initializer": {"class_name": "VarianceScaling", "config": {"scale": 2.0, "mode": "fan_in", "distribution": "truncated_normal", "seed": 0, "dtype": "float32"}}, "bias_initializer": {"class_name": "Zeros", "config": {"dtype": "float32"}}, "kernel_regularizer": null, "bias_regularizer": null, "activity_regularizer": null, "kernel_constraint": null, "bias_constraint": null}, "inbound_nodes": [[["dropout_242", 0, 0, {}]]]}, {"name": "activation_500", "class_name": "Activation", "config": {"name": "activation_500", "trainable": true, "dtype": "float32", "activation": "relu"}, "inbound_nodes": [[["res6a_branch2b", 0, 0, {}]]]}, {"name": "dropout_243", "class_name": "Dropout", "config": {"name": "dropout_243", "trainable": true, "dtype": "float32", "rate": 0.3, "noise_shape": null, "seed": null}, "inbound_nodes": [[["activation_500", 0, 0, {}]]]}, {"name": "res6a_branch2c", "class_name": "Conv1D", "config": {"name": "res6a_branch2c", "trainable": true, "dtype": "float32", "filters": 512, "kernel_size": [1], "strides": [1], "padding": "same", "data_format": "channels_last", "dilation_rate": [1], "activation": "linear", "use_bias": true, "kernel_initializer": {"class_name": "VarianceScaling", "config": {"scale": 2.0, "mode": "fan_in", "distribution": "truncated_normal", "seed": 0, "dtype": "float32"}}, "bias_initializer": {"class_name": "Zeros", "config": {"dtype": "float32"}}, "kernel_regularizer": null, "bias_regularizer": null, "activity_regularizer": null, "kernel_constraint": null, "bias_constraint": null}, "inbound_nodes": [[["dropout_243", 0, 0, {}]]]}, {"name": "bn6a_branch2c", "class_name": "BatchNormalization", "config": {"name": "bn6a_branch2c", "trainable": true, "dtype": "float32", "axis": [2], "momentum": 0.99, "epsilon": 0.001, "center": true, "scale": true, "beta_initializer": {"class_name": "Zeros", "config": {"dtype": "float32"}}, "gamma_initializer": {"class_name": "Ones", "config": {"dtype": "float32"}}, "moving_mean_initializer": {"class_name": "Zeros", "config": {"dtype": "float32"}}, "moving_variance_initializer": {"class_name": "Ones", "config": {"dtype": "float32"}}, "beta_regularizer": null, "gamma_regularizer": null, "beta_constraint": null, "gamma_constraint": null}, "inbound_nodes": [[["res6a_branch2c", 0, 0, {}]]]}, {"name": "activation_501", "class_name": "Activation", "config": {"name": "activation_501", "trainable": true, "dtype": "float32", "activation": "relu"}, "inbound_nodes": [[["bn6a_branch2c", 0, 0, {}]]]}, {"name": "res6a_branch1", "class_name": "Conv1D", "config": {"name": "res6a_branch1", "trainable": true, "dtype": "float32", "filters": 512, "kernel_size": [1], "strides": [2], "padding": "same", "data_format": "channels_last", "dilation_rate": [1], "activation": "linear", "use_bias": true, "kernel_initializer": {"class_name": "VarianceScaling", "config": {"scale": 2.0, "mode": "fan_in", "distribution": "truncated_normal", "seed": 0, "dtype": "float32"}}, "bias_initializer": {"class_name": "Zeros", "config": {"dtype": "float32"}}, "kernel_regularizer": null, "bias_regularizer": null, "activity_regularizer": null, "kernel_constraint": null, "bias_constraint": null}, "inbound_nodes": [[["activation_498", 0, 0, {}]]]}, {"name": "dropout_244", "class_name": "Dropout", "config": {"name": "dropout_244", "trainable": true, "dtype": "float32", "rate": 0.3, "noise_shape": null, "seed": null}, "inbound_nodes": [[["activation_501", 0, 0, {}]]]}, {"name": "bn6a_branch1", "class_name": "BatchNormalization", "config": {"name": "bn6a_branch1", "trainable": true, "dtype": "float32", "axis": [2], "momentum": 0.99, "epsilon": 0.001, "center": true, "scale": true, "beta_initializer": {"class_name": "Zeros", "config": {"dtype": "float32"}}, "gamma_initializer": {"class_name": "Ones", "config": {"dtype": "float32"}}, "moving_mean_initializer": {"class_name": "Zeros", "config": {"dtype": "float32"}}, "moving_variance_initializer": {"class_name": "Ones", "config": {"dtype": "float32"}}, "beta_regularizer": null, "gamma_regularizer": null, "beta_constraint": null, "gamma_constraint": null}, "inbound_nodes": [[["res6a_branch1", 0, 0, {}]]]}, {"name": "add_104", "class_name": "Add", "config": {"name": "add_104", "trainable": true, "dtype": "float32"}, "inbound_nodes": [[["dropout_244", 0, 0, {}], ["bn6a_branch1", 0, 0, {}]]]}, {"name": "activation_502", "class_name": "Activation", "config": {"name": "activation_502", "trainable": true, "dtype": "float32", "activation": "relu"}, "inbound_nodes": [[["add_104", 0, 0, {}]]]}, {"name": "lstm_6", "class_name": "LSTM", "config": {"name": "lstm_6", "trainable": true, "dtype": "float32", "return_sequences": false, "return_state": false, "go_backwards": false, "stateful": false, "unroll": false, "time_major": false, "units": 256, "activation": "tanh", "recurrent_activation": "hard_sigmoid", "use_bias": true, "kernel_initializer": {"class_name": "GlorotUniform", "config": {"seed": null, "dtype": "float32"}}, "recurrent_initializer": {"class_name": "Orthogonal", "config": {"gain": 1.0, "seed": null, "dtype": "float32"}}, "bias_initializer": {"class_name": "Zeros", "config": {"dtype": "float32"}}, "unit_forget_bias": true, "kernel_regularizer": null, "recurrent_regularizer": null, "bias_regularizer": null, "activity_regularizer": null, "kernel_constraint": null, "recurrent_constraint": null, "bias_constraint": null, "dropout": 0.0, "recurrent_dropout": 0.0, "implementation": 1}, "inbound_nodes": [[["activation_502", 0, 0, {}]]]}, {"name": "batch_normalization_6", "class_name": "BatchNormalization", "config": {"name": "batch_normalization_6", "trainable": true, "dtype": "float32", "axis": [1], "momentum": 0.99, "epsilon": 0.001, "center": true, "scale": true, "beta_initializer": {"class_name": "Zeros", "config": {"dtype": "float32"}}, "gamma_initializer": {"class_name": "Ones", "config": {"dtype": "float32"}}, "moving_mean_initializer": {"class_name": "Zeros", "config": {"dtype": "float32"}}, "moving_variance_initializer": {"class_name": "Ones", "config": {"dtype": "float32"}}, "beta_regularizer": null, "gamma_regularizer": null, "beta_constraint": null, "gamma_constraint": null}, "inbound_nodes": [[["lstm_6", 0, 0, {}]]]}, {"name": "activation_503", "class_name": "Activation", "config": {"name": "activation_503", "trainable": true, "dtype": "float32", "activation": "relu"}, "inbound_nodes": [[["batch_normalization_6", 0, 0, {}]]]}, {"name": "fc9", "class_name": "Dense", "config": {"name": "fc9", "trainable": true, "dtype": "float32", "units": 9, "activation": "sigmoid", "use_bias": true, "kernel_initializer": {"class_name": "GlorotUniform", "config": {"seed": null, "dtype": "float32"}}, "bias_initializer": {"class_name": "Zeros", "config": {"dtype": "float32"}}, "kernel_regularizer": null, "bias_regularizer": null, "activity_regularizer": null, "kernel_constraint": null, "bias_constraint": null}, "inbound_nodes": [[["activation_503", 0, 0, {}]]]}], "input_layers": [["input_7", 0, 0]], "output_layers": [["fc9", 0, 0]]}, "keras_version": "2.2.4-tf", "backend": "tensorflow"}